best_model_dk40_diverse_synthetic.ckpt (torch, 449559 bytes, 26 tensors)

kernel.layers.0.weight f8 [32, 1]
00000000: 3867 8682 50d9 b3be 610e a85e aaad b03e
00000010: 83ec e35e 0fd5 ecbf f95e 0deb 6865 e0bf
00000020: 7954 c508 22cc a1be 6250 1c8c add5 d33f
00000030: f7e3 f96a 10c8 cb3f f149 30da 392d e53f
00000040: 3141 44f0 b55d 863e 568d 8b66 c01b 8d3d
00000050: d075 7dbf e617 93be 112c 2866 1b95 cabf
00000060: 77b8 7787 8d3e f0bf d74f de0b ae1b e8bf
00000070: b8c5 8986 4795 a0be 8ab8 378f 7e59 52be
00000080: cc7a 0860 fe75 c7bd 0310 adcb 979c 84be
00000090: b25b 31b9 0309 cebf 3d79 1876 b82f b7bf
000000a0: efd3 4794 d0bb cf3f 665e 1d64 62cc e73f
000000b0: 6b78 8834 ffe8 c23f bb26 0d42 46bb b2be
000000c0: 9fc3 55af 65be ab3e 69be aba3 3ad7 bc3e
000000d0: c13f 03e3 e76b e03f d435 8195 6b95 ecbf
000000e0: 270b ebb6 3a2c d83e 9f37 e9fa 7621 16be
000000f0: 4af2 566a b8de c3bf e02c 239b f365 eb3f
-1.1830857236994507e-06 9.941089681450045e-07 -0.9010083058668815 -0.5123791304458499 -5.304036832335516e-07 0.30991686518360073 0.21704297278827742 0.6617707501885076
1.6664011338224138e-07 3.3092424643730022e-12 -2.8451330490682285e-07 -0.20767538536196686 -1.015271691484967 -0.7533788902096558 -4.942155672050553e-07 -1.7089384974781052e-08
-4.2675151610532524e-11 -1.5356906665254824e-07 -0.23465010206811382 -0.09057190783685072 0.2479191516901262 0.7436992602697046 0.14773550095646057 -1.1164868356110426e-06
8.268278565548858e-07 1.7190419742649758e-06 0.5131720956651337 -0.8932397766126834 5.763237693914489e-06 -1.2881775469618556e-09 -0.15523438637127845 0.8561952619578754

kernel.layers.0.bias f8 [32]
00000000: 1349 a7e1 2680 c1be 1998 c00c f304 bebe
00000010: a6d5 1d3e 8695 e7bf 4cd8 8d81 e076 e1bf
00000020: 2771 ea0e 072d b3be 8b37 2eaa e6c2 d53f
00000030: e81c 7688 426b cd3f 306a 624e 9d48 dc3f
00000040: 4f6e 5437 1ad6 d1be b67c 0418 97f9 d0bd
00000050: 47a5 7351 0e1c 99be dbe6 9971 a7cd d7bf
00000060: 176d 22fa 3037 eabf 6e58 088f dd82 e3bf
00000070: 41cf f722 2f14 a7be f9fb bae4 062f 54be
00000080: 36fa 7776 a0f1 f0bd 3ac7 7c2e 7a1b 86be
00000090: 75d0 37b7 cd0b cd3f 8a7d d735 a6c9 e83f
000000a0: 885c 9c0b 9c09 cf3f 55b7 8956 c972 c53f
000000b0: 9bd1 e0c1 e4df cd3f 7292 b150 423d b4be
000000c0: 2363 250f cdb5 b1be 826b 1b8a 53ad bdbe
000000d0: 17ee d3fa 5254 ddbf df3c 30c4 dc21 e7bf
000000e0: 40b3 4d50 afff dfbe bd88 3f08 bdd1 1fbe
000000f0: b74b 06c9 a1c6 d0bf 90a1 6300 4a78 d03f
-2.086233292100266e-06 -1.7892917183542097e-06 -0.7370024884427735 -0.5457613497117193 -1.1429720491512863e-06 0.3400208150786674 0.22983581221726657 0.4419320359681107
-4.252514249427125e-06 -6.175455112935982e-11 -3.74162099926903e-07 -0.3719271287333023 -0.8192372212828641 -0.6097247880559402 -6.878031565946795e-07 -1.8797534458459403e-08
-2.4656553749129665e-10 -1.6471246699341744e-07 0.22692271658127408 0.7746153880688535 0.2424807602589889 0.16756550527082462 0.233395189921464 -1.2063558781024171e-06
-1.055607807906412e-06 -1.7688903785537107e-06 -0.45827173705012697 -0.72288358991673 -7.62910099614823e-06 -1.8521264808230721e-09 -0.2621235335474767 0.25734186208730936

kernel.layers.2.weight f8 [64, 32]
00000000: ea61 1781 7fa1 3ebd 3e45 b82f 3ccf 703d
00000010: cf88 ca40 69fc 87be fe92 e7da a0a4 7cbe
00000020: f64f 1fce 0150 873d b3c7 f7b7 6315 94be
00000030: 0e1a e7e6 cb3b 7bbe aa2e b52f 1f61 b03e
00000040: 3325 563e a1d3 5b3d eefd 88ed 3909 373d
00000050: bf46 6179 8847 813d 90da f404 6046 333e
00000060: a150 7a82 08ca 863e 16f4 1f4e 55c2 99be
00000070: 8cde 0019 0696 673d de44 7e8c 3044 55bd
00000080: 27eb 2798 8b64 2e3d 4cf6 d8a5 bf83 65bd
00000090: 6d2f 85df e874 aa3e 1b0d b5d3 cd7d 5bbe
000000a0: 6b72 1996 71c8 673e a1c6 0d7d 1679 a0be
000000b0: 5e07 312b eb6a a6be c6b0 dcaf 46c4 743d
000000c0: 77b9 df5d 8898 ee3c 38ec 7d38 8068 833d
000000d0: 1dbd 9222 1401 933e 5121 a71e 90fc 7cbe
000000e0: 3209 4e47 c5bc 373d 7c7f cce8 6707 1b3d
000000f0: 57b2 cd90 ca5d 26be 6bb2 5cb3 d53b 5ebe
00000100: 8884 f961 ae54 3cbd 45bf df47 3714 833d
00000110: fd02 1a78 d1a8 a0be 1294 11f9 106e 7a3e
00000120: 0ca6 af0b c1f2 8f3d 495e cf93 5de5 b7be
00000130: 1075 ddaf bc01 b7be 3ee3 9207 a23e a9be
00000140: fe7e 9f8c b849 a33d e8f5 f75b 3d64 493d
00000150: 6756 8c2f ce59 793d c3c9 1b57 15a9 7a3e
00000160: 8fdc 74b2 f303 8ebe 8830 0459 81ae a3be
00000170: f68c 929c 7d99 1c3d 23ac 18a3 aaef 583d
00000180: c306 247d fd5f 1b3d 107b a9c0 7e92 5f3d
00000190: 6829 55e6 21e5 7cbe df02 5aa3 ef70 843e
000001a0: e399 eb38 da2a b7be 0cca 1378 5a9c 89be
000001b0: 908b 88c1 744d bbbe f1f8 3010 7d41 85bd
000001c0: 7dbf 43d1 ad9a 903d b75d e9e4 e13b 843d
000001d0: ebc0 a226 b1d9 8ebe eba2 97ee 28d7 9bbe
000001e0: 1ee1 0a30 b73c 5d3d 5cbb e1c6 82a1 14bd
000001f0: c788 611f 987a 723e 0e19 3e51 f5d8 76be
00000200: 5f17 0fb7 3a44 adbe ca32 aa18 7c76 b1be
00000210: 4944 5180 b0ce d43f 88bf 2886 996f af3f
00000220: c9fc b140 7deb 613e 2724 9d7e 0c3f 7fbf
00000230: bde0 8226 97e2 b63f ab8f 47c5 38e2 bd3f
00000240: fbd2 37fc 0ac6 b7be 776f f959 a604 123e
00000250: 2520 2ca1 9eeb 45be 71d2 c666 06fd a83f
00000260: 2564 7fe8 fde7 df3f 0dee 5d10 298b da3f
00000270: bb2d c0ad 8b04 663e acc8 4f09 0c8d 50be
00000280: 9f75 ec36 252f 373e 0a11 c9b3 8adc 7b3e
00000290: 6c02 1897 ea7d b73f 504b 3b8d 40fe 9bbf
000002a0: 2bc8 be05 697e bebf 5ff2 8a56 fc17 c8bf
000002b0: 5526 ae1f 888e c6bf cd77 8465 148b 64be
000002c0: 331d 5bca 72c2 92be 8961 4dc4 0394 b3be
000002d0: 7de7 c0f9 5159 b53f 9647 71f9 d5d5 a93f
000002e0: 89f3 24fe 94b8 b13e fb62 f4a6 1151 17be
000002f0: 12fd d92b bd43 a3bf 7d40 92d7 3d55 b13f
00000300: 63a9 ac7d ca53 893d 994f cad4 30c7 88bd
00000310: 66ed 45e3 1416 d1be 987c 2bc6 aa76 78be
00000320: 2ff8 7c90 5e3b 823d ccf1 c804 47e0 b03e
00000330: 6faf 327c 2df0 b13e a58a f552 10d4 b7be
00000340: 47f8 e954 6ae9 a63d edf1 4483 2f9a 143d
00000350: bff9 c76d d5cf 593d 4e3a ef0e 5a86 713e
00000360: df67 684e a135 d1be a81e b9c2 4ef5 d0be
00000370: dcd6 22a9 193a 463d 15fd eff7 93dc 803d
00000380: 5443 4b38 60d9 463d 6f13 97e0 ac43 573d
00000390: d2ab 20e7 45da b6be eecf 601c 2e0f babe
000003a0: 2b16 a985 bcfe b43e 0dd0 1f66 b8ed c8be
000003b0: 0433 6bdf 3359 a5be 3076 36f5 a400 8f3d
000003c0: d818 875f 7a34 a03d 5a19 34a9 0cd5 8dbd
000003d0: ce68 ad45 54c5 a33e 64ce 8a3e d22c d1be
000003e0: a7e1 037e aa17 633d cc8f d54b 8667 613d
000003f0: 8d93 ff2e 3891 643e bc95 581c 113f c9be
00000400: 4d25 3bfc 706e 27be 9a49 838a 7a93 693e
00000410: 6bdd 6569 b7bb c5bf 8171 e64c dded 39bf
00000420: 4008 3313 ed59 57be b53e b8ed 36b7 923f
00000430: f89b b2af 67c0 a8bf c490 6a34 8c44 b7bf
00000440: 41e3 4c27 a0b6 833e a901 2ca0 c2af e1bd
00000450: e3cf 76c2 cf62 33be 7a51 e826 8dcb 3fbf
00000460: 74fd 5990 7c74 c9bf 909f 630c 0d2a a8bf
00000470: cff5 0cc1 1d6f 22be d331 8987 989a f73d
00000480: 02cc 30dc 4ce4 e8bd fa55 30d7 d5e3 3b3e
00000490: d2d0 c55d 5cba af3f 908f 7084 6d15 a0bf
000004a0: a15c 5346 92cf 98bf 6d67 1ef5 19ef b6bf
000004b0: 4c26 4e7c e9d2 343f 2022 fe8c 9193 653e
000004c0: e684 4377 e4a3 653e da76 0af1 a0d0 7c3e
000004d0: 9bb3 4376 959a 69bf c48a d5a6 5ac3 cabf
000004e0: 03f4 b611 357d 2d3e ab03 202c a251 f53d
000004f0: df04 7c58 bba4 34bf 6bf5 5358 96be b1bf
00000500: ea6f 2eac 42e2 593d 869e de78 9b86 a1bd
00000510: 7db6 a168 f319 cabe 7018 dbe8 cab3 76be
00000520: 02b1 81d9 e764 ba3d d006 957d f4d7 b9be
00000530: 8cfa e0d5 d7b3 b7be 9b72 6fc7 9e50 bfbe
00000540: 17ee 2a8d b96b a03d c3bf d866 9245 163d
00000550: eb4a 1667 1cd0 7e3d 3ed8 5013 ef69 a13e
00000560: 9834 4834 bb47 c8be cabd f6e6 1b7c cbbe
00000570: 4c00 83c8 c6b0 6d3d f574 fe57 a8fc b03d
00000580: 34b4 1366 d44c 5a3d 2f44 f562 7a55 aa3d
00000590: a880 4055 2667 c4be e2a8 b9dc a41d bfbe
000005a0: d13b 962c b88b b2be dfc1 27d7 c05f c7be
000005b0: 8b48 8619 cde7 c3be f5ee 083c 49aa c53d
000005c0: fef1 84ee 63d1 a33d 0437 83fc c276 a93d
000005d0: f006 11fb c798 bd3e a701 a002 30c6 c9be
000005e0: a02d efba 1a78 c53d 4ac8 fc63 a9a9 683d
000005f0: 0a7f 5bcb 38bc 973e e937 0173 4e5d c6be
00000600: e1d4 6d45 ed50 2f3d 32df 7974 0fdc 363d
00000610: 9f68 5e6f fe48 863e e651 3601 fba1 213e
00000620: 4723 75f1 be8c 1a3d b019 1b0a 33d7 80be
00000630: 98b0 564b bdf2 76be a8c6 37f4 e57e 77be
00000640: 6252 bc55 ed4b 33bd 21c2 c237 5b5b e53c
00000650: ccf2 8eb3 0d50 543d b038 678d 22c3 133e
00000660: 20c7 cd11 9ee0 883e 810b bf3c bec9 833e
00000670: bae0 101d 9dc1 033d 454d 1499 085b 39bd
00000680: 692c c58f 094d 383d 8002 4967 469d 523d
00000690: 2e6d 9721 eff5 583e af82 fbfb b5c9 70be
000006a0: bfec 6e4e b1be 7abe 93d9 5d53 61f1 743e
000006b0: 9632 96b2 9a83 61be 8b9a d018 5ac3 a7bd
000006c0: 655e c447 3759 853c ca45 8f66 adc2 7ebd
000006d0: cb28 710b bc6b 413e 39b5 d590 cb84 863e
000006e0: e01a 8efb a48f 3abd 5f9b f257 58e8 0bbd
000006f0: f4ef f76f 1a45 0d3e 6bf2 9d7a de51 743e
00000700: 0591 4174 2bbd 543d e041 1c7f 57d3 4bbd
00000710: 5d24 1ac5 6ebb bd3e 324e 054b 2aa4 823e
00000720: 3f2b bb07 aff1 2e3d 4696 91b0 1814 c4be
00000730: 3dfd 524c 0b15 c2be 199a 447c 80d1 b2be
00000740: 5078 de13 0a29 703d 4471 25e0 9f82 273d
00000750: a9f5 3a5f 0e32 613d ab57 216c 82ff 763e
00000760: a0c9 395b 3165 c13e c512 e78c 4443 ba3e
00000770: c337 faa7 6be2 493d 4575 8af0 d7db 35bd
00000780: 2cea 59ba b464 633d e0aa ff70 4b83 6e3d
00000790: 8c75 eb7c 51d0 863e ce43 756d e638 bfbe
000007a0: 248c 255e 888c c2be bd78 0a58 ec64 b8be
000007b0: 6b46 366b 4c20 c0be 9a3f dac9 0b73 6a3d
000007c0: 5894 4102 8016 6fbd e4df e7f0 bad6 753d
000007d0: 1e8a ac8f ea45 86be 28ab 3d2e d7b2 be3e
000007e0: 0bb9 fcde 1496 b2bd 275a d8f9 7a95 593d
000007f0: f1a8 fa02 b1b1 703e 3031 ecc3 a98a b6be
-1.0882264622102252e-13 9.555101383776826e-13 -1.7870948489535633e-07 -1.0670378600798595e-07 2.6503275358477777e-12 -2.9926825814631545e-07 -1.0145299154168204e-07 9.762872526683825e-07
3.954408943312772e-13 8.184045497889261e-14 1.9644433200623363e-12 4.487787987845493e-09 1.697927143230661e-07 -3.8384071221459433e-07 6.703553067112835e-13 -3.022132346462252e-13
5.398837828508355e-14 -6.114829336636589e-13 7.884704578491418e-07 -2.560338184283313e-08 4.4299258272695555e-08 -4.90933638726098e-07 -6.680980589939599e-07 1.1804504309470034e-12
3.3968195801297593e-15 2.2064576219439434e-12 2.831848485246963e-07 -1.0798340325309844e-07 8.433213321106423e-14 2.400651169513106e-14 -2.6037884126827067e-09 -2.815735485673362e-08
-1.0065117048811624e-13 2.1690275977361362e-12 -4.964901878096983e-07 9.845922323418535e-08 3.6320964389729552e-12 -1.4243101553647095e-06 -1.3713112702798024e-06 -7.523494921702322e-07
8.771154284192262e-12 1.8041789408505555e-13 1.4410262789760993e-12 9.931803448738283e-08 -2.2363243455125324e-07 -5.865592118971917e-07 2.5401523490024114e-14 3.5436467933098777e-13
2.4313850206604448e-14 4.486686093368629e-13 -1.0764244392117718e-07 1.5229848464653198e-07 -1.3808841889340218e-06 -1.9081499761477516e-07 -1.6273595574509853e-06 -2.4165063409451944e-12
3.775361334112945e-12 2.3003298817608134e-12 -2.2985308884482522e-07 -4.1485530618985827e-07 4.154851783078248e-13 -1.8323921710510305e-14 6.883920619782231e-08 -8.511354493258456e-08
-8.722102916517655e-07 -1.0408658421029226e-06 0.3251153233623581 0.061398313166477314 3.337837747255528e-08 -0.007628487402890938 0.08939499559608328 0.11673312012095376
-1.417017288283031e-06 1.0487951409231154e-09 -1.0207476674250079e-08 0.0488054275951172 0.49853465752454645 0.4147436771233693 4.101126702135114e-08 -1.54142872528049e-08
5.397983267647479e-09 1.037921437208969e-07 0.09176508129895361 -0.027337082500547283 -0.11911636724724477 -0.1882319853374552 -0.17622472330940533 -3.826484079788062e-08
-2.795392880336272e-07 -1.166950611883058e-06 0.08339416835306497 0.05045956296875358 1.0562553077318919e-06 -1.3572091469940377e-09 -0.03762618217751358 0.06770693314524752
2.8793816132033668e-12 -2.8169425667287983e-12 -4.073680930690012e-06 -9.113380054379003e-08 2.0727283854668535e-12 1.0058929717080628e-06 1.069199684160045e-06 -1.4202817729339287e-06
1.0419070687433365e-11 1.829850714271945e-14 3.6680845618572326e-13 6.528501093827264e-08 -4.103062770011476e-06 -4.043157825934771e-06 1.5793200739028055e-13 1.916945714153388e-12
1.623527939581041e-13 3.306063923721223e-13 -1.362122841639823e-06 -1.5532551613907684e-06 1.2514033388572958e-06 -2.971720093997507e-06 -6.362333227705136e-07 3.524578125646322e-12
7.369177304172631e-12 -3.3915312588742344e-12 5.892162663154829e-07 -4.094858902337418e-06 5.42639931360031e-13 4.946625991751274e-13 3.8309513672268336e-08 -3.00960002410047e-06
-2.727775312787436e-09 4.763917732662402e-08 -0.16979115148908916 -0.00039564755288681175 -2.1747568368332395e-08 0.01827703309942193 -0.04834293384310934 -0.09088970451063277
1.4687613583157183e-07 -1.286866863816056e-10 -4.513650820660431e-09 -0.00048515506833381845 -0.19886738823332062 -0.04719582344279083 -2.146005602739377e-09 3.4348180509561873e-10
-1.8111166567797784e-10 6.493642390315189e-09 0.061968695113053265 -0.03141348115630571 -0.024229321997009227 -0.08958589777321686 0.00031774711924778955 4.0189250704337565e-08
4.030802261564788e-08 1.0734407519327772e-07 -0.00312546912947771 -0.209086734258639 3.432982021674558e-09 3.1023054622181243e-10 -0.0003149945627996652 -0.06931438118404791
3.678313453703058e-13 -7.969815586281875e-12 -3.111525818380946e-06 -8.457271346703302e-08 2.400535117401659e-11 -1.5403970706349497e-06 -1.4127798162591284e-06 -1.8665148482289684e-06
7.467315317729528e-12 1.9781301186710036e-14 1.7515124790499256e-12 5.18971808311263e-07 -2.894425423122389e-06 -3.27644357130789e-06 8.438557072072517e-13 1.5449535313939078e-11
3.737471267234965e-13 1.1975270681717272e-11 -2.432218630957288e-06 -1.8546460180077176e-06 -1.105414570854358e-06 -2.7864022566980537e-06 -2.3729173330234546e-06 3.9408732791271585e-11
9.012151661853013e-12 1.1579646868994796e-11 1.764106837734801e-06 -3.0725205037997598e-06 3.905217066979744e-11 7.009572568980184e-13 3.5368266125371336e-07 -2.6660535681682473e-06
5.562860478267676e-14 8.121365206772507e-14 1.6603717483966558e-07 2.05272066852854e-09 2.3580949248293713e-14 -1.254724156156065e-07 -8.548871018612838e-08 -8.752828955357894e-08
-6.855525993376583e-14 2.3710878397815554e-15 2.886609574200634e-13 1.1503141127245123e-09 1.8535116277532444e-07 1.4743252873928604e-07 8.773561260765201e-15 -9.008118675719615e-14
8.63342362879173e-14 2.6452590193332096e-13 2.3246444857489262e-08 -6.253992434645257e-08 -9.963249035422893e-08 7.801834986200821e-08 -3.2622514754744245e-08 -1.0806203827131153e-11
3.703374371237674e-17 -1.7485296202460082e-12 8.112209888334296e-09 1.677776215002409e-07 -9.43640230320088e-14 -1.239346315152897e-14 8.518672156019195e-10 7.569715756816203e-08
2.9471812449819435e-13 -1.9771245150236535e-13 1.7721747735141852e-06 1.3888828710261177e-07 5.4967722815918864e-14 -2.393543927103531e-06 -2.1555666501468566e-06 -1.1216620672910563e-06
9.18607271511104e-13 4.1762596949757685e-14 4.887264082985818e-13 8.567453860358486e-08 2.0736794910599542e-06 1.5653827635113876e-06 1.8392011613360453e-13 -7.765792889458278e-14
5.511930876716088e-13 8.6722792202713e-13 1.6997563397669885e-07 -1.8609920767363017e-06 -2.2112078436483502e-06 -1.4540094925085072e-06 -1.9223887989881802e-06 7.517371224147443e-13
-8.835709979700311e-13 1.2413914870346546e-12 -1.6594760395793107e-07 1.8297789034736414e-06 -1.6904101327649194e-11 3.6356919557356926e-13 6.219039571745196e-08 -1.3435872145444191e-06

kernel.layers.2.bias f8 [64]
00000000: 4ca3 a7c0 bab0 99be a1bd 66f9 8ce4 693e
00000010: a6ca 2186 7a4b 903f fa9f 1bc4 d68e bdbe
00000020: ae24 cc3e 6290 c5bf 5a67 4371 9788 bebe
00000030: 045e 1405 b02b 81be fd99 d060 cc98 c1be
00000040: 270d fcbc a2ea 883f c7b2 c8e7 6582 d2be
00000050: d6e3 faf3 3d7b 6cbe 313a 3575 8f95 b2be
00000060: 04e5 d6c1 a87f 623e ac4b 1f55 635a a33f
00000070: 0614 f868 5c40 8f3f f923 0d01 c8de b3be
00000080: 5572 5a0d f682 bc3f 3761 aeb5 53fb bebe
00000090: 4269 fbd9 e9ca afbe a1a6 41e6 02e5 aebe
000000a0: bd86 0f10 6605 a2be 292a c896 50da b73f
000000b0: 51f8 9cff e541 423e a97d f93c d52f b43f
000000c0: 333f 5da7 57e4 c23f 9399 2786 db58 babf
000000d0: 22ae 9723 8f72 bb3f 0aac c796 3100 743e
000000e0: 33ba 98ce 08ca b5be 46ee ee0c 5740 acbe
000000f0: da58 a530 5b3f afbe 5c47 694c aa9f 7c3e
00000100: 73c0 fc17 4085 883e d449 a087 dd19 b3be
00000110: 0bc7 fce8 a2bb bebe 5131 9a23 77ac aabe
00000120: 6bcf 9b87 99b6 c8bf 6173 b101 d206 993f
00000130: 88f2 a8d5 45e0 a53f 80a5 2c54 1d5b a93e
00000140: c94f d49e 99f7 abbe 4e16 1b11 0b39 80be
00000150: ce27 5222 964d 91bf 3334 eb6f 8872 75be
00000160: 27aa 980c a65a bb3f 0a7c dfa9 6c76 a7be
00000170: 8476 fd1b 73ef b1bf 88db f1db 8ccc bebe
00000180: 857e 817f 918b c5be 5c39 bc68 54a8 a43f
00000190: 70e2 9a41 2ace b7bf c75f 3861 8194 6fbf
000001a0: d4b3 c66d 7862 c8bf 9213 ff18 8ee7 b0bf
000001b0: 4981 b925 f388 95be f84d 1cc6 497e cebe
000001c0: 44cf 063b b750 90be 496c f160 fd1b 25be
000001d0: 1476 f58c 76dc 903e 5b1d 48d8 f12d bdbf
000001e0: 4d69 1933 ef84 c43f 38b8 bcf0 f7fa be3f
000001f0: 4e0d e69a b9cc b4bf 8c82 0026 a398 75be
-3.828160407824614e-07 4.822905379523801e-08 0.015912928044097406 -1.7617919784666107e-06 -0.16846874300271025 -1.819942046890673e-06 -1.2793134599656123e-07 -2.0977101997832625e-06
0.012166282074309876 -4.412977088236089e-06 -5.30507677765123e-08 -1.107705846009989e-06 3.445645567084288e-08 0.037798980847262825 0.015259477570916512 -1.1843585562990105e-06
0.11137330842979883 -1.8466559683402681e-06 -9.474942323743016e-07 -9.207300988415469e-07 -5.370702923468856e-07 0.0931749694938523 8.50177172032518e-09 0.07885487307202389
0.14759345695574097 -0.10291835809002796 0.10721678370435275 7.450862477664108e-08 -1.2987373402374344e-06 -8.419551934461169e-07 -9.312476277150364e-07 1.0663156322615499e-07
1.8269203038703787e-07 -1.1385104969936554e-06 -1.8318268395042457e-06 -7.949379956114822e-07 -0.1930725013877422 0.024440080025999737 0.04272669060853668 7.556651911755813e-07
-8.334871474413007e-07 -1.2086946603853525e-07 -0.016897531361372668 -7.98977701596571e-08 0.10685193831947314 -6.992398373615075e-07 -0.07005996163703726 -1.8357649052260997e-06
-2.568386658949157e-06 0.04034675386911843 -0.09298957921681406 -0.003854992575508451 -0.19050507888951407 -0.06603324995292173 -3.208959122643664e-07 -3.635086202610898e-06
-2.431168537833984e-07 -2.457450027797532e-09 2.5125121979282115e-07 -0.11398231058421031 0.16030683512765123 0.12101697566387848 -0.08124885589318362 -8.045226129782357e-08

kernel.layers.4.weight f8 [1, 64]
00000000: 9f0e add4 93a2 6cbe 712e c41f 4b69 1d3e
00000010: df7d 593d 6134 b9bf e75f caff ebff b4be
00000020: 8caf b981 b2fb b43f 7d91 65d3 d1fd c0be
00000030: bcf1 512c c1f0 513e 3903 b423 ace4 913e
00000040: 56aa 13f8 0d29 c0bf 2f37 910b 87bf c23e
00000050: d177 757a bc6e 2e3e 2138 6aea 7ea2 853e
00000060: 4fbe 7133 b07d 1cbe bb08 b7f2 3dee b0bf
00000070: 548c 2737 323d 9fbf 3c4b cbfd 2e23 1a3e
00000080: b469 688a 3575 ccbf 60b2 43dc 8ecc a63e
00000090: f69c a50c 7fb6 a63e ef1f 5217 79ab c6be
000000a0: 45f8 1ee7 f1cc 62be 96c8 abf9 36be c3bf
000000b0: ef6f 6444 ec4c 24be 88ba 3efd 8070 b6bf
000000c0: 0f0b 5491 bc23 c23f 5af7 e3d5 ad25 c4bf
000000d0: ca09 d70b 18f4 c13f 0d68 a4b4 e234 76be
000000e0: 22c2 ca13 c2c2 7c3e 5cde 4b62 4440 5dbe
000000f0: 8f6f 4f2e 7829 753e 86b5 5aa7 72ee 523e
00000100: b4f5 246a f711 373e 716f 6fa5 a7cb bdbe
00000110: 6d7f 5037 910e ca3e 0c17 28e2 b404 803e
00000120: 07c8 6d23 6859 c23f 7565 4343 4287 c3bf
00000130: 7520 0e45 8423 c13f 34d8 cd5b 6b4b 623e
00000140: 6032 2c1c a830 b43e 0d8e 0f68 ba60 523e
00000150: 7b44 ba02 4a38 a9bf 1e0a 3c32 e56a 5ebe
00000160: a1ce 7740 97aa c93f d91d 9942 e40b 643e
00000170: 5c38 3cf7 6c8b b73f 0d60 bb1f e7a7 7b3e
00000180: 8fcc e16a 7e5c c13e 1beb ee43 8bd1 c2bf
00000190: ef23 f9c8 c482 a93f 17b5 c29e b4ab a5bf
000001a0: 0c7c 680f d2d7 c53f fb40 20a1 b79d a9bf
000001b0: 002a 7b8d 9817 683e 3a12 17be 228d b3be
000001c0: 781f 93b3 37c2 2cbe 103d 4254 62cb 403e
000001d0: afea c31c b057 1f3e a5a9 3fd4 2e8b c03f
000001e0: 0c9a caca 091a c73f db12 6dce 764a cc3f
000001f0: c15c d564 ef76 c63f 0150 eac7 8af4 763e
-5.333697091503046e-08 1.7119631260051811e-09 -0.09845550296585469 -1.251679349644966e-06 0.08196559588549074 -2.0255426093509586e-06 1.6708343837384666e-08 2.666302269666458e-07
-0.12625288594365952 2.234954163549562e-06 3.5428166682203964e-09 1.611914417120803e-07 -1.6583927128926636e-09 -0.06613528419169061 -0.030506882301676377 1.5213989991231966e-09
-0.2223269391841548 6.794647835740629e-07 6.768964564808156e-07 -2.7024527136688886e-06 -3.501878333100625e-08 -0.15424239340751872 -2.3632869299873083e-09 -0.08765417273273546
0.1417155942545709 -0.15739987319823961 0.14026165559887566 -8.272597288132848e-08 1.0714223192920807e-07 -2.724215710216758e-08 7.883455628527791e-08 1.7631274626635625e-08
5.371445207296906e-09 -1.7759517925074924e-06 3.1062249328389012e-06 1.193462689371046e-07 0.14335347871707446 -0.1525652721818848 0.133896383016921 3.40763608224304e-08
1.2034216616024326e-06 1.71157013040691e-08 -0.049257576783141986 -2.8328560066322416e-08 0.20051851890422248 3.733942606200099e-08 0.09197121654526214 1.0302614577727062e-07
2.0696287129029227e-06 -0.1470197755532688 0.049825810940610775 -0.04232563436503705 0.17064882042265628 -0.050031412523937356 4.4875166414061154e-08 -1.165348969643254e-06
-3.3479489429020995e-09 7.820534116374629e-09 1.8243754172825995e-09 0.12924752582268897 0.18048212434696642 0.221022463602046 0.17550461219318517 8.55149426637965e-08

kernel.layers.4.bias f8 [1]
00000000: 0570 7853 3e71 c2bf
-0.14408091617303867

fnw.layers.0.weight f8 [32, 1]
00000000: 2f71 e9d3 ac27 bd3f 9d3a 84c4 6d51 debf
00000010: 7482 6797 7c0f c03f 6db1 0d38 fe79 aebe
00000020: 4d37 57ac 87fa f0bf 7a88 3414 d717 65be
00000030: 23c2 4b71 4a4a ec3f 2117 b4d7 8c12 e53f
00000040: edb5 2c0c 003c ce3f cb7c a127 d1f5 cdbf
00000050: b601 77dc d3c3 d73f 8a79 1de6 5b83 cd3f
00000060: 32b6 e6ed 3b48 e7bf 2919 76e3 4b02 edbf
00000070: 0cc9 21ed a68e e23f f6a4 2ef6 afe8 ce3f
00000080: b5fb fb8e 3658 efbf 4aff 0eeb f518 db3f
00000090: db44 07d7 34b6 9e3e 6341 bae5 1b29 7ebe
000000a0: 6e57 0bd8 aefe f1bf a46e b72a 2a1a d43f
000000b0: 58e4 c756 9761 d73f fbb6 1b10 47cf c9bf
000000c0: d5ee 96cb 69b0 e4bf 27bd f86d d848 eb3f
000000d0: a350 1477 d380 e43f dc49 eabc 86d6 9c3f
000000e0: 9669 b6f9 f214 a33f db6b 8795 7ae8 c63f
000000f0: beff 7de3 e561 af3f 3056 867f 300e a13f
0.11388664411191905 -0.47372001830164284 0.12547261612691651 -9.082715309700414e-07 -1.0611645443018063 -3.928900806973251e-08 0.8840687001048234 0.6585144246061853
0.23620606035676364 -0.23406423983667532 0.37132736711285064 0.23057125793543448 -0.7275676390178829 -0.9065303270915922 0.5799135810359828 0.2414760543881937
-0.9795182030355735 0.4233984752172445 4.5764064451638333e-07 -1.1235692326029505e-07 -1.1246784629088 0.3140969674256928 0.3653314921826385 -0.20163811003242657
-0.6465348221167583 0.8526422641643067 0.6407258344429646 0.028162102966755018 0.03726920412300953 0.17896969128818693 0.061293777484933795 0.033311381880747226

fnw.layers.0.bias f8 [32]
00000000: 5e10 e3fe 920d d0bf c5e5 c920 d738 c43f
00000010: 9977 aea9 f712 cd3f 8c16 21d3 cd9d b3be
00000020: 8045 b51b d721 d8bf 68d6 4ac1 2cdc 71be
00000030: d946 43a4 9bd8 e3bf 0697 9c06 5cb0 e43f
00000040: 56fa 3201 b3f4 d5bf a2b4 e6d4 3526 f0bf
00000050: f0e3 2e38 2915 dd3f 3940 d36b 7df6 d2bf
00000060: 578a 0209 a5c5 d9bf 31bf a366 ea66 b6bf
00000070: 45c0 707f 2338 dabf b4e3 f0e1 93c2 dd3f
00000080: a425 a14f 688b cabf 5bbb ffc0 2012 c6bf
00000090: 0b8b ffcf 87b5 a7be d281 d0ac 45f3 a4be
000000a0: 1efd fb74 6cb0 a43f cb04 4556 cf33 e83f
000000b0: 16df 0f8a ffe4 e0bf af95 3fd9 1fed dbbf
000000c0: bdd7 1793 8042 f0bf 4f59 a57a 4532 e3bf
000000d0: f230 c9fe f807 e83f 9c80 213e 7a41 c6bf
000000e0: 9cc7 9242 2ad9 debf 05ed e1ce f211 e03f
000000f0: 40e5 8abf c5e7 c6bf 6eb3 872e fd16 e43f
-0.25082850352578656 0.1579846296406641 0.22714134011488055 -1.1692298582817184e-06 -0.37706544595592817 -6.653390045404308e-08 -0.6201914032228287 0.6465282563337673
-0.3430602561674382 -1.009328681607521 0.45441656576764355 -0.29629455117992937 -0.4026882732379468 -0.08750786786890498 -0.40967643208842147 0.465001078267558
-0.20737937820585473 -0.17242822097565633 -7.065863485390895e-07 -6.243670555052477e-07 0.040408505707086415 0.7563244519189082 -0.5279538818858522 -0.43634792533552064
-1.0162358995271312 -0.5998866458346955 0.7509732223784609 -0.17387321504339048 -0.4820047044878437 0.5021909752535129 -0.17894813397087184 0.6278062733450562

fnw.layers.2.weight f8 [64, 32]
00000000: 14fb 758f 2643 b93f d55d d2aa c123 dcbf
00000010: a117 e9fc 875d c53f dc65 7914 93ea 9cbe
00000020: 55f3 be97 7962 afbf 4522 b701 2dad 44be
00000030: 7798 1829 bf04 e8bf a687 a404 b7d8 ba3f
00000040: 6022 b049 1940 a33f ae5b e5ea 4d19 acbf
00000050: b328 20f6 a6db 8e3f 6527 b6d6 0108 9b3f
00000060: 13d7 bdd1 d764 a33f 4742 3360 8a47 a33f
00000070: 1d33 8cb8 3317 edbf a4d0 991b 49f2 bfbf
00000080: 5047 6d5a e7c8 b6bf c195 7fab e332 bf3f
00000090: 7b21 227f 2ca3 ab3e c8c7 a1b5 a527 bbbe
000000a0: a5a2 f58a 3260 babf eded 84f4 2340 a43f
000000b0: b47c 4200 0a3f afbf 3384 6de8 8d48 b4bf
000000c0: c51b 76c0 f2f8 c2bf 52b1 414f 8ace efbf
000000d0: 59d0 57db 0da9 b33f 2e2e dcaf 27f3 73bf
000000e0: 587c ce40 9f2f bc3f f802 f165 c0c3 9dbf
000000f0: bc30 9308 2b91 70bf 2ad7 eb61 6485 b43f
00000100: 4e5d 2781 0c73 7ebe 7ce4 9606 4784 233f
00000110: 2b86 c733 81e0 0e3f 7c39 d337 0f98 c4bd
00000120: b1b6 e05e e91e 1d3f f998 e4e8 1625 c8bd
00000130: 566b cb33 3bdd edbe 1793 3773 8ecc 603f
00000140: 8587 ac2f 00cd 4dbe c8b5 0868 30b3 bcbe
00000150: 3767 4728 b322 e4be 4fd8 6d7a faa2 653e
00000160: 4ec1 c7a5 3fa9 f43e e16c 7b9d e07e 273f
00000170: e9fc 8572 f615 e03e 0d10 4cda 2c5f 3e3f
00000180: bd08 2975 5b7c 233f b77f 8030 efbc f8be
00000190: 2653 f0b2 5787 95bd 515d b373 7894 e3bd
000001a0: c2ec 36bc 3613 3b3f 1fb2 be8e 3d9c 673f
000001b0: 2230 bc51 b49f 69be 8466 9f8c b20d afbe
000001c0: a6b7 33e5 98b2 c3be a28b 049b 45c7 e5be
000001d0: 9707 507d 91ef 64bf 1637 c2cb b95e 87be
000001e0: ef88 6bea 86c5 a2be bcca 42c0 19ba 2ebf
000001f0: 3b5a 2283 a682 7fbe bf46 290f fdc5 573f
00000200: 62c1 5661 9c88 74be 926d 82aa 2af0 073f
00000210: 72c9 bbe9 625d de3e 5bbb a4ea 8e42 79bd
00000220: fc2d 6cbd 81d8 003f 9c7a a321 1962 773d
00000230: 0ec9 1f9c 65b7 ffbe 0d62 f4d2 8023 643f
00000240: e2ec 734e 24c8 92be f94e fc84 4b3c a13e
00000250: 5345 c200 9d20 09bf 0135 e211 1cfd 93be
00000260: 9f14 8751 d83c da3e e71f 119a 1f67 083f
00000270: b90a 6d47 05d1 f2be 0f92 fcc4 a66b f4be
00000280: 46f2 2a64 1458 053f 86df b3d8 f2c1 ffbe
00000290: 5862 6ccb 72a4 823d 5fb1 b816 2517 80bd
000002a0: 23b1 b92a f4bc 173f 0969 88cd 856b 273f
000002b0: 3cbd ff77 abf2 9dbe 29eb aa4d fc1e a23e
000002c0: 7257 a95d 11b5 b13e 65af 558a 4dfe fdbe
000002d0: 21fb 476f ddd9 62bf 4f2b 5dcc 7875 6f3e
000002e0: 6ab8 3e1f 4dd5 833e adf6 f835 6c58 b2be
000002f0: 27d8 9090 24e2 40be acf7 2c7b 8840 303f
00000300: af02 f4ea 88fe 9d3e c820 38d7 2bd5 293f
00000310: e7d8 8d11 ff5b ecbe 643c 0f69 1220 c8bd
00000320: 1691 dc88 3a98 253f 02cd 5d9e 6eb0 d2bd
00000330: 421b 7522 9490 17bf 443c 7fd7 0116 543f
00000340: 589b 90c9 dab7 a33e 86da 1a75 77cf b43e
00000350: 2439 82c7 f464 56bf cc0f 5fee 2f4e a13e
00000360: 690a 9307 45aa 003f 6a58 a9a4 03c8 2f3f
00000370: e746 72e8 4f6d febe 9047 cc9a 197d 2d3f
00000380: 5a95 2ca2 a366 2b3f bbd9 bd54 6716 1bbf
00000390: a16b 4ff1 93bd 84bd 13fb 1673 16f1 ecbd
000003a0: efd4 eb54 5180 3f3f 9a2a eb34 5ad3 77bf
000003b0: 3da5 bb6e 8024 ac3e 2b84 cbeb 5d86 a53e
000003c0: d678 8d8c e55c b33e 5632 fb26 5a32 15bf
000003d0: 1430 e9d6 76f1 6c3f b913 0c4d aa7f 953e
000003e0: ed76 111b 6591 a93e 6260 52ac a25d 563f
000003f0: 5df7 ee5f c918 963e 6b85 b0fd aa3e 613f
00000400: a391 6d3e 08f6 903e 617c 72d6 d313 f93e
00000410: 6788 df09 5f44 d23e bcbd c9f6 0a29 9c3d
00000420: bcb1 57c5 60d7 db3e b9db f50c 4c6e 4bbd
00000430: 63e0 ce22 3370 fabe cdb9 657b 5100 61bf
00000440: 193f db69 1ca1 903e 2852 0bb5 639d b73e
00000450: 0194 5a60 2380 353f 64f1 ae2b 057f 893e
00000460: 78da adde a678 b23e b568 0418 a721 f03e
00000470: a6e0 799c 2e25 eebe bdf0 258b a70b 053f
00000480: 3996 873c 2070 e73e 3da4 cd0a a213 00bf
00000490: d307 e38b a97a 6a3d fc71 814c 68f7 b03d
000004a0: 03cd 5bd8 57fb 063f 4bf9 907b 32a4 793f
000004b0: 860f b3d6 ff20 973e 8715 7e46 5b39 aa3e
000004c0: 3899 eb17 c4e0 bc3e 7c80 d6db a5e5 f8be
000004d0: 8472 cbeb 13ad 52bf b772 7261 c33a 8f3e
000004e0: 0c6f 7c78 89f9 a43e 46f1 a517 2a6f 343f
000004f0: 29b5 8709 91ad 8b3e 8c6a d2c0 27bc 1dbf
00000500: 9d46 0239 dbd4 e43e 624b 31ca 7248 50bf
00000510: b158 e9d8 9eb6 55bf 1dd4 d10a e435 f6bd
00000520: 206e d35f 8845 2cbf 2a73 de14 e542 123e
00000530: bfc1 5fa1 0293 253f 3e3d 7b33 13a2 993f
00000540: b388 615f fe9f ed3e 8fb2 e624 d601 083f
00000550: 6e35 9b9f a675 723f c497 823e e702 e83e
00000560: 8d99 2296 bbfe 053f 6313 4921 8b7b 3bbf
00000570: 0a6e 4cfe b3e4 e03e e6cd 4212 235c 89bf
00000580: e95f 6078 4b64 33bf c45d ac04 0ba4 2f3f
00000590: d741 a4be 9786 123e 3456 39f5 fff6 513e
000005a0: f4b5 5247 bda4 48bf 3590 0174 db01 a1bf
000005b0: 170f 5622 8a08 fa3e 63b9 2908 8e80 fc3e
000005c0: 47ef 7059 ad5b 0b3f 38f4 bf11 10d7 223f
000005d0: 0ab8 1052 6af4 7ebf a45b f843 d4e2 e03e
000005e0: 214f ef41 e7aa f73e 561c b88a 8ba3 88bf
000005f0: fe6f b5b6 8536 de3e 194b 89f7 a7a7 3f3f
00000600: 6f5c d0ec d953 ca3e 81ad a31b d151 28bf
00000610: c760 6fb8 8a9c 063f d147 5f84 6717 d03d
00000620: 7595 5508 38a9 0bbf 05e1 9a56 5eb6 ad3d
00000630: 6fdc 2cbb 13e2 fe3e a37b 6a75 d3cb 363f
00000640: 3969 06a9 5640 d23e 768b 9511 60df ca3e
00000650: 231c 65e3 aea4 503f cfdd 15b3 1674 d13e
00000660: 8811 f539 9a08 e9be 7458 8a0c 7800 15bf
00000670: 5397 1591 e560 f23e 53d4 1e7d fa3b 413f
00000680: a8b1 704d 97b5 0ebf 86d9 6869 4aa9 f83e
00000690: 53b5 4df0 54ce c2bd 7b01 b096 30d0 063e
000006a0: 2e61 ceef 727c 2bbf 19a9 6b28 767a 65bf
000006b0: 7954 25a1 b151 d73e bd1d f5bd a8d0 b83e
000006c0: 99ce a858 c31d a73e 5b1d 9b8d 5a45 fd3e
000006d0: d300 6a4f aa71 47bf 9c52 3096 d699 c03e
000006e0: 4d7f 6240 4219 cd3e e533 68fa 4d29 483f
000006f0: 6986 9978 f66c c33e e456 22a7 630e 48bf
00000700: 4997 f732 5862 d13e 401b 18ad 0472 62bf
00000710: c31e 3b3d 107b 43bf a0b8 71a3 bf2d e43d
00000720: cfdf 9f09 c071 1fbf e23f 121b 1e57 e33d
00000730: 4d30 9a43 2928 183f 00fd ad81 a81b 72bf
00000740: 1e45 783f 80b5 d53e b127 0f86 19f4 ec3e
00000750: 1cc9 adb7 b937 48bf eafb 42f6 7a8e d33e
00000760: b236 8059 add2 0abf ba8c a805 cec1 36bf
00000770: 855f e093 5660 f53e 234b ac50 6d76 73bf
00000780: 52d6 1dd6 47b3 2ebf ed27 1d89 abba 1c3f
00000790: dc34 7c1d 7f62 e83d f16a ee50 1ffb 013e
000007a0: b56d 2bf5 28d9 61bf 1542 8ef3 b07a 8f3f
000007b0: 64d3 da40 2e5c de3e 0e96 c3f1 cf57 dc3e
000007c0: 807c 3fe6 7444 ee3e ec87 a1ab 0370 153f
000007d0: 924f 4ab9 fa3f 7ebf bb06 06c5 9ffd ca3e
000007e0: 87e1 8fea 6d25 dd3e 1b77 9cb8 af9f 653f
000007f0: e77a 8340 fa98 cb3e 9f92 873e 1789 85bf
0.0986808872457739 -0.43968240434466327 0.16691684579035118 -4.3088654819652783e-07 -0.06129817941061925 -9.6282307048103e-09 -0.7505794336946242 0.10486930716845552
0.03759840988647478 -0.05488055698759041 0.015067390810163372 0.026397732477142628 0.037878746369569914 0.037655185931388994 -0.9090822796293626 -0.12479073451851491
-0.08900304753958932 0.12187025963756694 8.236586366431513e-07 -1.6185565159501702e-06 -0.10303035633627163 0.039551852797071387 -0.06102782490892747 -0.07923209118372725
-0.14822229764487652 -0.9939624355297758 0.07679831128172178 -0.00487056257930933 0.11010165531341565 -0.02906704542351954 -0.004044693088143866 0.08016040220885814
-1.1343289000404321e-07 0.00014890067113329855 5.889314931885008e-05 -3.746023541547574e-11 0.00011108683949664456 -4.3919282370300566e-11 -1.4240352919461161e-05 0.002050665114199278
-1.3877071482869065e-08 -1.7106507642737645e-06 -9.601376640345014e-06 4.030137228706397e-08 1.9703986582743104e-05 0.00017925731548627032 7.670303219907463e-06 0.00046343655621705686
0.0001486646311424418 -2.359201883461701e-05 -4.895055537924733e-12 -1.4246298051863563e-10 0.0004131325369731259 0.002882118444139672 -4.7728130973546606e-08 -9.25466588026783e-07
-2.3481423255732708e-06 -1.0384753153907571e-05 -0.0025556413261264665 -1.7412023634417874e-07 -5.594369739371142e-07 -0.00023442806571479468 -1.1738521335717718e-07 0.0014510127336006399
-7.649375562721345e-08 4.5658399643512486e-05 7.239530215962625e-06 -1.4358643758150934e-12 3.21306794629182e-05 1.329180803096662e-12 -3.0247110551281458e-05 0.002458335504013093
-2.7987068880438075e-07 5.136587421815975e-07 -4.7926703787069335e-05 -2.978549832409716e-07 6.255549373117594e-06 4.654469672310518e-05 -1.7944800187362083e-05 -1.9474519205380356e-05
4.071056584595673e-05 -3.0286418717800498e-05 2.1193928463311712e-12 -1.829267794107597e-12 9.055366779770319e-05 0.00017868049941755667 -4.4625891604164746e-07 5.400489969312097e-07
1.0554371018453799e-06 -2.8603907272480885e-05 -0.0023011517425851756 5.859671996110617e-08 1.4776891499090958e-07 -1.093471119775252e-06 -7.86193201001701e-09 0.0002479870992607668
4.4694955199379467e-07 0.00019708786167905155 -1.3522797006376405e-05 -4.3883630351480335e-11 0.0001647540524852906 -6.799086952440285e-11 -8.989242688982067e-05 0.0012259500490363765
5.876476222341693e-07 1.2403974846538436e-06 -0.001366843263926728 5.157416722513638e-07 3.17861858518856e-05 0.0002424721190716379 -2.9017448949070648e-05 0.00022498071248172298
0.0002090525386730196 -0.0001033306663752236 -2.3579262546267145e-12 -2.1057893757274832e-10 0.0004806707919862837 -0.005816795701955835 8.387143828034562e-07 6.414911336260784e-07
1.1541174435785175e-06 -8.085894819060668e-05 0.003533107860937088 3.2035547996327546e-07 7.619842589225472e-07 0.0013650978665165282 3.292683174413664e-07 0.0021050777118182726
2.527395381228845e-07 2.3915721069852814e-05 4.355210107194908e-06 6.40291626668949e-12 6.637888039656385e-06 -1.9490789739839323e-13 -2.5213508866278935e-05 -0.002075347084591095
2.4779647299094125e-07 1.4075519240614027e-06 0.00032807220154956745 1.8996128922460313e-07 1.1009750504311271e-06 1.538415517741343e-05 -1.4374371757983343e-05 4.0141153834634295e-05
1.1176105446385121e-05 -3.066385520506712e-05 7.525826951353127e-13 1.5430882944341942e-11 4.383432228207732e-05 0.006260106275531928 3.446475235863883e-07 7.81537562653007e-07
1.7212624638329525e-06 -2.3743688634448177e-05 -0.001139897779629668 2.326782328796741e-07 6.25096377302138e-07 0.00031180169721502606 2.0621712760964607e-07 -0.0001134299529489768
9.933218990707075e-06 -0.0009938355440410542 -0.0013252784007327485 -3.232054717781607e-10 -0.0002156952831800932 1.0629480242834748e-09 0.00016459853276230664 0.025032329575705996
1.4126288970743193e-05 4.579005018299109e-05 0.004506731865786191 1.144949961002704e-05 4.195222824536762e-05 -0.00041935106972728324 8.05538724928721e-06 -0.012382768626003359
-0.00029589502844506885 0.00024140009403404554 1.078340745314202e-09 1.6731063935625046e-08 -0.0007520603382055722 -0.0332172946080224 2.4827344665036876e-05 2.718178485355253e-05
5.218146105120821e-05 0.00014373847159268745 -0.00755731135818217 8.051896769818209e-06 2.2571173868459548e-05 -0.012030687495110975 7.203335239704815e-06 0.00048301554446543573
3.138487818531462e-06 -0.00018554380023459371 4.312799779143807e-05 5.854025692413698e-11 -5.2759191968824755e-05 1.3511624723938393e-11 2.9452432225709717e-05 0.0003478423363193988
4.351454336771256e-06 3.203458743315645e-06 0.0010158260243586868 4.161231843872539e-06 -1.1936952260990062e-05 -8.011563034879423e-05 1.7527106199642064e-05 0.0005259488191230545
-5.857341755474986e-05 2.3518840487757253e-05 -3.420788482160582e-11 6.639527099774934e-10 -0.00020970252071773318 -0.0026218707820265916 5.559710660148485e-06 1.4790937184638332e-06
6.88918292474132e-07 2.791491792811011e-05 -0.0007154542534664417 1.9789851406582707e-06 3.468831439937183e-06 0.0007373457672784604 2.3157162487998106e-06 -0.000734137209536381
4.144706323460698e-06 -0.002251633771041567 -0.0005945042889487707 1.4681940535043988e-10 -0.00011995062450853511 1.407192257993035e-10 9.215118270783467e-05 -0.0044209081924002636
5.1758261103856945e-06 1.380611155523182e-05 -0.0007390648673733266 4.662648141528172e-06 -5.1160731516214876e-05 -0.00034724502407552547 2.0386048383696647e-05 -0.00475161267492544
-0.00023422481450168176 0.0001095931241056611 1.7742242288415372e-10 5.233144211915635e-10 -0.0021787452654799763 0.015370733673791862 7.238407318578596e-06 6.757501776121563e-06
1.4432625171366268e-05 8.177778627918548e-05 -0.007385234250836608 3.217544453260787e-06 6.94899760222306e-06 0.0026396209767786233 3.289886539289413e-06 -0.010515386195899366

fnw.layers.2.bias f8 [64]
00000000: af78 9cc0 7f32 83bf 8f55 7eea 3f46 6bbf
00000010: 5286 b283 3535 33bf 1d97 cbee 0696 59bf
00000020: 952b 5545 884f 67bf 2ec6 89ed c4b6 983f
00000030: 65b7 5eee f3b9 5b3f 3567 f71d 98a6 743f
00000040: 0a6c a7ec 9c3f 7fbf 7542 9f0d 227f 75bf
00000050: 5cc5 5d6f 0f43 4e3f 70f0 a0cd 8adc 30bf
00000060: 0307 1c8e 105f ccbf 95de 2e44 9384 99bf
00000070: 8f0a bb34 f70f 7e3f fcf1 d5dc b6df b6bf
00000080: f253 d4a5 55b8 79bf 3790 483d 3f20 22bf
00000090: b55c 1b98 155d 3bbf 96c4 d68a 9550 51bf
000000a0: 59ce fad9 254c 553f 31c1 2b0c fa2c 723f
000000b0: 9cb9 6230 6cbe cbbf 4be3 a6eb 0f49 5bbf
000000c0: ba3b 4ca5 9512 663f 8f5e 77e2 e56e cfbf
000000d0: 4dd6 d1da 2a4e 42bf 0aaf d4d1 26a4 783f
000000e0: 2bae 063f 2f37 d6bf 4582 7427 9573 2e3f
000000f0: 4633 7d5a 3544 72bf c18a 945f b170 d1bf
00000100: cf1e 65dd 9f3a 7cbf 619c 83b1 d106 51bf
00000110: 9654 2c63 5711 753f d1f7 35db 10de 50bf
00000120: d8f9 50ef d99b d33f f0be d7cc 7b97 b93f
00000130: a00a a3c0 86f3 70bf 6fe3 753c 9f7f 75bf
00000140: b4cd ccf7 808e 6ebf 0469 d801 93e7 4dbf
00000150: 5ba4 7a4a f998 36bf 7fb9 8cfd 6f38 71bf
00000160: 6b7c 24fa 64a3 49bf 5133 4081 7ed4 7f3f
00000170: 96f9 daa1 0cc2 753f 683e 16ad 081e 903f
00000180: 089e ad5b e0e1 653f 90f2 c399 89c5 5bbf
00000190: 136d eea4 93e7 5cbf dada 1f26 501c d0bf
000001a0: 7da2 e34e b955 7cbf fba4 3b74 a125 823f
000001b0: 3d4d 10eb a228 203f 43d2 a620 e199 3dbf
000001c0: 30b4 ab25 5412 5abf c04f 1c64 955d 4abf
000001d0: f3d2 f9a1 5d91 41bf 26e5 401b 4c17 c1bf
000001e0: 9126 9661 c759 823f e613 31c4 a02e 45bf
000001f0: f2ce c74b 7048 99bf f9bd db02 2e87 4abf
-0.009373663011100623 -0.0033293960913833363 -0.0002930884981627624 -0.0015616481497828301 -0.0028455411472001015 0.024134709356479593 0.0016922838344543775 0.005041689116717586
-0.007629025445988988 -0.0052481966212814994 0.0009235215536433183 -0.00025728596449759496 -0.22165114344539213 -0.02491979697853582 0.0073394447787814695 -0.0893511094236103
-0.006279310762029576 -0.00013829013791266813 -0.00041753556443553257 -0.0010568104147348537 0.001299893345202549 0.004437424419606637 -0.21674873697834307 -0.0016653686021596721
0.002694408680674579 -0.24557183797763968 -0.0005586346866397002 0.0060159222023619206 -0.3471181979645929 0.00023232646683714518 -0.004459579860690626 -0.27250322660453824
-0.00689184615323031 -0.0010392234599352556 0.005143491131794372 -0.0010295071232060313 0.30638740893109917 0.09996770621341589 -0.004138494851022273 -0.005248662964157143
-0.0037300604730263424 -0.0009126155670771412 -0.0003448113079494491 -0.004204213583575699 -0.0007824175884571077 0.007771009597502169 0.00531201300117203 0.015739570202241288
0.0026711828226557745 -0.0016950458294210692 -0.001764196571207692 -0.25172809336747337 -0.00691769014358867 0.00886083732571529 0.0001232813715722289 -0.0004516768100544558
-0.0015912839650653703 -0.0008046130608101373 -0.0005361277762419833 -0.13352347689377914 0.008960302034000807 -0.0006464276306209465 -0.024690394044184445 -0.0008095717109579118

fnw.layers.4.weight f8 [1, 64]
00000000: 885b bcf8 869d c6bf 0406 4416 a5f7 05bf
00000010: d12a 36d9 1d08 d1be 0980 2e06 3f21 10bf
00000020: 7123 837d 4403 c4be de18 dd23 2c97 4f3f
00000030: a58d 10f1 5ac6 ad3e 6ae1 be13 7107 1d3f
00000040: 1f79 6b8b 3260 12bf b8b4 98ca 0d81 00bf
00000050: 19b1 d6b3 4499 5ebe e5cb edfc 47cf d6be
00000060: 4ee9 fcad 7538 debf eeb9 a584 e4b0 4abf
00000070: 4245 f191 c2da 443e 4112 2cef 7cb7 e6bf
00000080: 4b89 b51e faf5 2bbf 3582 a24e 1db8 c6be
00000090: 9c52 adc3 406d 983e 06f0 510a 7a29 c7be
000000a0: b9d7 9a95 2333 063f b113 20f8 7dcd 26bf
000000b0: 9859 b837 6198 e8bf 0be0 948e b512 a63e
000000c0: 88ce 3eac e98d e8be 56de 45a2 5463 ebbf
000000d0: 0010 afd3 0ee7 69be 7d58 34d4 7258 2a3f
000000e0: c3b5 15e0 635f dcbf 0b99 8e15 9dd3 f23e
000000f0: dfc3 6c89 9375 ae3e bba1 a9e6 7955 e4bf
00000100: f1f4 9ecf bb3b 20bf 172d 4b53 2402 7abe
00000110: 1cb8 da1d 9d0d 2b3f 9ca6 2962 e769 24bf
00000120: 7828 cfb7 ad6e b8bf 44f7 ed39 fd0a b93f
00000130: e5ed 708d 1315 08bf 1dda 4113 808c 06bf
00000140: dd1f a939 40dc 0dbf d494 e635 af1b 6f3e
00000150: 15b1 dd96 a745 9cbe 43ce 8c03 deb2 10bf
00000160: c972 f853 7c02 b13e c5ca 3436 2c46 2a3f
00000170: 3739 2c11 7ef7 15bf de45 f112 08f9 233f
00000180: 959f c07b e48b 05bf ae7e 9c18 356a 0dbf
00000190: 4062 695b 9b57 fd3e 4e24 bac5 7268 eabf
000001a0: 519a 0774 79b2 12bf a186 9d67 5b90 3b3f
000001b0: adb0 9e5f 7db9 05bf 6c9c 953d 3898 943e
000001c0: aeac d2e4 e42c f4be be34 815b 2aad cabe
000001d0: d187 7f9c 96e9 47bf bfcc d29b a9d2 e8bf
000001e0: 1f56 005a 6eac 553e f032 fbd0 5bbe 0ebf
000001f0: b7ee 022b ed0e 3fbf 0f18 7851 a194 c73e
-0.17668234963704443 -4.189941935984698e-05 -4.060675013471252e-06 -6.153056305757699e-05 -2.385707357975232e-06 0.0009640660789294283 8.873589384433368e-07 0.00011073711078680095
-7.009800433930125e-05 -3.147910440435539e-05 -2.8497264317119952e-08 -5.438254404010826e-06 -0.4721960257626464 -0.000814544278268601 9.711147939752225e-09 -0.7098984404879688
-0.00021332433912408586 -2.7083393564083686e-06 3.639872294032658e-07 -2.7611277624833172e-06 4.234268517448688e-05 -0.00017397082052652898 -0.7686010444911515 6.578291308683923e-07
-1.1708424956547643e-05 -0.8558753175156635 -4.82472963452094e-08 0.0002010002300287284 -0.4433221519783183 1.795445982435369e-05 9.077573562607877e-07 -0.6354341035012604
-0.0001238505136011213 -9.68887164484526e-08 0.00020639937331651335 -0.00015574407105427713 -0.09543882119683811 0.09782393135352857 -4.593339843280887e-05 -4.300847868503688e-05
-5.6954107283291074e-05 5.7943430265073696e-08 -4.212869474304733e-07 -6.370048585040929e-05 1.0138576981351174e-06 0.00020045556730393356 -8.37965674629113e-05 0.00015238021430489986
-4.1096601734402046e-05 -5.610441719583241e-05 2.798291617475885e-05 -0.8252500402314895 -7.13240269828244e-05 0.00042059165536132743 -4.143632754902266e-05 3.068835759595761e-07
-1.9240729945008035e-05 -3.1800779787595774e-06 -0.0007297501952019341 -0.7757156413485048 2.0185074611840054e-08 -5.863874150477909e-05 -0.0004739121459455919 2.8110249663563785e-06

fnw.layers.4.bias f8 [1]
00000000: 3bcf 7b3b ea14 c7bf
-0.180325774235479

fnb.layers.0.weight f8 [32, 1]
00000000: f4e2 ff19 b350 dcbf d943 2382 1f1d ccbf
00000010: 0c5c 8b6f ffbe 5d3d 602c e780 5652 e7bf
00000020: c8a8 6483 5aff e33f 05fc a635 a4ab b5bf
00000030: 3a90 5684 8dfa dc3f 3f88 b5ee f818 d6bf
00000040: 6be8 68a3 c877 b3bd 9114 a7ff 6b4c b53f
00000050: fabc 33e4 9242 e2bd ba0f c388 5e3d e53f
00000060: c692 3141 f3db d3bd 36cc 22f5 d92f b03f
00000070: f8e5 b858 3c5e 983f 9b20 bc42 c381 853f
00000080: 3ebc 8ecf 357d ea3f 166b 6b32 1c42 113e
00000090: cc3f 67ad dc67 e93f 8819 81bf 98a3 ebbf
000000a0: 3ef9 8546 2d6d d03f 60d1 17ce e641 ca3f
000000b0: 1c17 bd45 f6c7 d13f d408 9a4f 0561 b83f
000000c0: 26f7 134e fcbb e43f 9d51 4fe8 6385 ef3f
000000d0: 6550 f452 d214 293d d9eb 00d3 d445 eebf
000000e0: 1514 e8e8 eb23 ed3f 5ed0 0c67 b980 c6bf
000000f0: 4557 7a04 0eef e7bf 2217 6015 30c7 df3f
-0.44242551363963334 -0.21963876585371514 4.227172942673531e-13 -0.728801013721192 0.6249210897706456 -0.08465029058332625 0.45279252933164893 -0.3452741938728003
-1.7705956677487273e-11 0.08319735518951378 -1.328593781007539e-10 0.6637413664943701 -7.224727786373947e-11 0.06323015436900978 0.02379698077695555 0.010501409029089628
0.8277844480379668 1.004561942032088e-09 0.7939284693511524 -0.8637202968900946 0.2566636265472829 0.20513615668427132 0.27782971201337303 0.09523041909600077
0.6479474568329564 0.985032991151957 4.4553399707623584e-14 -0.9460243340648687 0.9106349514919453 -0.1758033517049879 -0.7479314887484426 0.49653246009289564

fnb.layers.0.bias f8 [32]
00000000: a8f0 c9ae 3429 943f fa14 5a03 6df0 b2bf
00000010: 7faa d6ef ebad 63bd 4f76 95db 2dfc e0bf
00000020: 2ea8 1f0f e4b5 d63f 6ed8 b022 2052 b3bf
00000030: 419e 7698 83b7 d03f 7f8f 722b 8e21 b43f
00000040: 6f15 3808 c9b0 c4bd d989 24d2 735d b3bf
00000050: 252a 9c8d 5c43 fdbd b0aa 1a9b 1b9b c83f
00000060: d5e2 0c02 629f fabd d4c0 96c7 4771 adbf
00000070: d407 5a12 9fb2 abbf a6c0 b616 d2a5 83bf
00000080: a0e0 1099 c49b c23f cb5c c209 255c 2bbe
00000090: b6e0 e7fb ca07 c23f a890 0dfc 6803 e4bf
000000a0: d402 7034 ccc5 cdbf 0f75 363c 3dd8 c7bf
000000b0: a925 1e71 2b24 d0bf 4f68 2895 7e02 cbbf
000000c0: 30ef 468a ba19 9b3f 1356 abd9 c31d e23f
000000d0: 11a3 2ec3 0912 41bd 6a17 b3e9 c0fb d13f
000000e0: db18 50df 0a7d eabf 0b2b 26ac 58b3 cabf
000000f0: 5237 43f7 7e8b bf3f d96f af91 0aa9 b43f
0.01968843762232156 -0.0739811070617015 -5.593216588101942e-13 -0.530783585428887 0.3548517368022911 -0.07547188612883968 0.26120080842017407 0.07863701401453048
-3.7635923047667767e-11 -0.07564472084462838 -4.2583460161707734e-10 0.19223351548619894 -3.8740966168607243e-10 -0.057504885782124454 -0.054097147932239104 -0.009593621557400244
0.1453786609070038 -3.185116238530103e-09 0.1408628206261306 -0.6254162714872296 -0.2325988060038272 -0.18628659668039702 -0.25220762297302685 -0.21101362498376594
0.026465334596408485 0.5661334277489821 -1.2129292388512035e-13 0.2809908182356283 -0.8277639733867334 -0.20859821706502432 0.12322228943523086 0.08070436531801252
