best_model_dk20_diverse_synthetic.ckpt (torch, 255639 bytes, 26 tensors)

kernel.layers.0.weight f8 [32, 1]
000000 a7 03 d1 bb 74 c8 11 bf 0a 44 7a 08 8a a0 a1 3f
       -6.783688054757976e-05 0.034427941832412115
000010 ca 1a 10 19 03 17 ee bf 95 51 6a f1 a1 7b b4 bf
       -0.94030909438228 -0.08001148361137773
000020 56 de 00 b4 72 38 99 3f b6 2f 49 55 cc 65 61 bf
       0.024629394756827537 -0.0021237364656254377
000030 5c 7f 41 b6 ba 72 c2 3e c5 c2 ee 57 a4 7f 23 3f
       2.199192225701904e-06 0.00014876252313691086
000040 45 f3 5b 2b b7 6c 49 bf ea 9e 16 17 c9 73 0a bf
       -0.000775899351281952 -5.0453733716535946e-05
000050 8c b3 49 f9 af 0b 4e 3f f9 5d 05 cc 3d de 32 3f
       0.0009169205901123786 0.00028790482249038647
000060 53 ae e5 83 98 4f f0 bf ff 3d 3b aa 74 3f e8 bf
       -1.0194325592264206 -0.7577460598785705
000070 ec c5 d4 b4 49 76 50 3f f5 f2 e6 78 73 36 fe be
       0.0010047645367418047 -2.881307551104696e-05
000080 7d 37 da b6 0d 65 2e 3f a7 40 c7 56 dc bd 42 bf
       0.00023189346704948966 -0.0005719495653071686
000090 a3 f8 56 af b1 e2 b2 bf 18 e1 85 4b 3f 47 c3 bf
       -0.07377157717471276 -0.15061179340023823
0000a0 56 74 52 a2 76 1d 08 3f 80 c8 b6 15 11 8d b0 3f
       4.599588673068952e-05 0.06465250759245755
0000b0 1a d0 98 06 c5 97 2f 3f a4 8b 3b 62 f3 62 e7 3f
       0.00024103431796762624 0.7308289450269183
0000c0 04 67 0a d7 70 8d e2 be b0 01 86 26 33 11 20 3f
       -8.84652283277303e-06 0.00012258290668044685
0000d0 8b 89 91 79 54 f0 ee 3f d7 25 a8 8d 66 fd ec bf
       0.9668371557602752 -0.9059326903090391
0000e0 ae 71 81 d1 4d 5b 31 bf 57 bf 52 82 15 88 36 3f
       -0.00026484155524089225 0.000343804599036259
0000f0 97 c3 93 0a b4 ec 2f 3f 98 56 2f f2 33 08 3c bf
       0.00024356553812013008 -0.0004277350255369266

kernel.layers.0.bias f8 [32]
000000 4b 61 d7 af 3b 44 12 bf e9 b1 31 bb 59 21 c2 bf
       -6.968130397611465e-05 -0.14164277687395035
000010 f7 37 32 2f 6f be ea bf 50 02 b2 92 4b 0a d7 bf
       -0.8357463762092711 -0.3600033695766216
000020 e9 8f 49 97 4a fc c2 bf 88 97 c8 16 03 7a 71 3f
       -0.1483243216235899 0.004266750399016923
000030 f6 a9 b8 ef da 16 d6 be c6 3c 54 08 8e 6c 38 bf
       -5.266494322901045e-06 -0.00037268130866237
000040 9a dc 92 fe 11 0f 57 bf a7 13 1c ff 12 52 6e bf
       -0.0014074016310539395 -0.0037012454057525237
000050 46 3a 36 81 e2 7f 3e 3f f6 a2 fe 97 c5 7a 45 bf
       0.00046538619900441216 -0.0006555046857004965
000060 58 85 0f 74 52 00 ed bf 3c 94 0d fd 8c 8c e5 bf
       -0.9062893168267392 -0.6734070723001717
000070 34 1b cc 06 f3 4f 45 3f a9 62 ad f9 3a 65 33 bf
       0.0006503998425565261 -0.00029595079256731577
000080 b5 04 0d 19 4a 2d 69 bf 44 4a 3c b4 8a 83 52 bf
       -0.003073353502629129 -0.0011299948245705608
000090 12 55 17 14 33 6a d2 3f 69 6a d0 c0 ad 56 e0 3f
       0.2877319046213681 0.5105808988476613
0000a0 74 ac 67 35 9f a0 f4 be 8a e3 d1 e9 a5 30 d1 bf
       -1.967184956612159e-05 -0.26859424432728274
0000b0 18 d9 84 6a 3e 5f 39 3f 19 02 38 9a ae 4f e5 bf
       0.000387146700194478 -0.6659768116078936
0000c0 68 4c 2b 6f 28 5e 1c 3f e8 73 9d f6 77 7a 20 bf
       0.00010821458617309295 -0.00012572016140213684
0000d0 a0 29 0b 41 7b 81 e5 bf b3 15 5e 80 e9 c2 e9 bf
       -0.6720558424361123 -0.8050429827859972
0000e0 a3 8a 49 78 15 dc 31 bf a6 56 07 ff 89 9a 36 bf
       -0.00027251743475723895 -0.00034490460441581117
0000f0 cd ce f0 52 57 95 36 bf 16 ea 89 f3 61 2d 40 bf
       -0.00034459478314661786 -0.0004936912801690198

kernel.layers.2.weight f8 [64, 32]
000000 81 6d b2 20 99 9a 8d bf f4 ce ef 87 59 5e b0 bf
       -0.014455028829891916 -0.06393966263550138
000010 80 57 6b 40 2a e9 e1 3f 72 56 46 8b 01 20 7a 3f
       0.5597125299634484 0.006378179580129749
000020 44 43 38 36 bb d6 b7 3f d5 85 a4 6f 24 56 b3 3f
       0.09312028955197343 0.07553317762042096
000030 5c fe 45 dd 5c 5c a8 bf 33 03 92 78 8c 40 70 bf
       -0.04757967187015019 -0.003967808451421462
000040 59 18 8a 89 f7 02 9e bf 45 fe 8f 25 69 18 a8 3f
       -0.029308192987194868 0.04706123908544816
000050 6e 2c b4 a1 11 7b aa 3f 63 49 e8 58 13 58 97 3f
       0.0517201909916246 0.022796919156527717
000060 53 d4 19 80 1c eb e1 3f 58 a0 32 4e 71 23 d4 3f
       0.5599501134844423 0.31466324459552686
000070 c0 54 43 7e f9 bf 8b 3f 8d 8a 59 5e 58 94 8d 3f
       0.013549756208173114 0.0144431022446885
000080 59 d3 3d 12 38 72 b5 bf 39 e4 1c 4c 14 60 9c 3f
       -0.08377409406041404 0.02771026339107527
000090 0e 67 48 18 65 0c c7 3f b1 8d fc 45 22 6b c5 bf
       0.180065762383315 -0.16733196656524066
0000a0 cb 4e aa bb 76 df a3 3f 1b 7e 55 00 d8 08 b2 bf
       0.038814268501622694 -0.07044744499352655
0000b0 9d c6 41 05 aa 49 a2 3f 1e bb 65 4a 65 19 c6 bf
       0.03571826280757515 -0.17265001423535237
0000c0 ee 0b 10 d6 9c fc a0 3f 98 0c a6 55 c4 0a 9e bf
       0.0331772815043435 -0.029337947585656637
0000d0 0e d5 73 5f c7 0d 37 3f 6a 4b 40 11 73 c8 de 3f
       0.00035177342893118267 0.4809844654529828
0000e0 bc a3 a6 a0 7a 89 90 3f 5b c4 31 c0 7d 36 ae 3f
       0.016149440818171476 0.05900948496935917
0000f0 ae c8 1e 75 d6 cd ab bf ca 17 0f 37 3a 7f c2 bf
       -0.05430479221048877 -0.14450767219949362
000100 76 00 92 d6 11 39 82 3e 43 54 39 0e 64 f4 06 3f
       1.3577139704526765e-07 4.378252358764507e-05
000110 0f 38 b9 cd 28 48 4a bf e7 2a 72 c2 ba e0 23 3f
       -0.0008020591007580363 0.000151655957982242
000120 81 78 71 05 da 76 0e 3f 91 1e bf 97 bc f9 fa be
       5.810597274867689e-05 -2.572587389673573e-05
000130 ca c1 50 a5 53 ea 7e 3e ce c2 d0 98 a4 45 83 3e
       1.1516861182846605e-07 1.4358790814815613e-07
000140 ac 9b 8e 56 be 15 b0 3e 02 31 c0 cd 7d 70 cc 3e
       9.587368714287794e-07 3.3902430072227773e-06
000150 e5 db d8 f4 19 f2 b5 be 27 e2 3d 67 ba 08 7f 3e
       -1.3080661632866442e-06 1.1561101037432399e-07
000160 d5 3d 47 c0 97 0a 29 3f 4d ad 4c 24 8f 8f 31 3f
       0.00019105055265676457 0.0002679562060616439
000170 25 da 2b 2e df aa e2 be 96 23 91 ac 4e 96 85 3e
       -8.901342373840674e-06 1.6083671131237287e-07
000180 2a ed 63 f0 38 ed c4 3e 78 74 43 e8 dc 7d a1 3e
       2.494651087590239e-06 5.212918528192317e-07
000190 23 87 b1 e5 eb 7e a0 3f 14 2b e5 1d 2a 6c 90 bf
       0.03221833399653764 -0.01603761489358664
0001a0 bf 66 06 d7 e5 6a 80 3e 7b 12 bf 2a 61 fc 0c 3f
       1.2232042535531797e-07 5.528613596042939e-05
0001b0 56 c5 1c 24 16 3a 75 be 23 c4 3b a3 48 6a 26 bf
       -7.907636592472092e-08 -0.00017101418199375146
0001c0 f5 54 2d 20 6f 86 5e be 83 a2 e5 59 56 ce 74 3e
       -2.8428745589674653e-08 7.750840900145017e-08
0001d0 7f 3e d5 6c 67 45 32 bf c3 ce 2b 98 ee a6 4a 3f
       -0.0002787950041538214 0.0008133568774994704
0001e0 8a c4 c6 70 05 1a 8d 3e 28 56 85 d0 37 6a 4a 3e
       2.1682415541965325e-07 1.2300402932897855e-08
0001f0 83 b9 49 21 86 8d 76 3e c7 f0 5d bb d7 41 a1 3e
       8.401583102290709e-08 5.14304580020584e-07
000200 04 a8 e2 cc be 44 64 3e 1d 52 3f 23 b0 f5 f7 3e
       3.77530909740216e-08 2.2849768541126804e-05
000210 f8 13 0e de 08 45 62 bf 80 b1 82 18 06 ab 10 3f
       -0.0022301839057399207 6.358360963316066e-05
000220 22 51 74 16 8b 16 fb 3e 9b d7 ca 7a 9f 32 fd be
       2.5833186922134416e-05 -2.7845140425162775e-05
000230 e6 a9 e6 68 f5 ee 5b 3e 34 13 17 24 a7 e4 6e 3e
       2.601503595328791e-08 5.754302324524749e-08
000240 ca 1d 3f 0f 51 45 92 3e 24 f1 bd e5 29 39 ac 3e
       2.7225566090165314e-07 8.411197529446937e-07
000250 94 8c 9e e7 c3 62 a4 be cd 4b 86 d8 ad 14 70 3e
       -6.075442364649542e-07 5.990556506953884e-08
000260 d9 9f e4 87 b2 77 67 3f 3f 0c a4 f6 5e b9 49 3f
       0.0028646933489149093 0.0007850373924899247
000270 17 38 3b 26 92 93 d0 be f6 4c 59 6e 36 22 62 3e
       -3.95213337229911e-06 3.377654226852995e-08
000280 a5 f1 de e6 ca 2e a6 3e a4 c8 71 0f c4 ee 86 3e
       6.610984664072722e-07 1.7086177425994177e-07
000290 53 fb c6 0b 2a fd 92 3f 02 2c 08 6a 69 d2 82 bf
       0.018543869942500745 -0.009190391109788369
0002a0 3e 15 e2 8e ff fa 6d 3e 81 cb f3 29 7a ee 01 3f
       5.5842962130363175e-08 3.420172037662314e-05
0002b0 60 f1 43 34 93 e7 b0 be 86 77 fa a7 98 e0 18 bf
       -1.0075920764954626e-06 -9.48994802407438e-05
0002c0 f8 0c 5d a8 f5 09 7e be 45 70 ac 8f 84 9e 5b 3e
       -1.1190364021273583e-07 2.5722393974447094e-08
0002d0 5b 5a 6f 02 d6 63 1c bf ec 13 c9 ca 77 4e 57 bf
       -0.00010829919538877504 -0.0014225168080355078
0002e0 ef 29 7a 29 c3 61 67 3e 36 22 83 1c af 04 5b 3e
       4.355215315912124e-08 2.5162749912168756e-08
0002f0 d0 d1 1d 72 3f 31 6b 3e 4e 01 c2 0c 03 74 76 3e
       5.0649744189499605e-08 8.36445820957171e-08
000300 ce da 4f 74 79 68 8b 3e 2d 79 61 e6 1a 5b 04 3f
       2.0420628224468216e-07 3.882575838142148e-05
000310 5e e3 d2 8c 44 16 56 bf fd 7a 4d 60 dd fc 21 3f
       -0.0013480824884892421 0.00013723566385245154
000320 54 83 c5 36 1c 38 0a 3f 04 a3 aa ad d9 85 fb be
       5.000911810060815e-05 -2.624783779006918e-05
000330 49 36 82 03 18 7f 7b 3e 8b ca 34 c8 44 4e 4a be
       1.024322963136017e-07 -1.2249563369376869e-08
000340 1c 84 a7 01 c5 80 a8 3e ca 93 a5 08 67 5d c3 3e
       7.302464866653927e-07 2.308470418532141e-06
000350 22 2c a9 90 ad f0 b3 be b1 3a b0 49 92 38 7d 3e
       -1.1885254617312656e-06 1.0885664140944841e-07
000360 59 fd 68 3e b7 00 5b 3f 09 d5 9a b4 fd 73 32 3f
       0.0016481198778278332 0.00028157180768613503
000370 bd 35 da 7d 0e cb e5 be 2b 95 d4 aa 4d e8 78 3e
       -1.0391802727905954e-05 9.278742637128826e-08
000380 01 a0 07 3a 2f 9c bc 3e 19 0e 3f 1a 68 2a 9b 3e
       1.7052945865351362e-06 4.047997441659036e-07
000390 76 3c 8e 1b fa 56 a0 3f 18 e2 6b b1 64 65 90 bf
       0.03191358171817964 -0.016011784867233286
0003a0 2c 74 e0 2f 3f 77 80 3e de 73 ea db 25 a3 09 3f
       1.2267982890746716e-07 4.889926230087332e-05
0003b0 44 e1 6a a5 e2 3c 98 be a3 8d 2c 53 b5 08 2e bf
       -3.611718616780555e-07 -0.00022914136351302486
0003c0 d5 0e d4 a0 38 bd 91 be f7 3c a1 96 17 92 83 3e
       -2.6433386397815123e-07 1.4581287227858852e-07
0003d0 cc cf 3c 1e fe c1 34 bf db ce 5a ed 7c 19 33 bf
       -0.0003167386441760261 -0.0002914361951795571
0003e0 0d ce f1 0a 55 25 83 3e 9d db 14 80 ab 15 66 3e
       1.4264754131001493e-07 4.113586272519188e-08
0003f0 d3 e4 8b a0 76 d8 6c 3e 57 29 82 a5 db 13 8d 3e
       5.372904260908088e-08 2.166447810074438e-07
000400 be bc a4 7d 51 e9 8c 3e 42 cb 12 1d 75 c6 10 3f
       2.1540671364106644e-07 6.39924030732377e-05
000410 0b 94 b3 03 9c 0f 3a bf fa 37 58 bd 58 e6 1c 3f
       -0.0003976589102435152 0.00011024395583822391
000420 20 c2 41 f0 01 c0 11 3f 36 06 7f e3 92 87 14 bf
       6.771098930059187e-05 -7.831415211880733e-05
000430 86 dc a1 fb d2 f4 71 3e 31 f7 e9 45 64 ac 83 3e
       6.689259538112306e-08 1.4657828991190418e-07
000440 c2 76 40 2a 47 75 ab 3e d7 34 dd b5 42 a9 ca 3e
       8.183156592377332e-07 3.1782596313980173e-06
000450 00 b3 1f 73 a6 06 dd be 53 c9 6e e7 6d 42 8d 3e
       -6.920332269882935e-06 2.1800018476303838e-07
000460 b6 6a 47 b5 ed 9e 31 bf d0 85 b1 88 af 1e 55 3f
       -0.0002688722936718223 0.0012890543173614717
000470 ed 27 27 4d ec 1e e6 be 9b 81 df e6 91 0e 87 3e
       -1.0548016153761437e-05 1.717873944753518e-07
000480 5c 97 3e ba 71 31 c5 3e b0 1b c1 b4 2e 9c a1 3e
       2.5264193527938308e-06 5.24821510258151e-07
000490 97 f1 54 fa f9 2c 81 3f 28 64 ce fc a0 0d 71 bf
       0.00838656707002698 -0.004163388116375656
0004a0 89 63 d4 ed 15 08 85 3e e1 9f 44 50 33 96 16 3f
       1.56697516220225e-07 8.61615008643786e-05
0004b0 76 6a de 44 cd e3 c1 be 9e 57 ea 50 7c e3 14 bf
       -2.1326364167522056e-06 -7.968374505148846e-05
0004c0 3e a9 0e af a3 c0 d7 3e e4 5b 79 4c 06 2d 81 3e
       5.663036731921095e-06 1.279702586005886e-07
0004d0 d3 cf 59 ce ee e8 06 bf 8b a8 a9 f5 2c 74 34 bf
       -4.369715479138306e-05 -0.00031210038802121563
0004e0 ac f5 e2 06 6e 74 8b 3e ed ce da 08 bd b0 74 3e
       2.0455422906032135e-07 7.707768842173833e-08
0004f0 62 b4 0e 5a af ed 86 3e 42 2a 6b 6d 1a 31 90 3e
       1.7083031614070873e-07 2.412767633851352e-07
000500 e4 8c 82 53 49 d6 6e 3e 1f cc 0b a5 db 87 11 3f
       5.743849346262068e-08 6.687429528166908e-05
000510 f6 e1 2c 0e 56 82 6b bf 1e bb 35 c0 b7 76 1b 3f
       -0.0033580475586882886 0.00010476585889816452
000520 46 11 fb 6c ba 5c 12 3f 12 49 fe 6a 83 10 20 bf
       7.004630901536355e-05 -0.0001225624487202833
000530 d0 75 01 9d 19 3a 6a 3e dc a7 31 1b 59 4d 77 3e
       4.885150739549803e-08 8.680723943976067e-08
000540 20 79 c2 ff 25 0f a5 3e e0 d7 d3 63 d8 5a c3 3e
       6.27612279941411e-07 2.3072796283508463e-06
000550 e6 ed 05 e8 fd 80 a4 3e fa 9a c7 54 f2 71 84 3e
       6.110630721834576e-07 1.5232789464456986e-07
000560 0c c0 c5 c1 56 84 72 3f 95 33 4b 63 b9 31 5e bf
       0.004520739454491728 -0.0018429098537808598
000570 b0 99 a5 e5 31 ec db be 96 73 d3 61 54 a9 72 3e
       -6.657275287791383e-06 6.951929561482438e-08
000580 be 29 a8 76 f1 5f bf 3e 5b 57 f5 2a a4 69 9a 3e
       1.8700825089612996e-06 3.9357932287341785e-07
000590 ab 95 dd 53 e4 9e 7c bf 01 91 59 4a a7 21 6c 3f
       -0.006987468628584829 0.003434015978927119
0005a0 88 f3 44 f0 9e 95 64 3e ba 99 0c ea 08 5b 1a 3f
       3.834153797447792e-08 0.00010053865345280899
0005b0 9b ae 1e 69 60 3d 8e be 5d 65 9c 68 02 c6 0d 3f
       -2.2530371218458879e-07 5.678839541029921e-05
0005c0 e6 28 3f 64 3d ba 93 be 15 5b 44 ae 9a 9b 6d 3e
       -2.9396264644418385e-07 5.5148879048673694e-08
0005d0 6f 7d 45 d5 4c 34 c6 be c6 16 1f bb a5 5e 0d bf
       -2.646958515636621e-06 -5.6018288332943626e-05
0005e0 4a e7 32 0f d3 11 7b 3e 1d ad 97 f4 50 d7 6b 3e
       1.0084221795355435e-07 5.1858050808260586e-08
0005f0 2c 87 34 90 c8 51 7b 3e 6c aa 89 5e 0c f3 89 3e
       1.0177294389572546e-07 1.9333815194933232e-07
000600 04 20 e1 bc 59 a3 73 3e 9f 80 12 60 19 93 13 3f
       7.315757885692937e-08 7.467119577819974e-05
000610 c1 79 05 09 02 11 53 bf bd 46 51 25 71 72 22 3f
       -0.001163722980059498 0.00014073973821609144
000620 d5 87 3d 1f ed 82 15 3f e7 b4 c9 37 52 42 17 bf
       8.205959585219577e-05 -8.872629946106749e-05
000630 b5 f5 f6 2e e4 42 73 3e 4a 19 8b 1a 3a ea 89 3e
       7.175391280360415e-08 1.9308141687417663e-07
000640 40 b6 ef 79 0e e0 b5 3e 4a 32 fe f8 28 3f cf 3e
       1.303864770592521e-06 3.7248991659521014e-06
000650 bd 42 e6 58 39 9c d5 be 6f b8 bd 1e 74 8a 8d 3e
       -5.152285110902083e-06 2.2009636723878478e-07
000660 32 08 12 01 10 8f 4a 3f 54 a7 32 c0 ba af ca 3e
       0.0008105114121834732 3.1812719512761996e-06
000670 58 b6 bf 08 c4 6d fa be f0 c9 0b 87 fe b3 76 3e
       -2.5204441541795637e-05 8.457564760667726e-08
000680 af 78 b3 a4 91 cc c7 3e b0 86 b5 89 48 e1 aa 3e
       2.837073486013681e-06 8.010868159208798e-07
000690 e0 9e 1b 7c 64 b6 87 3f 6c 44 bc ee 7c a5 77 bf
       0.011578354871246643 -0.00577305604726162
0006a0 41 e3 af 7d 1b 2f 7b 3e 21 51 11 02 6f a4 1a 3f
       1.0126834075464805e-07 0.00010163238086253027
0006b0 1a ff 07 71 c4 6f d7 be f2 4f 4e 8c d6 29 25 bf
       -5.587718775234923e-06 -0.00016146415705675616
0006c0 61 77 04 ac a4 6b 62 3e cc 61 59 7c f9 61 7b 3e
       3.431082040899442e-08 1.0200855545797716e-07
0006d0 cb ec 0a cd eb ad 19 bf 29 00 0a 5a fe a4 3e 3f
       -9.79590579487821e-05 0.00046759805449170466
0006e0 2d 3b a2 30 04 39 8d 3e 7b 0a 62 ea bc 7f 6a 3e
       2.17726231991884e-07 4.935818980011635e-08
0006f0 a2 81 f0 db 04 42 83 3e 8e 8e 6c f2 36 50 a0 3e
       1.4348243657179706e-07 4.861753709378473e-07
000700 5f 3c 96 bc 3e ad f0 3e ee b8 36 ae bb e3 86 3f
       1.590417722279987e-05 0.011176553968507776
000710 5c 6d 0f db 09 47 e4 bf 3a fe b3 2a e0 2e c0 3f
       -0.633671691753459 0.12643053135978893
000720 d6 da 7d e1 d1 c3 a1 3f ac 31 6f f1 46 a1 4a 3f
       0.03469711186965234 0.0008126827623243147
000730 12 ac 2c 6c 1e 4a f2 be b9 3a 80 8f a7 56 dc 3e
       -1.744225188386398e-05 6.7564235379918505e-06
000740 51 42 eb a2 41 e0 f8 be c7 79 9e d1 6f 33 23 bf
       -2.372360375596717e-05 -0.00014649143195995097
000750 ab 2b 97 62 50 c7 e5 be a6 f1 0a fd 08 02 ad 3e
       -1.038483158568255e-05 8.645042673598442e-07
000760 79 25 96 8a 46 4a e4 bf 8f 61 12 a4 ee 88 dc bf
       -0.6340668398635635 -0.4458576776755984
000770 b5 b7 27 df 92 88 11 3f 75 f6 10 dd ef 0c f6 be
       6.688496049608759e-05 -2.1029028918420672e-05
000780 62 8e 53 34 77 46 19 bf 4c 32 11 c4 15 5d 03 bf
       -9.641745153348696e-05 -3.693316148964797e-05
000790 78 c6 5d 6f ac b5 ad bf b6 1e 3c 6c 90 68 9a 3f
       -0.05802668437435171 0.02578950558293399
0007a0 d1 59 98 ed 84 54 ef 3e ad c3 0f 84 49 f8 9b bf
       1.4939381276096824e-05 -0.02731432789363779
0007b0 7b 78 3a 63 7d 19 08 bf 42 d6 c0 fb 16 98 aa bf
       -4.5966280962193296e-05 -0.0519416029277804
0007c0 40 16 df 52 3b 93 dd 3e db 7d c1 87 26 9a fc 3e
       7.051259030837304e-06 2.727713625494213e-05
0007d0 30 bd 65 c2 c7 9c 65 3f f8 8d 7c 9d c7 86 d1 bf
       0.0026382352399917583 -0.2738513029055123
0007e0 2b 1b 71 86 27 c5 f1 be 80 c4 23 76 a3 af c6 be
       -1.6946920734529886e-05 -2.7043924301019978e-06
0007f0 d5 29 fc d3 40 de f6 3e fd c3 a2 b2 1f 0b d8 be
       2.1808792779723564e-05 -5.732405762668734e-06

kernel.layers.2.bias f8 [64]
000000 d7 87 41 3f 02 9a ad 3f de 4f d9 e0 80 0f 52 bf
       0.05781561872642243 -0.001102329118471516
000010 dc 18 03 dc 70 5e 45 bf fa f7 b1 58 1e 0e 51 bf
       -0.000652127368106627 -0.0010409637787058821
000020 ba 85 82 a2 2c 64 33 bf 2e c7 fa e5 b3 e3 30 3f
       -0.0002958878490152101 0.000257712765214457
000030 36 01 94 b7 58 a0 39 bf 89 b1 c2 ba 6f 1c b5 bf
       -0.0003910271257865529 -0.08246515569289249
000040 e1 24 0f a0 90 b5 21 bf 0f 73 59 22 db 7e b4 3f
       -0.00013511076397624332 0.0800606688366765
000050 44 9b 04 2e 36 34 57 3f 2f 8d c9 ae 25 94 29 3f
       0.001416256818694798 0.00019514999384560294
000060 a7 41 5a f8 11 51 45 bf a6 74 e5 c0 3c 62 0b bf
       -0.0006505334610711803 -5.2230338144035064e-05
000070 8a f2 e4 0e 8d 04 b5 3f 68 26 1c cf ee 8f 50 3f
       0.0821006928790188 0.001010878765045931
000080 fd 06 c7 f0 f5 62 b4 3f 48 56 e2 48 95 29 49 bf
       0.07963502052646372 -0.0007678965501038493
000090 e5 f1 fc c8 61 69 4c 3f 18 5b 20 eb bd 08 4b bf
       0.0008670546976428632 -0.0008250167213671193
0000a0 ff 12 c8 30 82 01 34 bf 7a 3c 92 ea 77 7e 2a 3f
       -0.00030526569824500244 0.00020213331052729486
0000b0 c7 94 f4 7d 57 dc 3d bf fc 24 00 c3 50 0e bf 3f
       -0.0004556382754848484 0.12131218682056394
0000c0 99 54 c8 04 d3 46 b8 3f 16 de 69 1b 16 47 65 3f
       0.09483069292794467 0.0025973731783854965
0000d0 6e c1 e9 a8 5e 48 c2 3f cd 89 c1 07 fc e5 2d bf
       0.14283354995451297 -0.00022810651342115713
0000e0 c2 8b 76 14 66 ef 5e 3f fd f0 1a ca 8f a4 c4 3f
       0.0018881317972520993 0.16127202385349185
0000f0 17 13 bf 5e be 35 28 bf f1 10 e9 4b 77 b0 57 bf
       -0.00018470715383336257 -0.0014458813672187344
000100 73 d4 51 dd dc a2 b8 bf 0f 71 49 32 f8 68 92 bf
       -0.09623508837997168 -0.017978551930682814
000110 ca 22 b7 2d c7 36 53 3f 58 29 6c 21 ee 7c af bf
       0.0011727280715253968 -0.06150001676549505
000120 59 db ea 60 c4 82 53 bf 24 b0 4c 95 d8 42 b3 3f
       -0.0011908452758413095 0.07523873944290976
000130 2f 73 be 11 66 3d 50 bf 6d 2c 95 2c fb 8e 45 bf
       -0.0009912010927799022 -0.0006579138218198007
000140 5b de 39 a5 6c 5d b4 3f 0f 97 f7 a0 c3 fc b0 3f
       0.07955054315413561 0.06635687522756605
000150 1d 03 11 2d 5d 1c c2 3f 0c 49 00 7f 29 e6 53 3f
       0.1414905996371311 0.001214542888196282
000160 23 ff e1 a9 dc ca 90 3f eb 38 53 6c a0 0d c4 bf
       0.016398856991599275 -0.1566658524447527
000170 e7 26 46 e0 8b c0 3b 3f 51 b7 ce 4b 71 58 55 3f
       0.0004234639639198859 0.0013028246314478918
000180 e0 69 c0 dd fa 11 48 3f 02 4b a1 02 e5 19 ba 3f
       0.0007345652516080291 0.10195761980257248
000190 ed 9c 8a ca e7 be 31 bf f9 3c aa 43 98 5f b3 3f
       -0.0002707782646588903 0.0756774106214272
0001a0 ab b7 02 21 d9 ce 36 bf ca b9 a6 1c 1d 90 84 bf
       -0.00034802247047138285 -0.010040500103824086
0001b0 e1 16 c7 a7 0f 80 54 3f b2 4e 07 8b fb 0c 33 3f
       0.0012512352833353101 0.00029069081486208647
0001c0 a3 00 70 cb a0 a7 42 bf 9a cd 84 f2 41 5c 02 bf
       -0.0005692992334616242 -3.5019648125712846e-05
0001d0 07 f1 a4 68 fc 3c be bf 8d 8e 6f 7d 71 2d 41 3f
       -0.11811807207863377 0.0005242160940465854
0001e0 bb 23 9a 39 9e 84 c4 3f 12 8a fe ff 0f c0 a7 3f
       0.16029718220332065 0.04638719558649397
0001f0 8a b7 31 f7 27 ca 46 3f 19 91 b7 9d bb 7e 65 3f
       0.0006954856056731057 0.0026239075066191273

kernel.layers.4.weight f8 [1, 64]
000000 39 c0 71 cc 10 35 c7 3f 2c e3 03 9b 17 7c 8b 3e
       0.18130693419107205 2.04777234731417e-07
000010 74 6b 47 72 a0 a3 56 be e9 19 91 38 ae 49 c0 3e
       -2.1084367267608836e-08 1.9416588128734816e-06
000020 90 e1 a8 0d e5 4c a1 be 63 cb 6d 03 bd b3 71 be
       -5.155912064575073e-07 -6.594547206726024e-08
000030 02 2d fd 4e 47 36 a3 be 6a 15 9a cf 64 1e ca bf
       -5.725629801193719e-07 -0.20405254494486808
000040 d4 65 be bf 3b e0 a3 3e 9a 9c da b9 f8 ca ce 3f
       5.923483281544529e-07 0.24056920123004916
000050 33 90 11 65 cf 88 b5 3e 92 20 57 c0 ff c9 8f be
       1.2835511322912174e-06 -2.368469439863311e-07
000060 af f5 a5 4a 53 6d 97 3e 96 4d 5f ab 25 8b 92 be
       3.4909028081411727e-07 -2.763203313913799e-07
000070 f5 99 86 7f 24 8c c1 bf 14 48 c4 e9 62 db de 3e
       -0.13708931185574583 7.3568768608357235e-06
000080 b6 f5 ed 3c 3a 07 cb 3f bb d1 5e de cc 7b cc 3e
       0.21115806555819255 3.395509099635687e-06
000090 a4 ea 2e c9 9d 14 74 be 9b d9 a5 67 f3 7b c9 be
       -7.480581336222599e-08 -3.0379513279957255e-06
0000a0 b6 2a 76 d1 ad 58 b2 3e 6d 35 95 16 57 82 80 be
       1.0935307893390317e-06 -1.2300268829383685e-07
0000b0 34 10 c6 dc 0a 53 9c 3e 35 dd 4c db 2a 05 cb bf
       4.22066219106729e-07 -0.21109519680042302
0000c0 e8 f2 4c 9b 59 5f b6 3f ae eb 38 ef 46 28 ca 3e
       0.08739242593305685 3.1181970088478734e-06
0000d0 1f 1b 56 5f c8 3f cb 3f de a8 f9 f4 43 54 82 3e
       0.21288399367423325 1.3656289831197952e-07
0000e0 25 87 e0 54 d3 f8 99 be 14 65 52 6f 02 cb d0 3f
       -3.8701258098422477e-07 0.26239071723246465
0000f0 95 18 e7 f2 62 b7 95 3e a8 5a ef a8 af d4 d6 3e
       3.235988853791117e-07 5.443288173054513e-06
000100 a7 f7 d3 66 58 29 cd bf dd 80 0c de 68 d0 cc bf
       -0.22782425900362321 -0.22511015741566257
000110 28 f0 55 3c 28 a7 97 3e 64 7f 8b ce 45 7a be bf
       3.524565353669258e-07 -0.11905323307609944
000120 ad 79 a6 ed d3 12 a4 be 37 a6 4f 24 e6 7c d0 bf
       -5.982382973895535e-07 -0.2576232294655684
000130 5f 05 82 7d 30 18 90 3e cf cf 61 11 4f 18 9b 3e
       2.3982658837331035e-07 4.0374631405455577e-07
000140 63 dc 91 d5 78 85 cc 3f 50 ed 85 0d 5f 94 c3 bf
       0.2228232424565447 -0.15296543274221586
000150 d1 da 05 0e 5a d7 d4 bf f9 af 15 da cc b8 97 3e
       -0.32564402932568465 3.5348349499450327e-07
000160 3f 7e 83 07 42 21 cf 3f bc 2d e4 2f f1 16 c6 bf
       0.243202451390049 -0.1725751384586668
000170 18 1e e9 c8 84 77 74 be 60 78 f0 e0 f6 d5 95 3e
       -7.62450318238218e-08 3.2537875055579304e-07
000180 6c ea 1d 6a c6 00 a5 3e cd 4a 34 a5 9d a5 ce bf
       6.25938998618484e-07 -0.23942919317831582
000190 06 87 3c c1 a8 31 94 be 66 ed 51 7c fe c6 d2 bf
       -3.009137696676192e-07 -0.29339563503864097
0001a0 35 77 4a da 25 88 a2 3e 76 9b bd 37 74 80 c3 bf
       5.522915001614618e-07 -0.1523576042338523
0001b0 99 36 70 3e 95 13 82 be 21 65 a4 10 a1 1e 79 3e
       -1.3468039059031738e-07 9.357797040413909e-08
0001c0 e3 c1 9f 4c b4 e4 7f 3e bd df b8 71 64 dd a4 3e
       1.1881208475373933e-07 6.218199106238913e-07
0001d0 ab 6d 1b d2 da 55 cb bf 3b 9a e4 6b 97 42 72 be
       -0.21355757960450936 -6.80242590906884e-08
0001e0 32 f6 e4 2d 0f b7 d0 3f bf 71 68 9b ed af c1 3f
       0.2611730526149102 0.13818140114098118
0001f0 86 3c cf e8 a2 00 9a 3e 16 b0 35 aa 29 30 a2 be
       3.8746723235185e-07 -5.420486854207917e-07

kernel.layers.4.bias f8 [1]
000000 d8 1b db c2 49 42 a9 3f
       0.049333863292808366

fnw.layers.0.weight f8 [32, 1]
000000 1a fb 66 58 a6 5c a8 bf 2f 7a 97 3f 78 ae d4 bf
       -0.047581861773769954 -0.3231487866413855
000010 14 bd 1c 7f 1a a5 96 3f 79 0a b3 b1 87 7f 28 3f
       0.0221141948779265 0.0001869061605700056
000020 4f bb ca 9a 10 27 ec bf 68 43 dd 5c 40 5d db bf
       -0.8797686599044513 -0.4275666148069406
000030 64 4e 77 d9 a5 fc ed 3f f7 1f ed fe c5 08 e4 3f
       0.9370908019431679 0.6260709742573444
000040 f1 ce e6 65 50 46 8f 3f ca 0a 34 d7 86 a4 d1 bf
       0.015270832166471378 -0.27566691413828137
000050 bd a3 d0 02 92 52 b3 3f 54 5a 21 bd 56 8d b2 bf
       0.07547867363668011 -0.07246915929258907
000060 a4 56 16 26 9b 54 e4 bf 69 ec a3 4c b1 6c d6 bf
       -0.6353278869525707 -0.3503840683403668
000070 4f dd 81 71 3f 75 df 3f 85 a6 5c 98 05 c4 b4 3f
       0.4915312393636286 0.08111605615399682
000080 2f 6b ad f5 dd b9 ed bf da 1b 71 7a af 74 e1 3f
       -0.9289388464343115 0.5454938308183686
000090 bb a1 9d 20 34 8d 9e 3f 19 fa 09 fd b6 59 e1 3f
       0.029835524073321667 0.5422015134971075
0000a0 84 bb b6 75 a7 85 ee bf 77 ce 71 9b 93 35 d6 3f
       -0.9538152026269562 0.34702005558140264
0000b0 f3 1f a2 5c 1f ac b8 bf e1 41 47 b9 e7 de d7 bf
       -0.0963763810306089 -0.37298005193318146
0000c0 62 97 49 75 67 c2 e9 bf 36 f0 7f ba e1 25 b1 3f
       -0.8049809733172248 0.06698427966324591
0000d0 e1 3a 31 d2 09 22 e8 3f 4e fc c3 dd 16 8c a1 bf
       0.7541550736731005 -0.03427192170237757
0000e0 61 05 90 3a a8 5a 7d bf 89 6d db 91 08 19 9f bf
       -0.007166535514444434 -0.03036893263093313
0000f0 57 cc 2f 84 9a 36 b0 bf 91 d7 94 df 0f 94 72 bf
       -0.06333318450178758 -0.004535734181720389

fnw.layers.0.bias f8 [32]
000000 f8 30 75 74 2b f9 a4 3f 44 47 ff fa 37 99 c3 bf
       0.04096351429561368 -0.1531133628437208
000010 36 88 93 88 79 31 93 bf a1 68 a4 44 77 80 28 bf
       -0.018743418656306875 -0.0001869340506537908
000020 26 3c 8b 56 cf 84 e2 bf bc 49 a6 4e dc b0 d6 bf
       -0.5787121477422985 -0.3545447128355155
000030 14 4c 6c eb a6 11 e6 bf 71 bc a3 78 49 87 e4 3f
       -0.6896547887903375 0.6415145260088037
000040 49 c8 dc ba 84 46 8f bf 5a 52 8d f6 e4 74 e8 bf
       -0.015271222069348183 -0.7642693343610276
000050 e0 20 e9 6f 84 f8 b2 3f d8 31 b8 41 3d 13 b0 3f
       0.07410457355684086 0.06279356817703474
000060 99 51 6d e7 16 d5 dc bf 11 a3 6b d5 96 00 c1 3f
       -0.45050594902320423 0.13283048077507734
000070 06 17 98 d6 2f 2f d7 bf 21 da 80 2c 41 63 b4 3f
       -0.3622550578732987 0.07963950478083649
000080 8c 12 9c 39 85 7b bb bf 2a c3 5a 05 5e c2 d9 bf
       -0.10735352188573638 -0.40248823664573996
000090 29 88 ab 09 64 ad 9e bf 54 73 7e 55 dd 08 e1 3f
       -0.02995830830594329 0.5323321027568491
0000a0 a9 f5 d7 c6 b5 d5 cb 3f 07 d8 14 f5 3c 5c d7 3f
       0.21745941361579682 0.3650047677396064
0000b0 2f 43 8f 62 4e b3 b8 bf cc d6 74 9e ab d0 d9 bf
       -0.09648599535217948 -0.40336122965105115
0000c0 b3 fd 0a 63 72 9a ef bf ed cc b6 8b d2 06 ad bf
       -0.9876033720428751 -0.05669267611974669
0000d0 49 17 b0 2f 95 b1 e7 3f bc 68 ce af 08 1c d7 bf
       0.7404275828746246 -0.36108605545599537
0000e0 bd 8c 6b ac b7 c2 df bf d6 ab 9d 30 db ea 94 3f
       -0.49625961149122216 0.020427155344275714
0000f0 ce 88 73 36 4d 60 ab 3f a2 5e 24 43 59 a7 dc 3f
       0.05346909799279019 0.4477141528782146

fnw.layers.2.weight f8 [64, 32]
000000 90 d7 1b 8a 50 2c 97 3f 2e bb 79 25 e0 6d bf 3f
       0.02262998431157076 0.12277031817368986
000010 57 28 c3 a1 db c6 c6 3f 3a f7 34 39 f5 65 b2 bf
       0.17794366262961844 -0.07186825415280121
000020 f4 a9 64 2a f6 4e e5 3f 92 b9 ab 57 b7 6e ee 3f
       0.6658888652794404 0.9510151588745421
000030 6b bb ea 48 8f 29 e9 bf 63 f2 08 29 10 37 f1 bf
       -0.7863232063444746 -1.0759431460311581
000040 22 71 c3 a1 1e 39 a1 bf 84 cb ab 25 2d f5 c0 3f
       -0.03363891338969639 0.13248218860061567
000050 93 1a 14 78 fd f7 a8 bf 3e 60 55 7e 38 53 b2 bf
       -0.04876701441576361 -0.07158234676660499
000060 15 e5 ba 0f cb ef e4 3f 63 49 4d 3d 87 b0 c8 3f
       0.6542716319301315 0.1928872155500115
000070 dd e9 b3 fc 98 2d a8 bf 48 a4 2c ed 93 45 d0 bf
       -0.04722288212538548 -0.25424669419823376
000080 b9 d1 d7 a5 49 e9 c6 3f 52 d2 93 00 ed f4 63 bf
       0.1789943752079475 -0.0024361256552032718
000090 b6 33 a5 37 1c fa b2 3f f5 d2 95 c7 9e 9f f2 bf
       0.07412887915161445 -1.1639697834299885
0000a0 a1 fe 1e 4f 43 35 c2 3f 49 e7 38 0a 22 1c df bf
       0.14225045550664553 -0.48609210012692877
0000b0 ba 80 60 d2 50 d3 b7 bf f6 f7 f9 cf 84 9a e4 3f
       -0.09306817184597352 0.6438621580161896
0000c0 cb fc bf 68 1a 5d e3 3f 43 4d d2 b3 78 f7 a5 3f
       0.6051151319406015 0.04290368266188207
0000d0 f6 08 b0 92 63 3b f4 bf a2 93 0b 5d c3 ef 9a 3f
       -1.2644992570863542 0.026305248788861875
0000e0 0c e8 22 0d fc 99 cd 3f a6 ed ce d1 fe 51 96 bf
       0.23126173631118296 -0.021797162585910045
0000f0 34 22 91 5f 03 0e bf bf 93 b4 51 74 a9 a5 97 bf
       -0.12130757411171872 -0.0230928876157362
000100 f7 c8 09 4c 3e f5 70 3f db 91 ba 9f 8c c1 9f bf
       0.004140132282019807 -0.031011769532271898
000110 73 66 a2 ee 3e 13 65 bf 95 c6 34 9d b9 ee 95 be
       -0.002572653688798715 -3.2682001212527744e-07
000120 a5 22 a9 db 30 10 83 3f c1 e1 c2 d0 cd 4a 3d 3f
       0.009308225348960983 0.00044696354667508534
000130 ac 60 14 bc 45 fb a2 bf 8e 4b e8 e1 96 6b b8 3f
       -0.037073306282935675 0.09539168372456983
000140 25 d9 ca 41 47 06 dc be a5 29 d7 16 56 19 31 3f
       -6.681567381752641e-06 0.0002609095743905338
000150 86 4e c1 1f e6 0e 89 3f f1 92 9f 09 95 d7 7f 3f
       0.012235448688591843 0.007773954561319783
000160 a7 ce 22 d8 9a fd 97 bf 6b 0a a0 b3 5f 13 b2 3f
       -0.023428363267795984 0.07060812125568254
000170 93 ba bc 1f 41 70 a7 bf 5d 00 a8 7d ef e2 a3 3f
       -0.0457783080331541 0.03884075554742659
000180 35 fb 5b 19 93 2f 87 bf fd 0a bd dd 6c ea 52 bf
       -0.011321210109142757 -0.001154524149527602
000190 8f 7e e4 73 26 5d f7 be 97 0a ce f5 42 d1 b1 bf
       -2.2281520835608497e-05 -0.0695993280515189
0001a0 a3 46 3c ff b2 77 95 3f de f5 94 be 08 c2 b5 3f
       0.02096442873796057 0.08499197628858421
0001b0 0f 9f d0 1b 4d a1 26 3f 9b aa 4a 90 3b af 1c bf
       0.000172653830220464 -0.00010942269370654361
0001c0 b0 59 ac 05 1d fa 75 3f 92 1c 21 d6 85 7c 71 bf
       0.005365479820076777 -0.004269144819836106
0001d0 e9 c7 27 49 26 cd a1 bf 2b ae c6 5e bf 2f 25 bf
       -0.034768291883565734 -0.0001616402727341188
0001e0 31 57 d2 84 a7 c5 52 bf a8 f3 96 56 36 a4 67 3f
       -0.0011457572866552907 0.0028859196943060335
0001f0 d1 3c b9 38 ff af 94 3f d6 7f e9 ce ad a6 c9 3f
       0.020202625119335963 0.20039913752680033
000200 d1 c6 06 62 54 c0 61 3f fc 17 61 1e 2a c1 63 3f
       0.002166905222303985 0.002411443961167768
000210 6e 79 8f 31 ef 01 41 3f fa 46 9f 24 ff 5e db 3e
       0.0005190294206121446 6.525774162784284e-06
000220 1c 2f 35 46 b4 77 85 bf c4 09 f7 9d 14 fd 38 bf
       -0.010482223885126589 -0.0003812957129093709
000230 61 64 6c 0b e1 f0 c6 3f 7f 9b ca ab bd 46 c9 3f
       0.17922604615958718 0.19747134102109595
000240 3c 52 fb 4b 6c 77 32 3f 08 14 cf 0d ce 33 67 bf
       0.0002817763706677611 -0.0028323196879420677
000250 12 bd 95 18 66 0c 9e 3f 51 2f db 81 a5 29 6c 3f
       0.02934417271665974 0.003437827354764091
000260 27 3c 55 55 dd 4d 6b 3f 6e a3 59 62 a8 16 aa 3f
       0.0033330271641385414 0.050954114919312996
000270 66 3d 06 a2 1c ce c9 bf 14 ff df 64 5d fb 8a bf
       -0.20160253440233616 -0.01317475284667994
000280 77 4b 69 46 a6 ba 9c bf 43 02 b4 78 e5 50 c2 bf
       -0.028055761382641955 -0.14309376138409577
000290 91 4a 43 96 76 a6 34 3f d3 bd 6d 5d 01 95 b9 bf
       0.0003150977629619379 -0.09992989092801645
0002a0 25 13 2e 39 3e 87 a0 3f 5b dd 5c ee 5f 39 7d 3f
       0.03228182266233252 0.00713479493224808
0002b0 0b 83 2f 6c 27 26 eb be aa d6 b9 60 c4 58 42 3f
       -1.2945670624321602e-05 0.000559898269286226
0002c0 1c 93 7f e0 26 43 52 3f 6b 46 f4 62 68 9a 45 bf
       0.0011146430642778376 -0.0006592759799863406
0002d0 8e 51 27 f4 e8 2c b1 bf b4 9f 09 82 8f 74 0f 3f
       -0.06709152184277498 5.9996251597748724e-05
0002e0 91 53 cb 6a 3b 7a 44 bf 19 74 7f c5 9f 0c 55 3f
       -0.0006249227640987444 0.0012847481029816309
0002f0 74 23 b5 6d 21 00 79 3f 90 ff f3 1c 2c b7 a5 3f
       0.00610364015603514 0.042413118871990396
000300 c5 07 bc 0a 3a a6 48 3f 70 4a 7d 47 a8 e0 56 bf
       0.0007522376449460236 -0.0013963359214882697
000310 2d ef 42 ad 3e 8f 68 bf b9 c6 fa a2 15 e7 89 be
       -0.002997991958265353 -1.929899595596728e-07
000320 be f4 34 83 0c 10 80 bf e6 dc 48 f2 28 28 78 bf
       -0.007843110803714356 -0.005897674509973449
000330 b9 27 bc 89 d6 54 c0 3f 57 85 05 ea a9 69 50 3f
       0.12758905148831248 0.001001754695686271
000340 c7 f8 20 49 1b 0f ec 3e 1f 6e 58 9e e9 84 71 3f
       1.337957863622694e-05 0.004277145931634445
000350 2d 19 46 f8 9f 27 c0 bf 98 50 8f 27 08 4c 56 3f
       -0.12620925543542097 0.0013609008440101152
000360 eb 80 f2 b0 ec 6d 6b bf 2b 9d a5 a7 3f d3 b4 bf
       -0.0033483145594602657 -0.08134839861815084
000370 ee 3d e7 fd be 8e b0 bf c2 08 01 c2 db 10 89 3f
       -0.06467813204584846 0.012239186151536411
000380 c7 51 99 c4 20 2d 87 bf 1b 2f a1 92 94 01 c6 bf
       -0.011316543578836836 -0.17192322883271846
000390 e0 56 26 48 60 2f fd 3e 0f 14 81 54 08 5e b3 3f
       2.7833044904910088e-05 0.07565357268420335
0003a0 52 ea 47 ca 55 80 a2 3f 06 d5 a9 51 5e c5 c4 bf
       0.03613536924600126 -0.16227320659132988
0003b0 f6 f2 f5 79 a5 55 30 3f 7b cb 82 8c e5 6b 42 3f
       0.0002492455477847566 0.0005621786922545968
0003c0 ca 3e e2 28 24 a6 52 3f 00 0d ba 34 b3 82 75 bf
       0.0011382439729778365 -0.0052515983803715915
0003d0 99 4d 46 26 b5 73 9a 3f 74 71 7e c2 12 3f 31 3f
       0.025832014523599154 0.0002631588745261239
0003e0 c7 1d 2d 55 49 5b 51 3f a9 54 ef f5 a3 1a 3d bf
       0.0010593620433655292 -0.00044409277864805114
0003f0 7a 7c 3f a9 6a ce 74 3f e3 1f 85 0e b2 9f c1 3f
       0.005079666752833773 0.13768602093682522
000400 fc 3d c3 15 39 17 6b 3f c5 aa 20 a9 de 3f 75 bf
       0.003306972021256403 -0.005187864082510434
000410 af 61 bb ae bc ef 60 bf a2 eb 2c da e7 c6 83 be
       -0.002067440529440932 -1.47349948320872e-07
000420 48 3a 4d 7a 95 40 87 bf ed a7 0b ac 6c b2 61 bf
       -0.011353652758456026 -0.002160274744132265
000430 34 57 e7 21 51 01 af bf ef dd 6e 9a 06 00 a6 bf
       -0.060556922329551816 -0.04296894679231033
000440 a4 aa ab c1 58 5b b3 3e d8 35 ff 22 73 9b 73 bf
       1.1537565628947722e-06 -0.004786920311699437
000450 ba 98 2d d4 43 1b 94 3f 09 50 4c 2a cc 4a 8c 3f
       0.01963525755436344 0.013814539948306519
000460 c6 d6 d8 78 af 2c 85 bf 18 4d 58 50 7d f5 bb 3f
       -0.010339136958559602 0.10921462260767034
000470 91 7a 9d ea 3e 74 55 bf 79 8c a9 4c c1 9e a6 bf
       -0.0013094534319503563 -0.044179955108824616
000480 91 db 03 31 7b 53 94 bf f0 36 cd 0d 48 1c 83 3f
       -0.019849705568926238 0.009331286355201723
000490 1b d9 e2 2e 32 28 c0 be d9 88 28 34 46 09 a7 bf
       -1.926066366920944e-06 -0.04499263178537811
0004a0 2d d4 28 2f f2 fa 7f 3f cf a0 32 97 eb f7 cc 3f
       0.007807680160614655 0.2263159263868659
0004b0 0c 48 18 c1 35 47 22 3f 28 5c 8d 4c 6c 04 0a bf
       0.0001394513242734544 -4.9624018692178134e-05
0004c0 9a 15 59 58 4e 8d 85 bf 9c d5 d8 cd 28 c0 6d bf
       -0.010523426123777924 -0.003631667800415085
0004d0 d2 37 e2 f8 cb c9 6c 3f 24 a7 92 a6 0d 54 15 bf
       0.003514192946631114 -8.136113469228414e-05
0004e0 b0 b1 6d 56 04 4a 42 bf 8a 52 56 8a 80 a4 63 3f
       -0.0005581399135344191 0.0023977766565599955
0004f0 64 8e 35 90 82 ac 8a 3f ba ea 96 4f 22 cf ac bf
       0.013024349237361572 -0.05626780721236942
000500 63 1f 70 4d 32 2c 73 bf 65 8b c7 ff f5 8b a5 3f
       -0.004680820936307703 0.04208344218547814
000510 b4 a6 68 9b 54 46 43 3f 24 f8 f1 f7 04 1d 4b be
       0.0005882180328786375 -1.2625640753582761e-08
000520 2b c5 d3 9a 6f 4e 91 bf 1b 60 52 75 f6 15 49 3f
       -0.016900771927742014 0.0007655576142893168
000530 3c f4 8c c9 9a 3c a2 bf e7 d5 ff 5b 69 73 c3 3f
       -0.03561862669310087 0.15195958130031714
000540 02 f7 c8 46 cb 91 bd 3e 09 a6 40 bc d3 b5 51 bf
       1.7624800207195045e-06 -0.001080948612989354
000550 50 1e d7 c1 92 10 9c 3f f9 43 18 2f 66 c4 81 bf
       0.02740697200877512 -0.008675382911890838
000560 96 c2 d2 47 03 92 4b 3f c7 ce 84 05 a8 54 b4 bf
       0.0008413806932790642 -0.0794167531465134
000570 67 44 c0 5d 2d 22 a9 3f 2a f0 e4 99 ae b5 c0 bf
       0.049088876432627875 -0.13054449571961985
000580 14 bf ad 20 ed 52 90 bf 07 76 34 53 1f e1 b6 3f
       -0.0159413386531347 0.089372594655707
000590 27 cc b4 2e 25 c3 f6 3e be b3 06 65 d8 57 b9 bf
       2.1707807644943393e-05 -0.09899666277369953
0005a0 17 f8 ce 25 58 92 78 3f 79 3e 11 cf fa fa c1 bf
       0.005998939825927272 -0.14047179327689088
0005b0 40 bf b2 5d f6 a2 e4 be 4c 85 96 46 7d 84 34 3f
       -9.840284226874892e-06 0.00031307276239019434
0005c0 93 e4 5a cb 5c 41 83 3f 5b 51 e2 c9 ab 72 5a 3f
       0.009402012782958635 0.001614253771127747
0005d0 c9 13 c9 3e cd 7a 8a bf d5 77 ac 31 72 f4 3d 3f
       -0.012929538229522823 0.000457075004009042
0005e0 43 8d a8 73 68 16 54 3f 5c f0 3e 28 ee cf 6a bf
       0.0012260456120508224 -0.0032729770191206996
0005f0 a3 37 67 86 f9 f6 79 bf 26 60 ce 5a 0c 1b 95 bf
       -0.006339049059944121 -0.020610993425720057
000600 8a ba 4d e8 0e 8f 47 bf 5d 96 13 00 82 46 c1 bf
       -0.0007189581670966211 -0.1349642277120208
000610 68 9e e8 42 c9 ac 58 3f 20 6a 00 57 50 ca bd 3e
       0.0015060391848552793 1.7756395571723947e-06
000620 7b 64 1b 7e 20 80 bc bf 96 16 0d 6b f9 04 c5 bf
       -0.11133006171020725 -0.16421430327516323
000630 89 2f 99 1b e5 95 ed 3f 58 98 7b bc 5e 51 b3 bf
       0.9245477236777201 -0.07546035863524148
000640 7d b4 67 ea ed 97 25 bf bb b5 12 cd 05 85 a8 3f
       -0.00016474513286316223 0.047889882357917433
000650 ea 6d 1c a6 bc 52 b2 3f 76 82 ce d1 95 6f 4f 3f
       0.07157496505208596 0.00095934691818307
000660 ad 3c 1e 4b e5 7e b0 bf 55 ac 0a 0c 7e 07 92 3f
       -0.06443627437532724 0.01760670612808853
000670 df e6 74 da 34 08 b3 3f c5 25 1f 04 9e 76 a8 3f
       0.07434397061743024 0.0477799778014503
000680 b5 7b 30 81 e4 a0 bc bf 2a cd 78 ee d3 83 c2 3f
       -0.11183002618825706 0.1446480669415931
000690 bc a3 ce e6 63 25 28 bf 1a 89 e2 1e d2 f9 9e 3f
       -0.00018421978475416194 0.03024986566072938
0006a0 9f 2e 84 ff 6e 29 cd 3f 34 7d e8 45 53 37 c8 bf
       0.2278269527090417 -0.1891883937214317
0006b0 05 d6 11 0d b5 23 63 bf ad 85 be 55 74 3e 9a 3f
       -0.002336362471903499 0.02562886975613814
0006c0 d2 34 8c 4c 1d b4 b3 bf 10 57 84 8a f7 f5 71 3f
       -0.07696707838859432 0.004384962994910216
0006d0 95 93 8c d2 d9 5d be bf 80 fb e4 4c 35 95 a7 3f
       -0.1186195506130175 0.046060243259936406
0006e0 8f d8 dc f4 1a 1f b2 3f 08 b4 38 03 02 79 52 bf
       0.07078712919323692 -0.0011274833349361763
0006f0 40 4c 7e 68 01 bf 4c bf 54 87 92 4f 15 32 a8 bf
       -0.0008772618175377847 -0.04725710483877657
000700 05 db 97 b6 8b c7 5c bf 1e 7c f6 c5 88 28 90 3f
       -0.0017565597903492225 0.015779625971500726
000710 f3 76 32 06 d6 ab 78 3f bd 76 2e b3 5c 5b 0f 3f
       0.006023250610409414 5.980850837448762e-05
000720 28 34 f0 96 25 dd 73 3f 89 2f 92 6f a7 0c 74 bf
       0.00484957393110811 -0.004894880338849003
000730 14 a8 7c 62 b8 21 88 3f 7a 55 e0 4c 28 07 b3 bf
       0.01178306627805984 -0.07432796360838792
000740 32 12 00 db c7 5b 33 3f 65 bc 51 89 3c 42 7e bf
       0.00029538754733973987 -0.007387386770559255
000750 3c 52 ba fd b3 76 b4 bf b9 c9 b7 b8 5e 2b 80 bf
       -0.07993626541640081 -0.007895221721786127
000760 4c 12 5f 7d 0a 2c 96 bf 3a cf 92 49 8b ef b2 bf
       -0.021652377988873803 -0.07396765276172071
000770 81 ff 78 96 45 fc b9 3f ea dd cf 32 88 85 b5 bf
       0.10150561259888315 -0.08406878700758794
000780 eb 1b b4 84 e7 0a 75 3f e6 3c 73 9f b6 6b a7 3f
       0.005137352341313832 0.045743662799958604
000790 9e 7d 7c 87 00 0e 36 3f 70 58 2a 16 29 91 a7 bf
       0.00033652794762592 -0.04602936168264271
0007a0 31 71 3a 2c 58 9f 8a bf 5f 4f c0 73 33 62 c6 3f
       -0.01299923787092236 0.17487185623087506
0007b0 16 7f 0f d3 9d 8b 50 bf 14 10 0a 61 d8 13 73 bf
       -0.0010098496679730776 -0.004657597761823968
0007c0 9d 4c c3 aa b4 1c 88 bf 82 8d e9 90 f7 1a 7f 3f
       -0.01177350183608033 0.007594077162682013
0007d0 24 3a 1d 2e 36 dd 84 bf 76 fe dd bb fe 21 31 bf
       -0.010187552721302735 -0.0002614256771877663
0007e0 e7 ac 56 a1 b3 ea 21 bf 68 1b a0 03 eb e3 67 bf
       -0.00013669436218086766 -0.0029162969704005677
0007f0 1c d0 75 23 b0 5f 79 bf 04 84 01 02 d3 af b7 bf
       -0.006194770852165046 -0.0925266151330249

fnw.layers.2.bias f8 [64]
000000 6e 99 68 f7 0d da c9 bf 73 27 80 bc 1e 9e c2 bf
       -0.2019669969606172 -0.14545044139986948
000010 49 9f f5 0b f7 91 b0 bf 8d 79 06 aa a5 77 ab bf
       -0.0647272495458512 -0.05364721012596183
000020 86 20 97 d6 41 64 9d bf b3 1f bd a4 41 c9 a6 3f
       -0.028702763292841847 0.04450421462985279
000030 e5 f4 f3 55 6c b5 aa bf 00 1a 3c 12 3e 04 b6 3f
       -0.0521653990672151 0.08600223488983971
000040 f0 2b bb 04 e2 a9 af bf 51 25 ab d3 f0 74 7f bf
       -0.06184297855141796 -0.00767988274555738
000050 06 2e 9f f5 ce d9 c2 bf 0d 54 d1 c9 d0 ce cb bf
       -0.14727198594333418 -0.2172490106046613
000060 7b 90 96 55 3c 99 ab bf 52 f5 d8 44 19 3d c0 bf
       -0.05390347046639562 -0.12686458455747612
000070 78 20 20 8f c0 7a 95 3f f4 46 b3 8a 38 9e b5 3f
       0.020976074920355775 0.08444550882566287
000080 72 d7 74 e2 df 70 b2 bf 14 bd d3 1f 6e 30 a9 bf
       -0.07203482893677718 -0.049197617898125184
000090 80 a5 3e 6f 04 10 d1 bf 7e 3f 8c 43 dc fb cf bf
       -0.26660261977902877 -0.24987366960749208
0000a0 28 b5 d1 cc 0e 78 c4 bf 1b ba cc 53 c6 6e ad 3f
       -0.1599138736814123 0.057485769013841025
0000b0 2d 0e 4d 42 d4 b2 66 bf 95 a4 26 f5 b3 f5 c9 bf
       -0.002770819252335041 -0.202810759260761
0000c0 61 42 fc 38 70 19 c3 bf 5c d1 4a 28 a2 5b a5 3f
       -0.14921381742944376 0.04171473256920663
0000d0 97 6d 30 5d af 69 a6 bf 3f bf 78 ac 69 1b 86 3f
       -0.04377506268084657 0.010794473243634804
0000e0 35 e7 6e 68 2d de b0 bf b3 7b fd 16 2a 01 89 bf
       -0.06589015769614266 -0.012209252192119857
0000f0 98 42 65 63 e4 0e a8 bf 0c 85 31 fa 7d 4a b5 bf
       -0.04698861802410653 -0.08316790922392076
000100 ce 33 4d 3b f4 5e be bf b9 33 54 81 90 e5 ca bf
       -0.11863638351242331 -0.210130751751789
000110 a9 4f c0 3c 72 41 42 bf 16 6e eb 71 96 a1 75 bf
       -0.0005571182059633711 -0.005281055141235244
000120 bb f6 10 9d 2d 6b a9 3f 13 2c 64 4f 64 87 af 3f
       0.04964582960427096 0.06157983273632097
000130 d8 db a3 ea 39 2e c2 bf fe 8a 8e 28 11 63 be bf
       -0.14203571278605298 -0.11869914283901647
000140 71 ea b7 76 64 55 a4 bf 73 ae 33 f7 aa 33 b4 bf
       -0.03971399258803821 -0.0789133885879723
000150 bd 46 23 35 f6 61 b2 bf c6 f0 1a 86 f4 68 be bf
       -0.07180727765378499 -0.1187889888196337
000160 d3 c8 4d b4 92 17 be bf f1 be 08 4d f4 cd af 3f
       -0.11754719640683513 0.06211818161352579
000170 22 83 74 61 0d 71 41 3f bf 1a 83 ae 60 24 b1 3f
       0.0005322757087108147 0.06696132908391926
000180 73 0d 62 9c 04 6b cc 3f 76 73 8c 3d a6 72 aa bf
       0.22201593051805055 -0.05165595532728322
000190 bd 19 c3 51 17 86 cc bf 43 f2 86 8d 17 f4 c6 bf
       -0.22284213535585976 -0.17932409677986713
0001a0 3b 9d 4d 42 34 be c3 bf 6a 9f ae 9a 46 0e ca 3f
       -0.15424206960163098 0.20356066277349366
0001b0 c2 03 78 12 59 f3 81 bf df 1e 74 1b 93 0d b1 bf
       -0.008764930606959601 -0.06661338253263292
0001c0 34 d3 08 1d ac d7 ba bf 2a 76 72 3e 41 96 b2 bf
       -0.10485339840745383 -0.0726052072008875
0001d0 f8 17 c4 8f 5e 44 c4 bf af 98 7e e3 fd 16 b6 3f
       -0.1583364679319741 0.08628832630219806
0001e0 48 d4 58 bb 48 d1 b1 3f 58 fb e3 35 03 c1 9d bf
       0.0695996720686064 -0.029056596912592297
0001f0 60 e0 19 6f f8 56 bc bf a7 3b cc e3 63 a8 a2 bf
       -0.11070206367901525 -0.03644096523031886

fnw.layers.4.weight f8 [1, 64]
000000 a4 23 90 b3 c4 b9 e7 3f 04 79 17 3b 38 3b 57 bf
       0.7414268023577404 -0.0014179276589554876
000010 d4 9d 14 96 4f 3d 53 3f 96 45 08 7e 9d 44 60 bf
       0.0011742856225483893 -0.0019858432790520004
000020 bf cf 5c ee eb b7 51 bf 3a 41 fb 40 50 8f 33 3f
       -0.0010814479841885075 0.0002984591419421704
000030 62 51 55 ad ab 61 5a 3f fa 65 7d 73 a7 27 80 3f
       0.0016102005514158847 0.007888134204836018
000040 7e 17 4a 53 d3 08 90 3f bd 1b 56 83 e4 41 26 3f
       0.015658666571219275 0.00016981043306093886
000050 05 aa 53 b7 d9 d9 e7 3f bb 53 4e e6 1a f2 e9 3f
       0.7453430729486291 0.8108038423694021
000060 ce 47 01 31 bd 33 55 bf 5d 1c 68 84 1c 53 4b bf
       -0.0012940738270299404 -0.0008338822597701124
000070 82 a5 4a 58 3d f2 97 bf 8b 5b 58 0a 6b 1c 82 3f
       -0.023385008348360888 0.00884326577492602
000080 53 e6 0e 95 0a 2a 4d bf 6f ca 77 ab 8d fb 42 3f
       -0.0008900214835342958 0.000579303908067109
000090 3c 63 21 7e ca 5e e6 3f 07 72 84 53 36 b0 e5 3f
       0.6990711654171728 0.6777602797697576
0000a0 48 76 4c f6 b8 e0 e3 3f eb 88 78 3c 40 d6 67 3f
       0.6211819468041506 0.0029097799886282825
0000b0 d3 e2 43 43 c3 fa 20 3f 82 f3 31 89 dd c3 e4 3f
       0.0001295436246733424 0.6489093474952912
0000c0 d5 c9 73 b8 2f 37 e4 3f d7 62 9a 0f 72 f0 70 bf
       0.6317366221031145 -0.0041355567460860864
0000d0 e2 f6 51 2e 78 a7 9c bf ee 9b 63 0c a8 68 72 bf
       -0.027982595278891582 -0.004494339407961496
0000e0 1d e9 19 0d 86 4f 5e 3f 2b c4 96 c0 30 89 26 3f
       0.0018500146001359582 0.00017193527336936804
0000f0 3d 02 77 3f 1f 3a 65 bf cd 3e f5 04 35 b1 4a 3f
       -0.002591191321443169 0.000814581764567246
000100 63 61 12 fe df 33 68 bf 64 3f 91 22 71 a3 e4 3f
       -0.0029544234135522747 0.6449514079231276
000110 30 84 f5 53 d4 05 7d 3f 59 d7 20 ce 47 d5 6e bf
       0.007085637479890258 -0.0037638094372835326
000120 3c 85 fe a7 d9 44 34 3f 52 24 6f 47 66 0a 77 3f
       0.0003092795741342529 0.005625152137278171
000130 f2 35 d1 c5 a4 80 d8 3f 42 49 88 4d 8c 7a 67 bf
       0.38285178487862404 -0.0028660526552438956
000140 38 65 3b ff 72 fb 66 bf 73 03 a9 e1 83 e1 9b bf
       -0.0028054472003133067 -0.02722745957203494
000150 bc d2 f4 c4 2f 2b 94 bf cb 11 d1 46 fa 24 73 bf
       -0.01969599380136587 -0.004673936503483532
000160 ac fa a6 e4 46 ff 87 bf 1a f7 d4 90 88 c2 04 3f
       -0.011717370846665652 3.9596359878475536e-05
000170 40 3a 79 27 e9 58 70 bf 18 2d b8 76 ff e8 08 bf
       -0.003991041906898973 -4.7512336859590286e-05
000180 5a 94 c6 54 76 a2 c0 3f 9e e7 1c a7 b1 02 a0 bf
       0.12995795382917913 -0.03127055325462823
000190 a3 1b 5f 48 71 ba c8 bf b5 15 94 ac 97 bd e3 3f
       -0.1931897738815823 0.616893612925813
0001a0 a9 b0 94 95 18 c8 6d bf 61 c5 c6 3d 9d 8b bf 3f
       -0.0036354522859679173 0.12322409399236768
0001b0 29 5b 35 df 3d 9d 57 bf 1d 29 03 c5 d5 7e 6b bf
       -0.0014412979333735065 -0.0033563780963038596
0001c0 38 6f 12 8d de 7f a6 bf 9f 25 d0 4c cd 46 78 bf
       -0.04394431564398221 -0.005926897004436964
0001d0 75 d3 af a6 f2 9d e7 3f 92 14 78 0a a0 fd 4d 3f
       0.7380307441331825 0.0009152442407304332
0001e0 11 c1 90 c5 86 3e 93 bf c8 2a d0 ee d8 82 6c bf
       -0.018793206985891212 -0.0034803616495130175
0001f0 2e f3 a5 c6 22 ef 59 bf ae dd 25 a5 dd 12 03 bf
       -0.0015828933343009044 -3.6380185195857145e-05

fnw.layers.4.bias f8 [1]
000000 e6 47 f4 1c 03 1a d0 3f
       0.25158765628395796

fnb.layers.0.weight f8 [32, 1]
000000 92 0e 09 7c 5c f7 50 bf c0 b8 7e ad 62 1e bc bf
       -0.0010355380219530291 -0.10983864532201704
000010 2f 16 d8 08 56 a4 dc 3f 88 a3 f5 43 44 ca f1 bf
       0.447530277859502 -1.1118815092724805
000020 da 82 54 ad 89 f8 e8 3f 28 a2 3b 7c cf e9 d1 3f
       0.7803390870431841 0.2798956597530684
000030 6e 8f 65 a1 d0 ba e4 3f cf a7 a7 39 80 df f3 3f
       0.6478045608787235 1.2420656444687557
000040 7e d7 5f 0a ec b1 ae 3f 28 0e 37 da 73 13 ca 3f
       0.059951187387851754 0.20371864466697898
000050 fb e7 81 f6 55 5b e8 bf 97 cf 1a 2c f2 dd ee 3f
       -0.7611493887518458 0.9645930158062467
000060 8f 8e f5 da ac 37 d9 bf 5f 0d 8a 11 9d 07 dd bf
       -0.3940231455110074 -0.4535896941453838
000070 62 0d 28 50 a3 64 d3 bf d1 45 16 8b b2 5d 74 3f
       -0.30301745250490886 0.004972169337081182
000080 59 ad c9 da ae 36 e3 3f 5e e7 6f 1d 59 d0 da 3f
       0.6004251740645642 0.4189665591689983
000090 2a df 96 5f 24 fd df 3f 2b a6 93 f7 97 99 f1 bf
       0.4998255666246104 -1.0999984427420582
0000a0 3b 1b f0 57 41 4d f1 3f ba dd 86 25 36 38 71 3f
       1.08136114454983 0.004203998098481982
0000b0 7d 71 b0 a8 e7 90 de 3f 33 8b 92 71 9e c9 bf bf
       0.47759429429586203 -0.1241702105785805
0000c0 c3 c5 71 cd 89 0e e4 3f f1 1d 6b e9 35 49 ec 3f
       0.6267746937357334 0.883936839957583
0000d0 9a 0a e4 9f 6f 82 d0 bf 1f a6 07 b4 91 ad e3 bf
       -0.25796118368467946 -0.6149376407822195
0000e0 33 0d 80 86 0c 28 f4 3f cb 31 43 55 0a c0 b4 bf
       1.2597775701440923 -0.08105530339816551
0000f0 80 d0 b9 bb 6d 15 d7 bf 1f 24 6b f8 8b 38 d6 3f
       -0.36068290073968257 0.34720134029027067
