best_model_dk10_sinonly_synthetic.ckpt (torch, 158615 bytes, 26 tensors)

kernel.layers.0.weight f8 [32, 1]
0	0xbca196c7e6884c34	-1.2204811980377768e-16
1	0xbb2b4cc6e94b9fce	-1.1290978198491399e-23
2	0xbfeca704138b9010	-0.8953876859418433
3	0xbd02520b0a9184f4	-8.135927920974728e-15
4	0xbcfe240690003514	-6.692585404944106e-15
5	0x3fd26b93138bda90	0.28781582745379186
6	0x3fcbdb7af92636b5	0.21763550916187105
7	0x3fe2a01edbe58a4d	0.5820459647041588
8	0xba7299503031c17e	-3.75601386890861e-27
9	0xbb8bdb47757f2631	-7.373569805631508e-22
10	0xbb34819f71a2759d	-1.6962446196366425e-23
11	0xbfba5e2d3741ec3c	-0.10299952124653172
12	0xbfefde2408922703	-0.9958667914772551
13	0xbfe64a7520cc8723	-0.6965890541652907
14	0xbfd46b5ad1452970	-0.31905241428889664
15	0x3fcc9c812368527e	0.22352613667375815
16	0xbc5b27449a7ab20f	-5.887953006089147e-18
17	0x3fd43745a30d2292	0.31587353632907267
18	0xbfe118cd0a278109	-0.5342774580313129
19	0xbfd8c08ad9f7f2ad	-0.3867518547629441
20	0x3fd78db738adb1a4	0.3680246404171845
21	0x3fe8a2cfb2fe11e4	0.7698744293161863
22	0x3fc4cc30294a41d8	0.16248132721058428
23	0x3fe66c516d97d345	0.70072242169281
24	0xbaf8717b5678383d	-1.2636883834421692e-24
25	0xbbd509e46b7b3381	-1.7820422651741065e-20
26	0x3fedb656b6d34112	0.9285081454090991
27	0xbfee38963e4c79bc	-0.9444075791141624
28	0xbfe31bb91fcc372e	-0.5971341725396309
29	0x3fb7fc4cf1cc6345	0.09369355109482765
30	0xbfc264dedafac051	-0.14370332424505475
31	0x3fe51213acbb7c31	0.6584566472701053

kernel.layers.0.bias f8 [32]
0	0xbca1975d70205d90	-1.2206395269997105e-16
1	0xbb2b4fdc2d408bfb	-1.1295959163787859e-23
2	0xbfe4c8afe93af38c	-0.6494979434279329
3	0xbd025c2dafaaf9b1	-8.153509918841873e-15
4	0xbcfe241d6dc35734	-6.692662878842266e-15
5	0x3fe621add58c16ea	0.6916112109035712
6	0x3fce53bb6e27bd3a	0.23693030241654772
7	0x3fdcb89c8bad1b09	0.44876779213193224
8	0xba72a0678866c69f	-3.76160783122157e-27
9	0xbb8be6e772abccdb	-7.385589729327847e-22
10	0xbb3481cda03fac8b	-1.6963029096246195e-23
11	0xbfc6a5e8851f3387	-0.1769381189355068
12	0xbfe6a79312ebcc5a	-0.7079558724930266
13	0xbfe02f9befe35cb4	-0.5058116612734893
14	0x3fdf190ae8ee59b0	0.4859034800259918
15	0x3fcada88eec93b2b	0.20979415568805257
16	0xbc5ba80f18a3944c	-5.997043215848573e-18
17	0xbfc627c96565ab44	-0.17308919383079957
18	0x3fdc3f1595dae489	0.4413503611973018
19	0x3fe94eb9cb94b8bc	0.7908600784483251
20	0x3fd61b6b9e6faa13	0.3454236075619132
21	0x3fd69ffc2a0ade9c	0.353514710480775
22	0x3fc62efd41fc116a	0.1733089992704991
23	0xbfd89fdd097e5d5a	-0.38475728919134655
24	0xbaf871aa65c65aa8	-1.2637255070675425e-24
25	0xbbd50c8504a22f41	-1.7829115780386976e-20
26	0xbfe2050efdb13882	-0.5631174998213881
27	0xbfe1771d0c307efa	-0.5457902181696845
28	0x3fd43bb5ebc8bf31	0.31614444757268517
29	0x3fb4bd25909bb100	0.08101115017388238
30	0xbfc3feedacb9215b	-0.156217297875865
31	0x3fd69eed0d0b8bbd	0.3534500720399441

kernel.layers.2.weight f8 [64, 32]
0	0x3b71d268abfe941b	2.358710104666181e-22
1	0x3a0c1be812401500	4.4348197952662327e-29
2	0xbe91f80d2df61100	-2.6775823688147406e-07
3	0x3bc9ba00779c5aa4	1.0895626047948509e-20
4	0x3ba2f385c3418423	2.0065426810742865e-21
5	0xbe69bfb742dd1edd	-4.796104523127644e-08
6	0xbe7dd9ea0e405d00	-1.1120448878441526e-07
7	0x3e7fec75d94fb24e	1.1892495017902559e-07
8	0x39529dbb3d108ec7	1.4341351267459159e-32
9	0x3a677536c53135aa	2.3686392549072202e-27
10	0x3a143b4d92348d16	6.383983847798101e-29
11	0x3e44b1053818355c	9.635223954656108e-09
12	0xbe8f50831096970c	-2.333112052835783e-07
13	0xbe9458e2a9f9cf95	-3.031970354568469e-07
14	0x3e4e2dd54bd7b2d9	1.4053208703473173e-08
15	0xbe40bb125097f610	-7.790861750001054e-09
16	0x3b3ee882bafda19f	2.5566700856755512e-23
17	0xbe514645a2d470c8	-1.6088131872807105e-08
18	0x3e82636368c57823	1.370030314846124e-07
19	0xbe7d2acc18f943cd	-1.0865620069770783e-07
20	0x3e67e8d98c3b58bc	4.45350436786088e-08
21	0x3e811bf69d67fc3c	1.2747371043450808e-07
22	0xbe7b4f3864bf5b5f	-1.0173564496340503e-07
23	0xbe5e6d2d5c853f69	-2.8336861552818938e-08
24	0x39d7c550eea20b9f	4.687957030998895e-30
25	0x3ab2b371ca37caa6	6.042604472858867e-26
26	0xbe456446f43679b3	-9.961290131998826e-09
27	0xbe8349d62fbe7a93	-1.4370996115078764e-07
28	0x3e64e67d4522d4ad	3.8929933625204435e-08
29	0xbe60face23e20d84	-3.162717064719919e-08
30	0x3e2c06a44e015b4e	3.262649359051652e-09
31	0x3e7f1af58a86b264	1.1587630644486414e-07
32	0x3b5b0fc5a7afe45f	8.953935564053225e-23
33	0x39f9402817ad79ed	1.9919220452634007e-29
34	0x3e718247c64425b2	6.522576396021944e-08
35	0x3b68ea2d6cc16fed	1.648720225748155e-22
36	0xbbb3cbe02a6c4a44	-4.1920484822958176e-21
37	0xbe6eb4334cd27217	-5.7190484883623924e-08
38	0xbe42133e514c954f	-8.416906763207645e-09
39	0xbe47c44b272c5de1	-1.1067265525502509e-08
40	0x394284a5e5a4467f	7.132934380463291e-33
41	0x3a5411c2b592c1ce	1.013244616095952e-27
42	0x3a05095c2330f391	3.318984293048299e-29
43	0xbdef4cd2e0a9fb5b	-2.2773814807238916e-10
44	0x3e7372e010bcf59b	7.245217064924484e-08
45	0x3e6dd40b4250d8bd	5.5559532343241976e-08
46	0x3e71af1cca77f937	6.587815681161546e-08
47	0xbe4510a3bf8abe05	-9.809154364935956e-09
48	0x3b27bdb8991043ab	9.819087989225412e-24
49	0xbe5e8d8959e4c15b	-2.8454584127456127e-08
50	0x3e8597c9f37ccc93	1.6087983011891918e-07
51	0xbe9cc67ba2701010	-4.287857415243802e-07
52	0xbe4fea229f24ab6a	-1.4861389428612053e-08
53	0xbe2b0061e9163c37	-3.143387613305628e-09
54	0xbe39cf1c78095752	-6.009132636437662e-09
55	0xbe6fbaddc3f1692b	-5.9101630694226136e-08
56	0x39c62236ce57dd27	2.1825462759255815e-30
57	0x3aa04b933b1f42e7	2.6326340208450625e-26
58	0xbe72c6218d488953	-6.993841179155811e-08
59	0x3e76e2f750c32e1c	8.52591776650918e-08
60	0x3e782be19b194637	9.00455237259851e-08
61	0xbe35eda81b529573	-5.1055909961266315e-09
62	0x3dc618211b369711	4.0189216019052256e-11
63	0x3e2c658417314d09	3.3057931336273724e-09
64	0x3b661420d57d7829	1.4610409107344889e-22
65	0x39f793a446ab30f9	1.8598756944023204e-29
66	0x3e343c69758aaa98	4.7115572213383355e-09
67	0x3bba82401aa77f7f	5.613454768362411e-21
68	0x3bb0f11b603b7add	3.587570772970649e-21
69	0x3e2b4b3b802de3b7	3.177425435119507e-09
70	0x3e1b1162ec0328b1	1.575560057463578e-09
71	0x3e221ee1b63ec8b1	2.1095191582807385e-09
72	0x393f4745109d0e6b	6.024000254390954e-33
73	0x3a4f6ce61c665964	7.932882757084411e-28
74	0x3a01da9ff17dbf40	2.816865000220667e-29
75	0xbdbbf0e15eb4c83d	-2.5412135867070267e-11
76	0x3e369c3abc148c56	5.264364001393106e-09
77	0x3e30d3fda8592eeb	3.918094853399725e-09
78	0x3e403613337b6236	7.548942456746736e-09
79	0x3e0fe2b7cfbb72c2	9.27993598167191e-10
80	0x3b1bd5d3ce28dd50	5.7561975042101015e-24
81	0x3e09cea6c08ff25f	7.510893028401592e-10
82	0x3e4dd08756e360c5	1.3883488772187129e-08
83	0xbe5c2cae41bb77bf	-2.62395794943413e-08
84	0x3e173706bdd5e2a3	1.3512877408538066e-09
85	0x3e30108922fd1c1f	3.740329421030174e-09
86	0x3e13b9eaf57451d0	1.148218372654016e-09
87	0x3e1caa1c6f409639	1.6684932853821146e-09
88	0x39c033ec25d8f539	1.597721611655834e-30
89	0x3a96c7c7e6eedc06	1.8401855736773704e-26
90	0x3e1a5b506d08704f	1.5341616207731463e-09
91	0x3e3d251d768eacc4	6.785844643937884e-09
92	0x3e49ef8f6a7c0811	1.2077289681791617e-08
93	0x3dff5fe50bd05a15	4.5656035533257976e-10
94	0xbda9dd0ceca8e382	-1.176134831507051e-11
95	0x3e2a2e402f83d954	3.0478307621805903e-09
96	0x3b721c2a67d87181	2.396841462393336e-22
97	0x3a11fd22986f6592	5.676267303129737e-29
98	0xbe77c43bf60fe366	-8.853726064785041e-08
99	0x3bd24f559eaf3be8	1.5509088734915498e-20
100	0x3bca801771e2848d	1.1223338059993208e-20
101	0xbe69921b363869d7	-4.762919194826909e-08
102	0xbe74b24366f7ec27	-7.709987825253942e-08
103	0x3e6148ae3e2d250b	3.219378876554951e-08
104	0x395690ba42e2d74f	1.7383707238846324e-32
105	0x3a5a0d547b1c3ea7	1.3152934259475398e-27
106	0x3a1a3b6c69965ef2	8.277398515961586e-29
107	0x3e380103f92b9eb7	5.5888590584694884e-09
108	0xbe70da69edb730cd	-6.278298363761889e-08
109	0xbe7f823bc03cb6ba	-1.1737914467894477e-07
110	0x3e6bb557769a9c63	5.161085321380696e-08
111	0xbe4ae39ff62a3990	-1.2521240660005618e-08
112	0x3b2c74ea4ed8e237	1.1769415374622099e-23
113	0xbe5a7383974c610b	-2.4634624523531587e-08
114	0x3e8746e7b2327da6	1.7342696265620005e-07
115	0xbe85d32faba32aba	-1.6260852026544846e-07
116	0x3e41ba487061bdb0	8.25508862328241e-09
117	0x3e63d4d32c6dffaa	3.693876276297052e-08
118	0xbe72b2d1086506de	-6.96573484214893e-08
119	0xbe658213477b01fc	-4.0061970572102704e-08
120	0x39d49d4441b566ef	4.065458329070072e-30
121	0x3aa50aa4663cda78	3.3994491441435433e-26
122	0xbe557c4d2ae13d06	-2.000998005512663e-08
123	0xbe30c86180eb3640	-3.907535641151046e-09
124	0x3e814616a4ca7b62	1.2869971257198694e-07
125	0xbe59518813dcabe3	-2.3579674427565022e-08
126	0x3e2170ffb2b5c3f4	2.0304463854011e-09
127	0x3e62a7b880c5fdf3	3.4747941498981106e-08
128	0x3c126280cf552347	2.491602028726887e-19
129	0x3aa00b1fe5b3210a	2.5919600230222223e-26
130	0xbf490d1e7a5480fc	-0.0007645033662449226
131	0x3c70f0ccb36e1130	1.4693648631008943e-17
132	0x3c6b40021c464b6d	1.1817817645862779e-17
133	0x3f9755fc147f8e7d	0.022788943053355205
134	0xbf684444e7828911	-0.0029622407710842087
135	0xbf1f72503a97d9bc	-0.00011995901754589025
136	0x39e5c743cc8acacd	8.590055602312179e-30
137	0x3aff738d15cc8e12	1.6259977984323208e-24
138	0x3aa81488d5a52389	3.8903682190377947e-26
139	0x3ef9de12ff0a5b5f	2.4669148788260413e-05
140	0xbf5e09a735d9ec39	-0.00183335618149162
141	0x3f6e6ef8cb71bc86	0.003715024878651332
142	0xbf89ede9d6c37a1a	-0.01266081511169852
143	0xbf6a5e6b4bafa88c	-0.003218850671591394
144	0x3bcf427a14617c69	1.3238987444303833e-20
145	0xbf305fd609a21f61	-0.00024985290077283144
146	0x3f911e29d2cf82e2	0.016716626636369088
147	0xbf7cfd735aefc5a2	-0.007077646833736935
148	0xbf6960f01145b294	-0.003097981340195519
149	0xbf6b6f79004927e2	-0.0033490527442028165
150	0xbf65412e832e0777	-0.0025945576139187426
151	0xbf42465183c1602e	-0.0005576990147444555
152	0x3a6c34faef6a3b91	2.8481744947631756e-27
153	0x3b47d8059be2ff70	3.9446317050483754e-23
154	0xbf417ed8e76e54fd	-0.000533920202416965
155	0xbf86c0f213c943e2	-0.011110202053858435
156	0x3f86a9253f21441a	0.011064806927750626
157	0xbf59423cb9206d47	-0.0015416710853120728
158	0x3ef9cca586049ba3	2.460422581509646e-05
159	0xbf5efab58dfd3dc3	-0.0018908284182151825
160	0x3b75f1cd76dab8a7	2.9043358697427713e-22
161	0x3a00a9141079921d	2.6285574912773903e-29
162	0x3e199085668fc1b8	1.4880518156621866e-09
163	0x3bd2e366be66345c	1.5999000978581708e-20
164	0x3bc7c208b5cebe20	1.0061881259352078e-20
165	0x3e6a9f7c8375c0ce	4.9589190027618326e-08
166	0x3e636b2d8813b57c	3.6170079384610696e-08
167	0x3e778d03f73233f2	8.773372233064183e-08
168	0x39474c0659807f2e	8.973667154323582e-33
169	0x3a63a53c0c7f5761	1.983683266031718e-27
170	0x3a094368f3fb106a	3.985849129389149e-29
171	0xbdf0ae0fb5501429	-2.4272488646851604e-10
172	0x3e00bb3184c0ef27	4.869427166238359e-10
173	0x3e2f72b3cd946d23	3.6610355690066424e-09
174	0xbe25410ac63babda	-2.474299475260032e-09
175	0x3e5fb96a2fa84aec	2.9545534888508374e-08
176	0x3b352d100a3e3086	1.751639815907099e-23
177	0x3e37f609ee4d46c0	5.5788757822009095e-09
178	0xbe7a6a301a6fed9b	-9.840278512856389e-08
179	0x3e9eb228b7823d99	4.5740505739355833e-07
180	0x3e6ef7b2c9dab100	5.76815974822357e-08
181	0x3e774cd2cb6b2776	8.679960470793688e-08
182	0x3e5a2a7345b5f6b8	2.4368820167919074e-08
183	0x3e4648ac4b408895	1.0376739779995983e-08
184	0x39d015fff9692b8d	3.1723917269392254e-30
185	0x3aad60ee9446eee4	4.746375348964233e-26
186	0x3e4546dc52fd5fd3	9.907781789157505e-09
187	0x3e3575ea29de07a7	4.996686312865099e-09
188	0x3ea3436419669de5	5.740894717846721e-07
189	0x3e45021446089bb3	9.782669064640364e-09
190	0xbde800da45af6168	-1.7464721582342512e-10
191	0x3e74e7a09fb49899	7.787642879574307e-08
192	0x3ca1bd0981f8c960	1.2308505829856853e-16
193	0x3b2cf535258f5ef1	1.197668282649643e-23
194	0xbfd38c1fb0025577	-0.30542747677221577
195	0x3d008b4a1d1c95dc	7.347056134845821e-15
196	0x3d000fcc79f64b85	7.13283379582021e-15
197	0x3fc4e0bd3c62c023	0.1631084961750285
198	0x3fc0b3af9b0eeaf6	0.13048358031468127
199	0x3fc13f20c2dc4a88	0.1347390128581376
200	0x3a73adbc11f69d23	3.9740719155512906e-27
201	0x3b8d141ecbcf4fe2	7.697039984392831e-22
202	0x3b359557be4ce9a1	1.7853345306429733e-23
203	0x3f5a63b8a2571b76	0.0016106894557752194
204	0xbfc2bb1e0631b0fd	-0.1463353662724173
205	0xbfcad4c44016de82	-0.20961812142717312
206	0xbfa3740a4345a3e2	-0.03799469062034412
207	0xbfa8c8b04bd1e6d0	-0.04840613294159157
208	0x3c5687955663a880	4.885333123016033e-18
209	0xbfa1e0ee23d903ab	-0.034919206500951226
210	0xbfae893f68566146	-0.05964086674356621
211	0xbfbb118575dd183f	-0.1057361042740874
212	0x3fc7dd32d9ed6972	0.1864379467104516
213	0xbfc1d2328b29bc37	-0.1392272166735624
214	0x3f94e8de83f7ac1d	0.02041957550492778
215	0xbfbb56ca17887a79	-0.10679305147685082
216	0x3af9cfa391e8d2e4	1.3344020581493902e-24
217	0x3bd5ff0d91ddf5f3	1.8631591502609558e-20
218	0xbfcf9a547c5021fd	-0.24689727849933255
219	0xbfb09f748b6edb11	-0.06493309406401361
220	0x3f9ce35ca14a0924	0.028211066574393887
221	0x3fc336987c65e5eb	0.15010362695811294
222	0xbf6955f4b46d44ea	-0.003092744769141666
223	0x3fa06918c15bc640	0.03205182419140984
224	0x3bf7a3be67352d63	8.009416179734183e-20
225	0x3a849adf215fb7c6	8.322279975326914e-27
226	0x3ed8fb034f2cc820	5.955819903745815e-06
227	0x3c55c7ead119bd05	4.722985624557217e-18
228	0x3c518131e4fbe9a0	3.7957197235958484e-18
229	0xbf4851f5745e7e54	-0.000742192126143191
230	0xbf544fb32df24e38	-0.0012397050666422948
231	0xbf65d4eb9c77ac42	-0.0026650049000998275
232	0x39cbfa801d767d2b	2.7588948185017688e-30
233	0x3ae436ba3cca7cf8	5.225139471500341e-25
234	0x3a8eef0c98ff254d	1.249405665586093e-26
235	0x3ee05ab8948b3a2a	7.798375592752116e-06
236	0xbf4baa110ee62cfa	-0.0008442481319418653
237	0x3f4d73204d564447	0.0008987338757596796
238	0xbf985d411211d902	-0.023793236472976716
239	0xbf53e0aad145c68a	-0.0012132328166355754
240	0x3bb416cc18a6d229	4.254022180445791e-21
241	0xbf142796c4dd207b	-7.688386650983759e-05
242	0x3f72b4af534d64dd	0.004566845764963659
243	0x3f99f71957b8c2f5	0.025356670359715634
244	0xbf5fe08d57fa47c2	-0.001945627242012624
245	0xbf677956e86dfd43	-0.0028654763622736625
246	0xbf4eabb5fbfd06a0	-0.0009359968753203836
247	0xbf2677e182e01ed5	-0.0001714194090143203
248	0x3a521f3812e994d4	9.149246325733381e-28
249	0x3b2ea51d83a8dff2	1.2674467326779092e-23
250	0xbf24edb24b94c987	-0.0001596717973285195
251	0x3f70197c7502f7da	0.003930555496649968
252	0xbf9d7c6d3bd9de9b	-0.028794962671297424
253	0xbf3f47ae1ee00019	-0.0004772949313291988
254	0x3ee07e4c7c2a37a3	7.864644321810813e-06
255	0xbf66068f5b18c6c4	-0.00268867491902189

kernel.layers.2.bias f8 [64]
0	0x3e51bee0a9a4b966	1.6526892390370193e-08
1	0x3e8343fbf18148ba	1.4353963062819373e-07
2	0xbe3f7d6810ea2bde	-7.331806507953229e-09
3	0xbe75d2b22a72f88d	-8.129712601980923e-08
4	0xbfb031105e0f1da3	-0.06324865623820712
5	0xbeb153334c740ec3	-1.0326505604515654e-06
6	0x3fc92c7f46784348	0.19667044583231985
7	0xbf7950f13e94f13f	-0.006180708275959567
8	0xbf27c85fe458a173	-0.0001814477019916983
9	0x3fa3d4e116faf174	0.038733514838415056
10	0xbeac81b279c08c5e	-8.49563764674851e-07
11	0xbe9129eb6b7d19ee	-2.5575978267571467e-07
12	0xbf90edf1584bb418	-0.016532679571287984
13	0xbeb029f77157dd07	-9.634454206633917e-07
14	0x3f9c4fccfdb4225f	0.02764816568836392
15	0xbeba3918bab9c28d	-1.563014602103951e-06
16	0xbe2c88f938cc5407	-3.321917357844131e-09
17	0xbf795a7c6182b17b	-0.006189809668438402
18	0xbe4f3b1becc1a47c	-1.4543018699198387e-08
19	0xbec94f599c299a2e	-3.017182480125121e-06
20	0xbf398a71eeed6567	-0.0003897216947073762
21	0x3ea447a4b4677373	6.043868346312304e-07
22	0xbf8e50224db8e5cf	-0.014801280972380674
23	0xbf3280f98bd78ade	-0.00028234569967204397
24	0x3fbb2a017c922a0c	0.1061097077492052
25	0xbf90feea09801132	-0.01659742053017616
26	0x3fc2fee10a0ca698	0.1484032916135234
27	0xbe491cb5a899342f	-1.1693754647891588e-08
28	0xbfaa8822b7cbcfde	-0.051819882331898034
29	0x3ee1e71f627666c4	8.536731072084239e-06
30	0xbfc5caffd385af19	-0.1702575476477868
31	0xbf9d012973f86efb	-0.02832474489524282
32	0xbfb088838dbea947	-0.06458303652349172
33	0xbf75c76d89d3e640	-0.0053171423762648495
34	0xbf927712d82146ee	-0.01803235477593195
35	0xbee1b3b678bea002	-8.440972827220009e-06
36	0xbf16c7e8488cb9ac	-8.69021915945514e-05
37	0xbed62aea715685a0	-5.285177186038602e-06
38	0x3e2223d422f05f18	2.11176878025348e-09
39	0x3f1294aeadfb6fc8	7.088009032990485e-05
40	0x3fb29336550d3f23	0.07255878044565782
41	0xbe9763ec0e5a8e19	-3.4854293882500785e-07
42	0xbf8fec196aaadb2b	-0.015587042396288794
43	0xbe52e3f66f56eea9	-1.759312958313659e-08
44	0x3fac42de36064a46	0.05519766244392037
45	0xbec31fc0f1707abd	-2.2797629628667894e-06
46	0xbeb57de059df6d2b	-1.281005416845316e-06
47	0xbeb45c1a20381617	-1.213537076051406e-06
48	0x3fa6d34fd45d9135	0.04458093135216005
49	0xbf96983aadd9a809	-0.022065083371138914
50	0xbf83f59e386f2fcb	-0.009745822999228345
51	0xbe7d180a83496112	-1.0838326220655446e-07
52	0xbf97038a975d626c	-0.022474446762631592
53	0xbea7d3ca740441ff	-7.101091128742923e-07
54	0xbf10c1034395f8c6	-6.391127035063328e-05
55	0xbe4ac005b53d02aa	-1.2456479992992761e-08
56	0xbf57e1e922b58f94	-0.0014576698984791513
57	0x3e4e7d56f4e781ae	1.4197830158888605e-08
58	0xbfc07cfaeeab4175	-0.12881409314878636
59	0xbf82a90a2c6a6652	-0.009111480217416066
60	0x3fc58c4f6544de19	0.1683444256284339
61	0xbec6e92a537edb3e	-2.731180440886283e-06
62	0xbeb83d7b40bef8b4	-1.4448262417445165e-06
63	0xbed2de17217e58f6	-4.498372184877225e-06

kernel.layers.4.weight f8 [1, 64]
0	0x3e752d4a3710fa2b	7.889015109315106e-08
1	0xbe5ca3030385401d	-2.667006546278103e-08
2	0xbe01a9206b2067dc	-5.139925900291428e-10
3	0xbe680ecbd16a941f	-4.481113984503822e-08
4	0xbf8584ba43cfad1b	-0.010507064051088968
5	0xbe7f435887339c76	-1.1646400981426689e-07
6	0xbfb0f77b160ab863	-0.06627625740176905
7	0xbf6bb63071bf5244	-0.003382773034881022
8	0xbef21d9b2921abf2	-1.7276428998885076e-05
9	0x3fb4643917dc7dbb	0.07965428192664252
10	0xbe4409c6e00129ed	-9.331009742778617e-09
11	0xbeb43691125bd088	-1.204797692219908e-06
12	0xbf707e393f22e5d1	-0.004026626224168565
13	0xbe8403a3988c71d5	-1.4911752212958793e-07
14	0xbf8cbabcb57ca7e1	-0.01402804783682038
15	0xbec0046c7218ef73	-1.9094085395281276e-06
16	0xbe67c8e536007707	-4.430254452201423e-08
17	0xbf55d692826927e8	-0.0013328963047052281
18	0x3de16e899aea5949	1.2683294471775613e-10
19	0xbed7e5fe2b15edfc	-5.697824847823975e-06
20	0xbf2e5468c12643df	-0.00023139742604574764
21	0xbe6c4b706da168b9	-5.2702956402417754e-08
22	0x3f7ca7fd51b2c39d	0.0069961447981520515
23	0xbf3195b7466ca0e6	-0.000268323178192377
24	0x3fa5c46710cacf14	0.04251405792220289
25	0xbf5035c4c449d281	-0.0009893819380099313
26	0x3fbd70d97e92a185	0.11500319805293742
27	0xbe0c6559244c4ecf	-8.264292103052308e-10
28	0xbf7a3f80a707d223	-0.006408216999706204
29	0xbef249b291e64ba3	-1.7440682421442467e-05
30	0xbfb8ccee006d9efd	-0.0968769789739063
31	0xbf8c5ffaa0d7980a	-0.01385494044638948
32	0xbfad74e63c1bc187	-0.05753249629731543
33	0xbfabe2f28c1355c5	-0.054465846633017935
34	0xbf838b0f487f16d8	-0.009542579078594057
35	0xbef1ab00ef116f7e	-1.6849501609391807e-05
36	0xbf100b072e202bd5	-6.119948696452157e-05
37	0x3e7882136d49d7b7	9.12998204346422e-08
38	0xbd9a386650b95740	-5.961808530630374e-12
39	0xbf164d44104b6a59	-8.507469108157954e-05
40	0x3fa27cd7a7a04695	0.036108721935432055
41	0xbea7cd7cf9ed1709	-7.09375388521019e-07
42	0xbf99741a6317941d	-0.024856960580923116
43	0xbe19e1e1b65ec202	-1.5065510726793984e-09
44	0x3fbc8078c518f343	0.11133532344770196
45	0xbea5f8fb9f41dbd9	-6.548341944374785e-07
46	0xbe6ec498874ac95b	-5.730977728958641e-08
47	0xbe99b8c8ef8a7d01	-3.8328492694447816e-07
48	0xbfaa3afe72ae3ec7	-0.05123133802328322
49	0xbf9ba84f2ba705c2	-0.02700923637326525
50	0xbf71c913d83116bd	-0.004342153089117393
51	0xbe527ceabe509a81	-1.721825161975818e-08
52	0xbf646074bfe0e41b	-0.002487400080124503
53	0x3e0de7dfd34bd152	8.703721411931811e-10
54	0xbeb548ceb3737c8f	-1.2686493400732934e-06
55	0x3dc5a5a73d7ce742	3.937581483612684e-11
56	0xbf3d8281ab90f494	-0.0004502836778249111
57	0xbe1b714c17487ee9	-1.5973676523283828e-09
58	0xbfb177bb89b78889	-0.06823322403173128
59	0xbf6544166091ba1f	-0.002595943170084838
60	0x3fb5668f657a794f	0.08359619357586222
61	0xbecc330e9413f6cf	-3.3616353510835832e-06
62	0xbebe9f3bfa4a822a	-1.8252139650025208e-06
63	0xbe693a307b212100	-4.69895121845598e-08

kernel.layers.4.bias f8 [1]
0	0x3fa955b5e8a76e67	0.04948204484000201

fnw.layers.0.weight f8 [32, 1]
0	0x3fcfb8525f720042	0.24781255398193208
1	0xbfdb266d60817f41	-0.4242204134406969
2	0xbfa8492653a21c1b	-0.04743308802522269
3	0xbfc3defb14212958	-0.1552423332489734
4	0xbfeb7d7981664812	-0.8590667273840629
5	0xbfda0c84ac34b0de	-0.40701405350661257
6	0x3ff0ccb5a220a367	1.0499779065232475
7	0x3fe5cdc567096d0b	0.6813685429036992
8	0x3fe0cb18ab4d626a	0.5247920366046632
9	0xbfb500faa7eb9969	-0.08204619025818762
10	0xbfb2c83a7cd12946	-0.07336774394312781
11	0x3fdbb5f6ec11e2f4	0.43298123410890743
12	0xbfe314a4dd1cd96e	-0.5962700193984298
13	0xbfe3ad3559b1203d	-0.6148936034960638
14	0x3fec65c37d1ad1f5	0.8874223178341355
15	0x3fbff8a104ad9129	0.12488752712448971
16	0xbfec2c5cc0b95c67	-0.8804153217451017
17	0x3fea3cd91912e9b1	0.819927739117068
18	0x3fd101510074fb08	0.26570534748673014
19	0x3fe050403e595113	0.5097962587119887
20	0xbff0d2cb2fcaecd7	-1.0514633051778242
21	0x3fd4d5bf51c2b0fd	0.32554610237527
22	0x3fdb427cf7eac4e9	0.4259331151070698
23	0xbfcfe192172fbcde	-0.2490713704314435
24	0xbfe7c7d6327cbbb2	-0.7431441293791663
25	0x3fed19f749526a37	0.9094196731633194
26	0x3fe2555ae41488cb	0.5729193167392393
27	0x3fd4412ba09d34a7	0.3164776867386742
28	0x3fcd3b26bc3ef1a1	0.22836765472119416
29	0x3fbe4f1298a47b8e	0.11839405275939738
30	0x3fd844cfeaac49b6	0.37919996182713633
31	0xbfd6fe2a7c44835f	-0.359263059001071

fnw.layers.0.bias f8 [32]
0	0xbfd02f3d6623b051	-0.25288329100181267
1	0x3fc3211111eb8669	0.1494466149807068
2	0x3fc3a494fbf00403	0.1534601431049226
3	0x3fd237a7616b9d16	0.28464684022624576
4	0xbfdba017cefa3c0e	-0.43164630139011784
5	0xbfd1f999d5ef206f	-0.2808594311904988
6	0xbfbe485320b885e6	-0.11829108761641968
7	0x3fb5adf1b0e61609	0.08468542641465872
8	0xbfe0cb18ab644c1a	-0.5247920367713761
9	0xbfe89ecd66a8e667	-0.7693850522111462
10	0x3fc223680d82e356	0.14170551929216896
11	0xbfdbb5f6ec09e951	-0.43298123407989403
12	0xbfd9ea29834a47a7	-0.4049171239977291
13	0x3fca407d5b972931	0.20509306881133108
14	0xbfb000e7edcebb35	-0.06251382404182666
15	0x3fe35a1f30b3acd9	0.6047512007911805
16	0x3fad292275d00e13	0.056954457169947535
17	0x3fbb7ac97550941d	0.10734233011369594
18	0xbfbe6854dfa8d728	-0.11877947292745417
19	0x3f6a856fcce90eae	0.0032374557115718216
20	0x3fd86b9cec512a9a	0.38156817510449914
21	0x3fe6456c67df78e0	0.6959745434540103
22	0xbfe44e1779c44018	-0.6345326784376111
23	0xbfdf592fa4042213	-0.48981848733140615
24	0xbfee2ca8a3aa8a5c	-0.9429515072445827
25	0xbfd9e364289465f0	-0.4045038601194326
26	0x3fe8b1a19da8e8fd	0.7716835097592419
27	0xbfe0cbc03d819a0e	-0.5248719407362061
28	0xbfe2e72180f5f779	-0.590714218021943
29	0x3fe0531081507f05	0.5101397061989422
30	0xbfd844cfeaee71c8	-0.37919996206781237
31	0x3fdf511e5bf1a52b	0.4893260858430774

fnw.layers.2.weight f8 [64, 32]
0	0x3f235ddd8b5bff78	0.00014775590323523233
1	0xbf7334b21bce0d1f	-0.00468892644574062
2	0x3f84ba0693646d52	0.010120440838867015
3	0xbfb918e22414437c	-0.09803593998755206
4	0x3fa1492dcb350f80	0.03376143556172817
5	0xbf845cde57d279f6	-0.009942757659072914
6	0x3f8f7053f6e3cd79	0.015350967380504997
7	0xbf814236d6dfda06	-0.008427074844786563
8	0x3f25189def85e7a5	0.0001609509270215612
9	0xbf46b155a84074fc	-0.0006925266502581236
10	0xbfa271f159607df1	-0.03602556434656979
11	0x3f23523e2810eb38	0.0001474095224994422
12	0xbf890f24fbd05b78	-0.012235917029142604
13	0x3fa61052302d4a03	0.04309326971146634
14	0xbf83205ed493a1bc	-0.009339085447621957
15	0xbfc24206da330ecd	-0.14263997701902156
16	0xbfa846a642cb9aa1	-0.047414012578703486
17	0xbf944b022cfb7e6d	-0.019817384715564424
18	0xbf958964b5116118	-0.021031926681048224
19	0xbf8d5d72a771679e	-0.014338393912271926
20	0xbf78fe946fdb86cc	-0.00610216124707259
21	0xbf8b1340763b91f3	-0.013220313652205972
22	0xbeeaa978c11d82f4	-1.2713431747081342e-05
23	0xbf4706120ca2d9f6	-0.0007026279575004779
24	0xbf4f2696bad2b53b	-0.0009506450639002248
25	0xbfa65324be2a0e14	-0.04360308476773525
26	0xbf7d7e8b62747871	-0.007200760336926946
27	0xbf13471a11cdc672	-7.353874793893949e-05
28	0xbf2f52e0931d1f30	-0.00023898116483622158
29	0xbfafb8a78bfa162d	-0.06195567687704471
30	0x3f24948a07689c77	0.00015701470302184928
31	0xbf870064cb0f625a	-0.011231219717886255
32	0xbe744d2a0b4b75cd	-7.562869337335659e-08
33	0x3ee321825ff7179e	9.122321897768987e-06
34	0x3edc4de766b69f2c	6.748273885838305e-06
35	0x3ef0882b4cf1bb06	1.576605864922044e-05
36	0x3ed218e474773003	4.314717279862298e-06
37	0x3e9a962cce943ebd	3.9617152809786155e-07
38	0x3ef7f9d1a17675ba	2.2865157090037307e-05
39	0x3ef99d01c8af01dc	2.442675444647319e-05
40	0xbe8545ecc3b7b030	-1.5849727384666153e-07
41	0xbe8d7eabcc0d1a50	-2.1975345101451837e-07
42	0x3ed93966d2caf282	6.013923933675796e-06
43	0xbe81803b448634b6	-1.3039189840046897e-07
44	0x3ea4524a4b48c67e	6.05626289179424e-07
45	0x3eef8dc6cfa4a4cc	1.5046031411519027e-05
46	0x3ef6d86c4e32c1ac	2.1787073717306822e-05
47	0x3f122ab5add0d16f	6.930097465913052e-05
48	0x3eef3c4a7052b6f8	1.4894252226528817e-05
49	0x3f019f6643983af5	3.361254534805194e-05
50	0x3e813740b8326675	1.2826793858028468e-07
51	0x3ee840f2966960f6	1.156506614312422e-05
52	0x3f0434d26b83f67e	3.854052687478087e-05
53	0x3f36e07f4028b74e	0.00034907442764874487
54	0xbe89499103f2bd10	-1.8840558089125875e-07
55	0xbe8224f7b876e83b	-1.351863512086742e-07
56	0xbe91c2d4ddb79416	-2.646604266561633e-07
57	0x3eb908e3a96a9b34	1.4921858217193698e-06
58	0x3f20eb5a8a9e689d	0.00012908439867659753
59	0xbe84c1027960f142	-1.5462893249326428e-07
60	0xbe871a93ece7dfae	-1.7213687049355856e-07
61	0x3f0777c552340fb9	4.476138044576202e-05
62	0xbe7e9a3aab132308	-1.1400303880354585e-07
63	0x3f034efb78381f11	3.682808803878561e-05
64	0x3f00b0addec44cc9	3.183394059838027e-05
65	0xbfb281820fdf09b9	-0.07228863608819482
66	0x3faf9c6a55a584ed	0.06174022956361989
67	0x3fa9825311486526	0.049822421893802635
68	0xbfbc4ad99105292c	-0.11051711836367833
69	0xbf519db95fb65d9d	-0.001075202016044808
70	0x3fb8f810ca1e4bc7	0.09753518042116048
71	0x3fc1380a98ebfcbc	0.13452274767766947
72	0x3f0aade29d533d40	5.088661024787522e-05
73	0xbf127cbbc83565a3	-7.05232251240391e-05
74	0xbf82cf67a5dd98f2	-0.009184655904118409
75	0x3f08ff8003715101	4.767999092139715e-05
76	0xbf5c913ab7571de3	-0.0017436097526671794
77	0xbf9473f09f680d6b	-0.019973525742910263
78	0xbfb1ee3ea7c1efcc	-0.07004157634395297
79	0xbf94ec634d6bd975	-0.020432998276157705
80	0xbf94a658aa82450b	-0.020165810973201064
81	0x3fa0e1fa4941a21b	0.0329740728782932
82	0xbf9015f56753b7fe	-0.015708765441495125
83	0xbfaad1d927bfbecd	-0.052382265188382605
84	0x3f82b7674ac48a12	0.00913887688563356
85	0x3f9dd86e5426d0c5	0.029145931135375464
86	0x3ef97b48c50dfcab	2.4301127556022758e-05
87	0xbf120d536ba4642e	-6.886312158761794e-05
88	0xbf29b24c8cd409a0	-0.00019604858827200217
89	0xbfc09cf9189e5f69	-0.1297904367645473
90	0xbfa0aad1fe36e162	-0.03255325535013999
91	0x3ef69bc4476ca4e1	2.1561111192590423e-05
92	0x3eaf2a92c2321a74	9.288281756094039e-07
93	0xbfa27d07ccd41dd6	-0.036110156777848054
94	0x3f073dc985f78ff3	4.432936907131082e-05
95	0x3f48736c93b9d786	0.0007461815034292974
96	0x3f9c08bb06311d99	0.027377054455681813
97	0xbfab699bc5980d87	-0.05354010378871537
98	0xbfcc1d73ff9e87f7	-0.21964883786591802
99	0xbfc809d5684269df	-0.18780009833137876
100	0x3fae3fe2ed3106d4	0.05908116479305439
101	0xbfa421710e44a5ea	-0.03931763934299311
102	0x3fd04b08e6e4f993	0.2545797591045808
103	0x3facaa98a3288c43	0.055989046017451936
104	0x3f53b243c1da7353	0.0012021695796768552
105	0x3fb0818fa44f9372	0.06447694550986485
106	0xbfc78f21aeea328d	-0.18405552902949687
107	0x3f80768531fd572f	0.008038559520780445
108	0x3fbc77e4902b072c	0.11120441932419273
109	0xbfb77797c601dc16	-0.09166859230195742
110	0x3fc362ad5d5acd8e	0.1514488893350116
111	0xbf8e28f10d7cff0d	-0.014726527427796588
112	0xbf90c436e9782d08	-0.016373498916476797
113	0xbfbcefb29b11fb1d	-0.11303249631781083
114	0x3fbd07d91e0e33de	0.11340100272919026
115	0x3fc1628188374348	0.1358186640850596
116	0x3fa2e7d6d1ae343a	0.03692504224373079
117	0xbfc502182e8e8337	-0.16412641785884727
118	0xbf63b342c4fa89f0	-0.0024048141566066425
119	0x3f8b31b93dc56b5c	0.013278433988195885
120	0xbf596adc5c6491ee	-0.0015513565027244175
121	0x3fc3092cb544a3af	0.14871748782141256
122	0x3fa5ce0b4291fd0e	0.042587615848782887
123	0x3fa7b80896b689a1	0.04632593955763587
124	0x3fb784cdcd328a40	0.0918701768846768
125	0x3fc2ba6ab2b671cb	0.14631398893551614
126	0x3fb616ddb31a2bc6	0.08628640768635795
127	0x3fb4084dc1c22261	0.07825170498302604
128	0x3eb7e518aa773322	1.4242474807191171e-06
129	0x3efe2a195a9e4a06	2.876706063365856e-05
130	0xbf07460f1fb93e3e	-4.4390999360485465e-05
131	0x3f0f18b50d84c1a3	5.931189088171091e-05
132	0xbe84432818a1a35e	-1.5096612699112512e-07
133	0xbec21c4ebdc8ca14	-2.158948957630951e-06
134	0xbf6fac14815c0244	-0.003866233872827503
135	0xbf766ca1494491c2	-0.005474691414097456
136	0x3ec8163681c47643	2.8713666450203557e-06
137	0xbea370e86d6bedec	-5.793883371680393e-07
138	0xbef3a00fca8d35ea	-1.8716088251926744e-05
139	0x3ec47855dd69fd31	2.4402213328330876e-06
140	0xbeb7960a3e1085b7	-1.405840741826624e-06
141	0x3f0e0790b899620d	5.727682498663312e-05
142	0x3f5ebf695cb0e6e4	0.0018766907621867107
143	0xbf67f9f1fda5b405	-0.0029268003829003874
144	0x3efe32d5166ad098	2.8799594839327107e-05
145	0x3f796a5c1672bd8b	0.006204948155910893
146	0xbf1c2760430c3c4f	-0.00010739827190441138
147	0xbf524b06f3b470bc	-0.0011165206804611269
148	0x3f21ea407959c948	0.0001366809562344895
149	0x3fa0af8f98e1eef7	0.03258942357294175
150	0x3e9f5c7f59aad01f	4.6732005791060354e-07
151	0xbeb02a0d1d0ae570	-9.63465130050748e-07
152	0x3ec12901d3daac07	2.0456533594468413e-06
153	0xbf4f4f1890479096	-0.0009554738940633796
154	0xbf881a9f4218f159	-0.01176952763045651
155	0x3e87e1fbce9b76d5	1.7794034273034586e-07
156	0xbe9e804794aa2df0	-4.5450169198414465e-07
157	0x3f60e95b944da95a	0.0020643986376189085
158	0x3ec24008ae85b7c6	2.1755853262727627e-06
159	0xbf0e488da71efe96	-5.776102342691413e-05
160	0x3ef3e184180c894c	1.89599245487085e-05
161	0x3f5fff336bf4281e	0.0019529344716056117
162	0xbf59b15e06fe353e	-0.001568166564513376
163	0xbf78ef4aafcd1381	-0.0060875813913455765
164	0x3f1f71996f992a04	0.00011994837759591459
165	0x3f0a6ebb487db7a1	5.041607897636404e-05
166	0x3f11ca6ea1d9ddc8	6.786632772014863e-05
167	0xbf284e46a5d95613	-0.0001854382743881477
168	0x3f06d2d58be7e6a1	4.3532506868571416e-05
169	0x3f0f3f0e5cbec167	5.9597612192321615e-05
170	0xbf5656a5c18994b6	-0.001363431807612598
171	0x3f025dd315b5e70a	3.5031322762569815e-05
172	0x3f12bbb19d4ed961	7.146140644818034e-05
173	0xbf602bbffa94e739	-0.001973986586247725
174	0x3f0d984442760b42	5.6447585218519325e-05
175	0xbf9819958dcc8ddb	-0.02353509595844892
176	0xbf90b6d17f4a0d27	-0.016322396654243534
177	0xbf27ce83e94b7727	-0.00018163070912796087
178	0x3edaa498c1c6e72e	6.3521756853925385e-06
179	0xbf11616258e61624	-6.630099071543903e-05
180	0xbf786450bc0cb1b0	-0.0059550431913461405
181	0xbf9e47394f70ddc7	-0.029568572496115466
182	0x3f0b5539cfaa0951	5.2133394963698795e-05
183	0x3f02d3c569a9bab1	3.59100933636688e-05
184	0x3f12209621db3d27	6.915012678664467e-05
185	0x3f002cd1405f55d6	3.0851493690125097e-05
186	0xbf7d29ed7fe6ad13	-0.007120063526979042
187	0x3f06023e02532d66	4.1978375784869e-05
188	0x3f08960753d34431	4.689416753368042e-05
189	0xbf8d502996c6d85a	-0.014313054002610116
190	0x3eff99c5a8d6181c	3.0136749548791237e-05
191	0x3f86c22ad7e377e3	0.011112532342334397
192	0x3ee41640e75c3840	9.578193594286214e-06
193	0xbf8a0ec719896d7f	-0.012723498789617647
194	0xbf3936bb95d96b4e	-0.00038473205299787295
195	0xbf711e6f38db6fba	-0.004179415189096087
196	0xbf17c9f1db3bdf75	-9.074724840363125e-05
197	0x3f186be2ecca329a	9.316036739388315e-05
198	0x3f2d3ae464a04c86	0.00022300756455759604
199	0x3f15a604b996a20a	8.258251036486627e-05
200	0x3efeb7048207ae90	2.9292023215817117e-05
201	0x3f066a6b2512a43f	4.275454978969932e-05
202	0xbf44d7ed76184e90	-0.0006360921362919703
203	0x3ef777aeae8f51cd	2.2380360778688665e-05
204	0x3f1969c6fbd6f409	9.694363594454926e-05
205	0xbf9c321baacaaea7	-0.027534897136020444
206	0x3f20690ac0823665	0.00012520080804672147
207	0x3f8db03a6fd3a634	0.014496284997636534
208	0xbf90be276e6f0c11	-0.016350380053847206
209	0x3f29c66711d9e0d2	0.00019664772200989625
210	0xbedde2f48ed30030	-7.125507392291604e-06
211	0x3f0f64a920426c86	5.9877787891704024e-05
212	0x3f83b533688675a7	0.009622956874234158
213	0xbf9a36222fe14d97	-0.025597128078812394
214	0x3f02e69d5ffab58f	3.605048914088603e-05
215	0x3eff13d7f4706d07	2.963782688079639e-05
216	0x3f0c6459f5c2fd6b	5.415343795922119e-05
217	0x3ee4207d4fef6693	9.597259575433523e-06
218	0xbfa267b7f55c5956	-0.035947560025464995
219	0x3efd9e27fc010917	2.824573289240362e-05
220	0x3f00efa9e8f7cc23	3.230321192040249e-05
221	0x3f90e5f0c67dfc32	0.016502153506277213
222	0x3ef35044e687584d	1.841883786987018e-05
223	0x3f7ed6d48a02e7ce	0.007529096823583671
224	0x3ed7eea6deea01a7	5.705889164376113e-06
225	0xbf17abf472ef24f5	-9.03003644757877e-05
226	0xbf3ccf003060b2fc	-0.00043958429921779596
227	0xbf5f74e7eec187cd	-0.001919962403029707
228	0x3eff14886a8d4d0f	2.9640394731811572e-05
229	0x3ee9b72b85b98ba3	1.2262109684251838e-05
230	0x3f00cbe3b654ab37	3.2036673284294185e-05
231	0xbf19c86ad5056691	-9.835388232684097e-05
232	0x3ee9e19270c5dac1	1.234108960866448e-05
233	0x3ef100d8c2f947e2	1.621561767557029e-05
234	0xbf3a9ed95e5ed4aa	-0.00040619665957859297
235	0x3ee52128829d2cbd	1.0075342362766943e-05
236	0x3ef031d53eeb3351	1.5444431421585237e-05
237	0xbf4d00bf52ea00b4	-0.0008850988577506964
238	0x3f115ef6e8f85ecd	6.626493472372125e-05
239	0xbf901792732816bd	-0.015714920309639824
240	0xbf3ee8ad02f53b92	-0.0004716322318544737
241	0xbef63a4e43160912	-2.1198040661038016e-05
242	0x3ecdd55c71013ef0	3.5564234011422016e-06
243	0xbee244484c326609	-8.710254752397459e-06
244	0xbf70d773895a164e	-0.0041117203851449135
245	0x3f8b5317d58cba08	0.013342081264991826
246	0x3eee7888bfe13d1b	1.4529627147790013e-05
247	0x3ee4da69eb288202	9.943570465743328e-06
248	0x3ef33656554adc98	1.832223400085857e-05
249	0x3eefc45795b379bc	1.5147667616619068e-05
250	0xbf925853bc56256f	-0.017915066118381725
251	0x3ee8d4f2431f37f3	1.1840735257975083e-05
252	0x3eeb6e510b1053ea	1.3080083904918082e-05
253	0x3f61e40f4f3fe723	0.0021839427008644315
254	0x3ee25ef379085bb7	8.759928989339001e-06
255	0xbf75fa9a33a097ea	-0.005365946150083881

fnw.layers.2.bias f8 [64]
0	0xbfa1ae6f09b48f06	-0.034533948836069014
1	0xbf7ba4948043796a	-0.006748752672335415
2	0xbfab041d00319f71	-0.05276575686804009
3	0xbfb1353747981171	-0.067218260745056
4	0xbf8e8fc0f14ed10b	-0.014922625888950344
5	0x3fa86ef280c313d9	0.047721460550327506
6	0x3f9f77d38a2a6e1d	0.030730538661925978
7	0x3f9277bfaaeec046	0.018034930045985463
8	0xbfb410637a0afc9c	-0.07837506990016369
9	0x3faa1950cc2d5d4c	0.05097439281842728
10	0xbfa6b126a1978e0e	-0.044320304132067986
11	0xbf50f0781772de66	-0.0010338948029992245
12	0xbf264460a0101a84	-0.0001698844862689405
13	0xbfd4ac9b7e586a04	-0.32303511942305385
14	0x3f9a4da272449e35	0.0256867773288418
15	0x3fbd6d213c170ca6	0.11494643895189202
16	0xbf7a4f8d723397c6	-0.006423523448779228
17	0x3fa3616ad989b2b1	0.03785261064044699
18	0xbfc365f9cb00c9ff	-0.15154955303439974
19	0xbfb15e3a29a5ca1b	-0.06784404293811301
20	0x3fb67ebc2350168f	0.08787132131700502
21	0x3f84732d4d027ba0	0.009985307610177518
22	0x3f75aa4cceb3b759	0.005289363888761966
23	0xbf5f858d3865a569	-0.0019239310364248202
24	0x3f9944d8f2e89b5d	0.024676694704022995
25	0x3f9b18bafadcde44	0.026461526452491904
26	0xbfa5bb4189614f31	-0.042444274921449206
27	0x3f9fd9ed70a7caec	0.031104764939253224
28	0xbfa1992b7f94cc5f	-0.03437171871555544
29	0x3f275da58c0aac1b	0.00017826696241249402
30	0xbf9eb7fbe67b10ff	-0.0299987182068131
31	0x3f2159dde7e20548	0.00013237794695800998
32	0xbfa1b7fe0f0d97b9	-0.03460687574151628
33	0xbfc57c8415364f63	-0.16786242519139724
34	0xbfc1da1f0a6e8f30	-0.1394690323769452
35	0xbf79b84347449258	-0.0062792423307525755
36	0x3fa30443447246e9	0.03714189730193402
37	0x3fb9742d2105c7f5	0.099428959428934
38	0xbfc6bcb82c82bd50	-0.17763425992368775
39	0xbf864ab64155f2bd	-0.010884689206016923
40	0xbfc0932c646cdfc3	-0.12949137595728474
41	0xbfd2e391f2fac99d	-0.2951397774551426
42	0xbfd37fe2089a7a63	-0.3046803554551955
43	0xbfb027896e36eb67	-0.06310328427109156
44	0xbfb1d28f4b27f462	-0.06961913666596467
45	0x3f8cf7af5f469087	0.014144296736795304
46	0x3f855c753cd213f9	0.010430255812261523
47	0x3fc254be97d5c534	0.143211197031215
48	0x3fc51c8fcc3aa004	0.16493413421744674
49	0xbf93f5fb402d8636	-0.019493032257179098
50	0xbf888576b4f12792	-0.011973311802780082
51	0xbfbc92973a92ae35	-0.11161179714206855
52	0xbfa6f21e79e448da	-0.04481597173629988
53	0xbfb0f644c80defcd	-0.06625776180402383
54	0xbf7dc604ec07a8d8	-0.00726892397549702
55	0xbf3d9b2c6422d7e1	-0.0004517539383742647
56	0xbfd28476f206e645	-0.28933499942249724
57	0xbfd51d012797bb39	-0.3298952948234049
58	0xbfb9e5f65d24ec4c	-0.10116519712475841
59	0x3f92527693eb5408	0.017892697122835727
60	0x3f90f553b41d0ad7	0.016560848110439643
61	0xbf839de83aa11351	-0.009578527726384374
62	0xbfa216a2e901c7c3	-0.03532895178149389
63	0xbfaee0fa7eacc167	-0.06031019970248757

fnw.layers.4.weight f8 [1, 64]
0	0xbf9cf7b263610042	-0.028288638415915786
1	0x3ec4a6d8da28566c	2.4618800165226325e-06
2	0xbf71aa6621f6fa97	-0.004312895732651831
3	0x3fab6aac3a5e6eae	0.05354822361479471
4	0xbefca1d72de5e6c4	-2.7305783868203688e-05
5	0x3edd553aaace8376	6.993514642867544e-06
6	0x3f034bb5dd5f3d2c	3.6803710528605184e-05
7	0x3ec905986e380a87	2.982837814747872e-06
8	0x3f99388cb0742541	0.024629781980398894
9	0x3fbd7c32a547610b	0.11517635855796386
10	0x3fd06af796b18f3c	0.256528756295882
11	0x3ec6c6d3f9d9b808	2.7151908870625927e-06
12	0x3ed4c7d9d4ec8ed0	4.954497241613668e-06
13	0x3ff2817f56132403	1.1566155779166827
14	0xbf17eb675b298f44	-9.124582610692012e-05
15	0xbf94a208b423ad3f	-0.020149360651811717
16	0xbf039f7ef1b8f81a	-3.742796090165663e-05
17	0x3fbb9c193884ed33	0.10785062436928143
18	0x3f8b4bbe05100e36	0.013328060655118806
19	0x3f9f9501a4c5daa6	0.03084185188478252
20	0x3f842a0812326a84	0.009845793776823493
21	0x3ee2b5f8262965ae	8.92201314177634e-06
22	0x3f961ad752584588	0.021586765671661762
23	0xbf062964b06921e8	-4.2270074164966174e-05
24	0xbfa0d2d51e9ca08c	-0.03285852430991651
25	0x3f3d181e7e0c89ab	0.0004439424938472945
26	0x3fab6823cd17c5f5	0.053528898988485375
27	0xbf5462b3f1df8698	-0.0012442357324221939
28	0xbf1972169a7a60c2	-9.706747970950321e-05
29	0x3eb6b946435aebbb	1.35443975805728e-06
30	0xbf2be76c7ff52f10	-0.00021289061985851248
31	0x3ed42e6608f625a6	4.81158362165263e-06
32	0xbf1f37301faf5980	-0.00011907798027208615
33	0x3fdf1cce147d1a93	0.4861331176838714
34	0x3fef313c40508359	0.9747601753370915
35	0x3fb564fddfbd1566	0.08357226097458223
36	0xbf90b12cf1e0c84f	-0.016300871146264048
37	0xbf58ffd1ab499b19	-0.0015258357572293711
38	0x3fe1bd57900e9b2e	0.554363042222439
39	0xbf03ed6a4fb1774e	-3.800850569100779e-05
40	0x3f8679db04fdddf0	0.01097460850699769
41	0x3fe99814ce0331b0	0.7998146079713049
42	0x3ff2b91177a1f69a	1.1701826737548005
43	0xbf3b46b72eb5c847	-0.00041620228031214287
44	0x3faa81e227d0d563	0.05177218185455492
45	0x3fcdd7cf9ec4c24f	0.23314852955219798
46	0x3f2bf78f1ff0588c	0.00021337148788863993
47	0x3faa83a8ee1a713a	0.05178573519262604
48	0x3fc12e5d4dd6a809	0.13422743130405504
49	0xbf1c2089c0fc14fe	-0.00010729637892488775
50	0xbf1b507fbb870aef	-0.00010419635407913815
51	0x3fd6c04d127a226c	0.35548712543871974
52	0xbf265edc1b776fed	-0.00017067372185308686
53	0x3fe2bf90453ea373	0.5858842232165514
54	0xbf017d4198dad36f	-3.3358158458985226e-05
55	0x3eb9935dcc4d0f49	1.524427532832158e-06
56	0x3fecbb18d0e493e4	0.8978389816226096
57	0x3ff1712518b6c7c2	1.0901232686414777
58	0x3fe8fa7a4809321a	0.7805758864356591
59	0x3f012d9fe5933d2f	3.276485649338978e-05
60	0x3f2a0672288e3388	0.00019855636153600872
61	0xbf50d60c27c12d11	-0.0010275953964249999
62	0xbf160b47cf9b5f33	-8.409143256515594e-05
63	0xbf710bff450a7586	-0.004161831996183257

fnw.layers.4.bias f8 [1]
0	0x3fb334f42f5392a6	0.07502676158362451

fnb.layers.0.weight f8 [32, 1]
0	0xbfc200632a0bf1d6	-0.14063682129916683
1	0x3b55886cee8f5904	7.124642991036132e-23
2	0x3f612c0f623bf79c	0.002096204801886393
3	0xbfe983edd1d51525	-0.7973546121872103
4	0x3fe8722afd9155ab	0.763936515092316
5	0xbf83cbd381656d84	-0.009666111360892023
6	0x3fe625c6c517c046	0.6921113824337304
7	0x3fe290e60b394549	0.5801878184521821
8	0xbf81e5e476101547	-0.008739266255370593
9	0x3fcca13bba8fd5cb	0.2236704503008425
10	0x3a81ea610094e3c8	7.236030045343385e-27
11	0x3fe0fb5a270135b9	0.530682636433702
12	0xbf66cca82aae9292	-0.002783134890210378
13	0x3f684dc881d440ff	0.0029667774348426375
14	0x3fa11cca02ff16de	0.03342276846482915
15	0x3fbf857d62d047a3	0.1231306425327419
16	0x3fe8ad5dcfc7188b	0.7711628969343719
17	0x3fd0d9ad5dc32a1a	0.2632859626434382
18	0x3fe6acc8e90b2301	0.7085918952589908
19	0x3c2e9a99376af913	8.295203824480205e-19
20	0xbb7e396a3c5f0e66	-4.000149791117665e-22
21	0xbf599bf28cd2e26c	-0.0015630596783876806
22	0x3fda7d7bb5d28599	0.4139088893517396
23	0x3f974cb1daee5069	0.022753504741175243
24	0x3fe16b43d2c7ec43	0.5443438641372115
25	0x3feab715bba771cb	0.8348492303007843
26	0x3f6ef7f657974fd7	0.0037803470010917373
27	0xbfdd0600045c7bd4	-0.45349121499924405
28	0x3fed5b76f21163ad	0.9174151161088183
29	0xbb80d961833a5f05	-4.459931327719452e-22
30	0xbc46f26e397dd512	-2.4879181173509623e-18
31	0xbcd90496a1963e4e	-1.3887737321076869e-15

fnb.layers.0.bias f8 [32]
0	0x3fda20ec9351748d	0.408259528985419
1	0xbb389bd52b00dd46	-2.0355857270974524e-23
2	0xbfa07d9a86ef72c1	-0.03220827958259554
3	0xbfd66ba9b2020007	-0.3503212202413128
4	0x3fe33ebadb123449	0.6014074591381667
5	0x3fde153ae62f1292	0.47004578093427896
6	0x3fe08b815324d174	0.5170294402983431
7	0x3fe0388d1a15e567	0.5069032201273956
8	0xbfb953349b631a26	-0.09892586511259846
9	0x3fa13abd40152794	0.03365126998194437
10	0xba81ea668dc35b0c	-7.236064259043652e-27
11	0x3fd94913038d10db	0.3950850996664152
12	0xbfbfab0eed36ce80	-0.12370389262542325
13	0xbfbf6c3ab41413bf	-0.12274519821592288
14	0xbfd86b081b88996c	-0.3815326947100377
15	0x3fdceacd432e0d9e	0.45183116493736886
16	0x3fb1dd0d725d3b7f	0.06977924387068234
17	0xbfc02fbee43fabca	-0.12645708222348012
18	0x3fb55cf71a1beb38	0.08344978701999828
19	0xbc2e9aa5e0c61cbd	-8.2952561914109135e-19
20	0xbb512851a5ce93e8	-5.676939169103825e-23
21	0xbfbb7796e2b18be2	-0.1072935393763568
22	0xbfce45eec2f3ea86	-0.23650917548350864
23	0xbfc81b05358cdd98	-0.18832459559210402
24	0xbfb14b648f48f45b	-0.06755665300529883
25	0x3fe4a19832423e28	0.6447258931747841
26	0xbfb2fa00d2b3f09d	-0.07412724632371455
27	0x3fd31e0794893b00	0.2987078619525363
28	0xbfe5c99dea2ec2ab	-0.6808614324455297
29	0xbb532bffca2931cb	-6.343440260727318e-23
30	0xbc1378bfe33808ea	-2.638904444899184e-19
31	0xbcb2e35ff4cae9fd	-2.62126194718588e-16
