best_model_dk40_darcy_gtou.ckpt (torch, 764061 bytes, 22 tensors)

kernel.layers.0.weight f4 [32, 4]
-0.4927598 0.11358661 -0.4782218 1.065816 -0.09650581 0.9883198 0.8912237 -0.3897306
-1.2042389 -2.1570275 -0.15546009 0.301076 0.259818 -1.2012447 0.64930266 -0.4853798
-1.1325336 -0.8884087 0.93289286 1.1942502 0.8403197 1.60968 0.8349813 -0.020768682
1.3392073 -0.18034665 1.2378559 -0.6507338 0.7390059 1.1486033 -1.141201 -0.73830056
1.2222322 -0.6542376 0.7259316 -1.1058921 0.18788701 -0.1562321 0.95792663 0.59855336
0.65765923 0.23524241 -0.47104785 -1.495706 0.07988638 -0.010671961 0.037741885 1.8814865
-0.16041546 0.35172954 -1.4629538 -0.12683639 0.10059358 -0.065595165 0.038739134 2.2397168
0.006397659 -0.0063454323 -0.00865301 0.006510618 -0.35540408 0.08738223 0.038934413 -2.3976378
1.2409625 1.2725068 -0.2591355 0.053685155 0.8420888 0.7174066 -0.41405672 0.81135494
1.2760996 0.5067744 -0.76594454 -0.36867732 1.5118575 0.7442394 -0.66186804 -1.4360245
0.41035765 -1.9483191 -0.4807342 0.057422478 -0.8047215 1.6525396 -1.1207929 0.79140365
0.15716873 0.98540175 1.611641 -0.11316725 1.8620472 2.1795151 -0.35116127 0.01196332
-1.9295905 0.36477143 0.09584872 -0.38102704 -2.0099285 -0.2317306 0.34484625 -0.42296982
-0.022724299 0.019171087 -2.0467842 0.015986146 1.9098957 0.8949592 -0.7432141 0.26396945
-0.92786187 -0.43902418 -1.0547731 0.9692248 0.5486489 -1.1513215 1.0992053 -1.0329701
-1.3798319 0.04454687 -0.6588381 -0.119986564 0.2572267 -1.1610863 1.1031574 0.21366975
00000000: 034b fcbe 19a0 e83d 7dd9 f4be a96c 883f
00000010: d7a4 c5bd 8702 7d3f 3d27 643f c58a c7be
00000020: 8024 9abf bd0c 0ac0 ee30 1fbe a226 9a3e
00000030: dd06 853e 63c2 99bf b338 263f b383 f8be
00000040: dcf6 90bf c16e 63bf 11d2 6e3f 31dd 983f
00000050: 311f 573f ff09 ce3f 56c1 553f 1523 aabc
00000060: 256b ab3f cbac 38be 1072 9e3f 7e96 26bf
00000070: 7e2f 3d3f 6f05 933f e012 92bf 4401 3dbf
00000080: 1b72 9c3f 1e7c 27bf a7d6 393f df8d 8dbf
00000090: 7465 403e 4ffb 1fbe ae3a 753f cb3a 193f
000000a0: 5b5c 283f 63e3 703e 2f2d f1be 4b73 bfbf
000000b0: 789b a33d 73d9 2ebc 3c97 1a3d 8dd4 f03f
000000c0: f343 24be e515 b43e 1242 bbbf 66e1 01be
000000d0: 0204 ce3d c256 86bd edac 1e3d 8557 0f40
000000e0: 74a3 d13b 58ed cfbb 5bc5 0dbc 0657 d53b
000000f0: 86f7 b5be 74f5 b23d b179 1f3d e672 19c0
00000100: dcd7 9e3f 81e1 a23f 69ad 84be f7e4 5b3d
00000110: 2293 573f f5a7 373f 3eff d3be f5b4 4f3f
00000120: 3b57 a33f f8bb 013f f114 44bf 46c3 bcbe
00000130: 8c84 c13f 7986 3e3f 2f70 29bf a7cf b7bf
00000140: 661a d23e 8562 f9bf cb22 f6be d533 6b3d
00000150: 3a02 4ebf 6b86 d33f 2476 8fbf 6e99 4a3f
00000160: d7f0 203e 4a43 7c3f 414a ce3f 3bc4 e7bd
00000170: 9057 ee3f 2d7d 0b40 69cb b3be cd01 443c
00000180: d2fc f6bf 52c3 ba3e 554c c43d fa15 c3be
00000190: aba2 00c0 c94a 6dbe b08f b03e 808f d8be
000001a0: 4f28 babc af0c 9d3c 83fe 02c0 61f5 823c
000001b0: 7677 f43f 0c1c 653f 4743 3ebf 0127 873e
000001c0: 5b88 6dbf c7c7 e0be ce02 87bf 1e1f 783f
000001d0: 4174 0c3f 815e 93bf c2b2 8c3f 5d38 84bf
000001e0: 559e b0bf c776 363d 9da9 28bf 84bb f5bd
000001f0: 38b3 833e 7a9e 94bf 4334 8d3f 3ecc 5a3e

kernel.layers.0.bias f4 [32]
-0.6256108 -0.8934054 -1.3782115 -0.41474694 -0.1754404 -2.0051 -0.9718118 -0.1609011
-0.12067156 -0.5212351 -0.53148144 -1.5650713 -0.7883328 -2.1953819 0.0011250029 -2.4890509
0.2254139 -0.8760359 -0.60314727 -0.30057013 -1.5715721 -0.3026573 -1.9838455 -0.40673324
-1.0770319 -1.3775195 -1.8076353 -1.8363265 -1.2550238 -0.5339423 -1.2970566 0.24103677
00000000: 0828 20bf 37b6 64bf 3c69 b0bf b659 d4be
00000010: a6a6 33be 8f53 00c0 a8c8 78bf 42c3 24be
00000020: a722 f7bd aa6f 05bf 2b0f 08bf 4254 c8bf
00000030: 2ed0 49bf 2381 0cc0 d574 933a 9c4c 1fc0
00000040: e7d2 663e e443 60bf dc67 1abf 54e4 99be
00000050: 4629 c9bf e6f5 9abe a6ee fdbf 573f d0be
00000060: 2edc 89bf 8f52 b0bf 9860 e7bf bf0c ebbf
00000070: 9fa4 a0bf 71b0 08bf f305 a6bf 58d2 763e

kernel.layers.2.weight f4 [64, 32]
-0.26448953 -0.02865379 -0.037695225 -0.023902982 0.047999587 0.047548752 0.1655805 -0.14084692
-0.053492278 0.15654233 0.0880987 0.18144263 0.035190012 0.056167938 0.0051985346 0.45176458
-0.061823446 -0.098498404 0.1717287 -0.05376213 -0.014474635 0.09771666 -0.13175775 0.061335698
0.034582872 -0.10913772 0.2371351 0.048172954 0.040556148 -0.18011478 -0.1253088 -0.039659094
-0.27424622 -0.21373387 0.14003459 -0.057520557 -0.0602626 -0.18825087 -0.07671505 -0.18409993
0.1818548 -0.061704285 0.038866494 0.058238886 -0.030871652 -0.19799292 0.0011963588 0.06872236
0.049039267 0.16290967 0.072901666 -0.08013282 0.030449081 -0.023420915 0.21941747 0.06614654
-0.17496113 0.05886781 -0.005373287 -0.04368081 0.14806612 -0.0203906 -0.5524747 -0.073722854
0.008716421 0.022636035 0.058199573 0.0077237273 -0.0107415 0.012339011 0.016740428 -0.02010791
0.0045246785 -0.20990054 -0.06602746 -0.005140595 -0.09346616 0.027475854 -0.0027225132 -0.045315266
0.0042373426 0.015324444 0.0074687996 -0.01891376 -0.09534604 -0.027710093 -0.030390134 0.0022025937
0.012157667 0.016799208 0.033859055 0.024111522 -0.0116347205 0.0074366364 0.030421779 0.004171286
-0.16678748 -0.1399873 -0.16614933 0.30811647 -0.14847295 -0.120305784 -0.3843091 -0.014245855
0.016860629 -0.113918096 -0.20698243 -0.048912723 0.1546882 -0.04666482 -0.0003228056 -0.14711705
-0.039079424 -0.06561707 0.5174329 -0.028436877 -0.28949553 0.035682067 -0.1060841 -0.16382222
-0.5592078 -0.1526132 -0.19986089 -0.7132777 0.20258915 0.03945751 -0.37009528 -0.14257212
-0.14671971 -0.13314982 -3.5539443 -0.18148787 -0.8019686 -0.2505079 -0.2457329 -0.42429432
-0.95032233 0.2955567 0.9084777 -0.011693124 -0.3666072 -2.1511223 0.0031310597 -0.13539484
-0.77435464 -0.1767989 0.29528248 -0.75158226 0.4124078 -0.029783014 -0.40296647 0.69609135
-3.0211267 -1.874473 -1.5082021 -1.0959659 -0.39400828 0.012184095 0.6917482 0.094359554
0.06251896 -0.14033636 0.038462523 0.11384745 -0.07983165 -0.00042506514 0.022755485 0.01430114
-0.03303035 0.0096184835 0.06610502 0.08693303 -0.13916415 0.08378247 0.0002752351 -0.008842191
0.0073499223 -0.011452676 -0.13403058 -0.008565732 0.26100314 0.025965326 0.7203829 -0.04397821
0.027279394 0.1642278 0.15362516 0.14315502 -0.068110466 -0.24064814 0.1292363 -0.0015142867
0.33221596 -0.5724897 -0.87695396 1.4406302 -0.015010108 -1.5528287 0.08499057 -0.8667194
-0.15004748 0.5887939 0.5824098 -2.092427 1.1043631 2.6246612 0.0018090401 0.18191941
0.91909647 -0.5071799 -0.38601997 -0.4823089 0.9649908 -0.1318944 -1.4399396 -0.36906084
1.4438561 -2.8966184 0.042251416 -0.12775108 -0.8477327 -0.4056 -1.1997665 -1.0297275
-0.15846565 0.02301013 -0.018211521 -0.009830529 -0.112464584 -0.10676236 -0.15866894 -0.12936865
-0.045534246 0.26957363 -0.040890004 -0.12898175 -0.26003352 -0.21235676 0.0029058473 -0.5280213
0.07009895 0.08962435 -0.54215115 -0.17479272 -0.061873347 0.11578349 0.2817375 -0.10591573
-0.16624402 -0.15657541 -0.69338757 0.15458043 -0.09788493 -0.19776529 0.32470706 -0.14075549
00000000: 2c6b 87be 5abb eabc 4f66 1abd 30d0 c3bc
00000010: 379b 443d 7bc2 423d ef8d 293e 2d3a 10be
00000020: b81a 5bbd a24c 203e 176d b43d 19cc 393e
00000030: 6723 103d 5a10 663d 7858 aa3b b04d e73e
00000040: 953a 7dbd 88b9 c9bd a6d9 2f3e ae35 5cbd
00000050: 0527 6dbc ac1f c83d 81eb 06be 243b 7b3d
00000060: c5a6 0d3d 9983 dfbd 8bd3 723e 0151 453d
00000070: 341e 263d 0270 38be f350 00be 9371 22bd
00000080: 006a 8cbe 0ddd 5abe 3a65 0f3e ad9a 6bbd
00000090: ebd5 76bd d6c4 40be c81c 9dbd b184 3cbe
000000a0: 2538 3a3e a2bd 7cbd 7932 1f3d e68b 6e3d
000000b0: 8ce6 fcbc a8be 4abe 24cf 9c3a 4fbe 8c3d
000000c0: 66dd 483d cbd1 263e 784d 953d ad1c a4bd
000000d0: 5a70 f93c 38dd bfbc f9ae 603e d677 873d
000000e0: 0329 33be 5f1f 713d 6612 b0bb a6ea 32bd
000000f0: a59e 173e 300a a7bc fb6e 0dbf 02fc 96bd
00000100: 52cf 0e3c 356f b93c ad62 6e3d 5217 fd3b
00000110: 1efd 2fbc 9029 4a3c 3923 893c 58b9 a4bc
00000120: c143 943b 2bf0 56be 6839 87bd 7072 a8bb
00000130: 306b bfbd 0b15 e13c 316c 32bb 809c 39bd
00000140: 68d9 8a3b 6013 7b3c d5bc f43b 08f1 9abc
00000150: c944 c3bd 4700 e3bc bbf4 f8bc 6459 103b
00000160: f430 473c 7e9e 893c cbaf 0a3d 8785 c53c
00000170: 8e9f 3ebc 07af f33b 1837 f93c 48af 883b
00000180: 56ca 2abe d558 0fbe 0d23 2abe 71c1 9d3e
00000190: 4b09 18be e162 f6bd 2ac4 c4be 7267 69bc
000001a0: 4d1f 8a3c e44d e9bd 34f3 53be b558 48bd
000001b0: 9566 1e3e 9c23 3fbd 3c3e a9b9 daa5 16be
000001c0: bf11 20bd 3e62 86bd 7c76 043f 74f4 e8bc
000001d0: c238 94be 5c27 123d 9f42 d9bd 03c1 27be
000001e0: 3e28 0fbf a246 1cbe 55a8 4cbe 5e99 36bf
000001f0: 8873 4f3e 339e 213d 217d bdbe 6dfe 11be
00000200: b13d 16be 6d58 08be d373 63c0 f5d7 39be
00000210: d04d 4dbf 9242 80be 68a1 7bbe 1b3d d9be
00000220: 5348 73bf 3553 973e ff91 683f 8494 3fbc
00000230: f0b3 bbbe fdab 09c0 7732 4d3b f2a4 0abe
00000240: 1b3c 46bf c50a 35be 442f 973e b267 40bf
00000250: 1d27 d33e 82fb f3bc 9f51 cebe 0b33 323f
00000260: 245a 41c0 bbee efbf c40c c1bf 9c48 8cbf
00000270: 74bb c9be cc9f 473c 6916 313f 953f c13d
00000280: f109 803d 56b4 0fbe e18a 1d3d da28 e93d
00000290: c77e a3bd 47db deb9 b669 ba3c 544f 6a3c
000002a0: d54a 07bd d896 1d3c 1262 873d f209 b23d
000002b0: 0c81 0ebe 2596 ab3d 6e4d 9039 d6de 10bc
000002c0: 9ed7 f03b 01a4 3bbc 503f 09be 4957 0cbc
000002d0: 34a2 853e 3cb5 d43c 046b 383f 7f22 34bd
000002e0: 0979 df3c 552b 283e ea4f 1d3e 3b97 123e
000002f0: 807d 8bbd 776c 76be 8556 043e 087b c6ba
00000300: 3618 aa3e af8e 12bf 0e80 60bf 9266 b83f
00000310: f5ec 75bc 17c3 c6bf 890f ae3d 53e1 5dbf
00000320: 0ca6 19be 32bb 163f cf18 153f 53ea 05c0
00000330: c55b 8d3f 73fa 2740 501d ed3a 1549 3a3e
00000340: e849 6b3f 8bd6 01bf 69a4 c5be 31f1 f6be
00000350: a309 773f 530f 07be f14f b8bf 8bf5 bcbe
00000360: 47d0 b83f 3262 39c0 d20f 2d3d 2ed1 02be
00000370: 0305 59bf ceaa cfbe f391 99bf 1cce 83bf
00000380: d244 22be bd7f bc3c 5430 95bc 3a10 21bc
00000390: d553 e6bd 39a6 dabd 1c7a 22be 3779 04be
000003a0: 1e82 3abd 8e05 8a3e 477c 27bd cb13 04be
000003b0: 1d23 85be 0d74 59be 0770 3e3b 672c 07bf
000003c0: 0a90 8f3d f98c b73d 6bca 0abf ddfc 32be
000003d0: e86e 7dbd e51f ed3d e63f 903e 59ea d8bd
000003e0: df3b 2abe 4e55 20be d981 31bf 554a 1e3e
000003f0: e577 c8bd fc82 4abe 0140 a63e 3522 10be

kernel.layers.2.bias f4 [64]
-0.17314619 -0.17164864 -0.04003718 -0.07104085 0.22525586 -0.27945405 -0.51541334 -0.15666603
-1.7018104 -0.089160606 0.23051476 -0.0028107958 0.14065503 0.09403807 -0.057442855 -1.033886
-0.0019522896 -0.11696914 -0.6659537 -0.087704346 -0.8077253 -0.14692213 -0.80278844 -0.07030361
-0.096951455 -0.14618142 -0.116515666 -1.0259025 -0.21276496 -2.671104 -0.07759514 -0.12339017
-0.024523057 -0.2725235 -0.073634595 -0.033941347 -0.0126465075 -0.042164482 -0.055051103 -0.01568576
-0.85428745 -0.020893484 -0.21877058 0.69908696 -0.01372185 -0.17058015 -0.038177762 -1.0438011
0.373526 -0.18864213 -0.15365288 -0.0013619602 -0.016625725 -1.8469199 -0.0531896 -0.017506823
-0.24026965 -0.61199 0.5093374 -0.31886807 0.21458818 -0.06361749 -0.019640166 -0.02795001
00000000: 3c4d 31be a9c4 2fbe 07fe 23bd dd7d 91bd
00000010: 79a9 663e 9a14 8fbe 21f2 03bf 0f6d 20be
00000020: ecd4 d9bf d699 b6bd 100c 6c3e 5435 38bb
00000030: df07 103e 0897 c03d 3349 6bbd 6056 84bf
00000040: f8e3 ffba 848d efbd f17b 2abf 569e b3bd
00000050: 16c7 4ebf c172 16be 8b83 4dbf 57fb 8fbd
00000060: 7c8e c6bd 95b0 15be c49f eebd c650 83bf
00000070: 0fdf 59be 5ef3 2ac0 33ea 9ebd fcb3 fcbd
00000080: 94e4 c8bc 3388 8bbe bccd 96bd 1506 0bbd
00000090: 4c33 4fbc aab4 2cbd 447d 61bd 6c7f 80bc
000000a0: 95b2 5abf d028 abbc 6505 60be 5df7 323f
000000b0: 9cd1 60bc 90ac 2ebe 4960 1cbd 469b 85bf
000000c0: cd3e bf3e 672b 41be 2e57 1dbe cd83 b2ba
000000d0: ac32 88bc df67 ecbf 57dd 59bd 786a 8fbc
000000e0: 3f09 76be 60ab 1cbf f063 023f ad42 a3be
000000f0: 01bd 5b3e e349 82bd 6ae4 a0bc 6bf7 e4bc

kernel.layers.4.weight f4 [1, 64]
-0.13758138 -0.107398674 0.11747783 0.069878735 0.11572168 0.5180512 -0.1065242 0.26754594
0.29715005 -0.29806957 0.15805922 0.019495811 -0.06874051 0.067315355 -0.14576222 0.09109589
0.0057076067 0.04537421 -0.08433008 0.23512645 0.1126496 -0.06109591 -0.16045105 0.14339717
-0.13807458 -0.13875061 -0.18679106 0.15745546 0.22171457 -0.13178517 0.14673351 0.063780986
-0.21336934 0.043670524 0.120193385 -0.12499523 -0.06288849 -0.15967046 0.10938323 -0.109824024
-0.086030036 0.121454895 -0.1896282 0.13077301 0.08394547 -0.16978896 0.08571677 0.08791953
0.0892182 0.16758713 0.15227395 -0.17976202 0.08400472 -0.3515014 -0.15365188 -0.096124455
0.036879525 0.08579622 -0.096368514 -0.2494584 -0.13007432 -0.06689086 -0.15645316 0.14720707
00000000: 22e2 0cbe d6f3 dbbd 3798 f03d 951c 8f3d
00000010: 7dff ec3d 019f 043f 5c29 dabd c8fb 883e
00000020: 0d24 983e 939c 98be 47da 213e aeb5 9f3c
00000030: d3c7 8cbd a2dc 893d b142 15be 7b90 ba3d
00000040: e006 bb3b 4fda 393d 40b5 acbd fdc4 703e
00000050: d5b4 e63d b43f 7abd 484d 24be b5d6 123e
00000060: 6c63 0dbe a414 0ebe 2846 3fbe 013c 213e
00000070: 2509 633e b1f2 06be 4f41 163e 9b9f 823d
00000080: 7e7d 5abe dddf 323d f327 f63d 80fd ffbd
00000090: aecb 80bd a780 23be 5104 e03d 6beb e0bd
000000a0: 8430 b0bd 58bd f83d e52d 42be 5ce9 053e
000000b0: 9aeb ab3d 28dd 2dbe 468c af3d 280f b43d
000000c0: 08b8 b63d f69b 2b3e b4ed 1b3e 8913 38be
000000d0: ab0a ac3d fef7 b3be eb56 1dbe e6dc c4bd
000000e0: fc0e 173d eeb5 af3d db5c c5bd 0672 7fbe
000000f0: 3432 05be 13fe 88bd 4235 20be 73bd 163e

kernelf.layers.0.weight f4 [32, 4]
-0.06405565 -2.1208634 0.021676918 0.05562281 -0.6405328 -1.0355402 0.87057984 0.6436062
2.1228719 -0.22639059 0.042344484 -0.07658727 1.473345 1.5275646 -1.5194969 -1.4628035
-0.64895725 0.010748687 0.011994751 2.2071056 1.6517433 -1.7130302 1.7329344 -1.6504612
-1.8142676 -1.6640543 1.6767149 1.8052412 -1.7524289 -0.21670945 0.230918 0.23759581
0.045804467 2.2226872 0.244925 -0.027796952 -0.37628537 0.6673447 -0.4757512 -1.0807906
0.90238005 4.970028e-06 -2.3424054e-05 -0.9023636 0.28665578 0.97212577 -1.0440389 0.5328902
1.1863238 0.49152994 -0.99158776 -1.1509622 -0.28027564 -0.16521356 0.26418996 -0.9797569
-0.07840223 0.25070503 -2.1922014 0.0981302 -0.079227164 -0.85264623 1.1221044 0.07307138
-0.8811577 -0.79031366 0.8933407 0.89115506 -1.3727473 0.35271516 -1.0381627 1.3714105
-1.0062168 0.07286437 -0.2740048 -0.55037045 -0.13484333 -0.07922753 1.7230651 0.14591317
0.7784473 -0.48614416 0.7496434 -0.77624995 2.2946978 0.23077722 -0.13905786 -0.17521
-0.12207881 -0.69762516 0.7215186 -0.91525555 0.7599886 0.23478977 0.13777001 -0.76518226
-1.7063454 1.7192034 -1.7134663 1.6937541 -0.16885728 0.018381242 0.061885115 -0.06314605
-0.019550031 -2.1532466 -0.29498678 -0.01251977 -0.17759767 0.07098497 0.11310588 -0.040501967
0.124431625 1.3366843 -0.6015536 -0.12532045 0.49114966 -0.7153227 0.79323745 0.91500336
1.0261959 -0.30945465 -1.2880629 -1.0293075 1.1118577 -0.79442203 -0.020928258 0.39232513
00000000: 9c2f 83bd 3abc 07c0 cb93 b13c bed4 633d
00000010: f5f9 23bf 958c 84bf 52de 5e3f 60c3 243f
00000020: 22dd 0740 efd2 67be 6971 2d3d c9d9 9cbd
00000030: 9296 bc3f 3d87 c33f e07e c2bf 253d bbbf
00000040: 1022 26bf 431b 303c a285 443c 3841 0d40
00000050: 536c d33f 9344 dbbf cbd0 dd3f 5042 d3bf
00000060: ec39 e8bf bbff d4bf 989e d63f 2512 e73f
00000070: 974f e0bf 15e9 5dbe c575 6c3e 514c 733e
00000080: 779d 3b3d 8240 0e40 9fcd 7a3e 6fb6 e3bc
00000090: 7aa8 c0be 1ad7 2a3f a995 f3be 5957 8abf
000000a0: 6102 673f 37c4 a636 c67e c4b7 4d01 67bf
000000b0: 8cc4 923e 3cdd 783f 11a3 85bf 7e6b 083f
000000c0: 75d9 973f d0a9 fb3e b2d8 7dbf bb52 93bf
000000d0: 4a80 8fbe be2d 29be e843 873e 59d1 7abf
000000e0: 5991 a0bd 695c 803e 074d 0cc0 7cf8 c83d
000000f0: da41 a2bd 0647 5abf 1ea1 8f3f 73a6 953d
00000100: 8d93 61bf ff51 4abf fab1 643f bd22 643f
00000110: 2fb6 afbf 1597 b43e 84e2 84bf 618a af3f
00000120: b6cb 80bf ea39 953d 5b4a 8cbe 14e5 0cbf
00000130: 5f14 0abe 0b42 a2bd 668d dc3f 436a 153e
00000140: 5248 473f e3e7 f8be a1e8 3f3f 51b8 46bf
00000150: 54dc 1240 dd50 6c3e 2f65 0ebe 406a 33be
00000160: 7504 fabd 9097 32bf 71b5 383f 304e 6abf
00000170: 9d8e 423f bb6c 703e 9513 0d3e fce2 43bf
00000180: 8769 dabf db0e dc3f dd52 dbbf efcc d83f
00000190: ece8 2cbe 4294 963c 3f7b 7d3d b752 81bd
000001a0: 6327 a0bc cbce 09c0 8208 97be b91f 4dbc
000001b0: 2adc 35be 9160 913d 0ea4 e73d 64e5 25bd
000001c0: 02d6 fe3d 7918 ab3f 6bff 19bf 0154 00be
000001d0: f877 fb3e 631f 37bf 9c11 4b3f a93d 6a3f
000001e0: 635a 833f d770 9ebe 3fdf a4bf 59c0 83bf
000001f0: 5a51 8e3f 3e5f 4bbf bd71 abbc d7de c83e

kernelf.layers.0.bias f4 [32]
-1.4695907 -0.029028738 -1.7005043 -0.15207973 -1.4775805 -0.18720195 -0.18302447 -1.0847397
-1.5681937 -1.410266 -4.0281997e-05 -1.183096 -0.6166355 -1.2847308 -1.5670078 -0.20365334
-0.21039975 -0.5452405 -1.0137035 -1.1891984 -0.4488127 -1.8506682 -0.8726461 -0.39439273
-0.17080045 -0.1345181 -1.8407692 -0.086550444 -0.6621741 -1.1939899 -1.7219738 -1.4817623
00000000: 8c1b bcbf adcd edbc 20aa d9bf caba 1bbe
00000010: 5c21 bdbf deb1 3fbe c46a 3bbe c0d8 8abf
00000020: 92ba c8bf 9983 b4bf 77f4 28b8 b16f 97bf
00000030: d3db 1dbf 0f72 a4bf b693 c8bf 808a 50be
00000040: 0873 57be e294 0bbf 09c1 81bf a737 98bf
00000050: c7ca e5be b2e2 ecbf bc65 5fbf d8ed c9be
00000060: 50e6 2ebe 1dbf 09be 539e ebbf 5c41 b1bd
00000070: 3e84 29bf a9d4 98bf a369 dcbf 63aa bdbf

kernelf.layers.2.weight f4 [64, 32]
0.43004516 0.1901792 -0.69197744 -2.1342764 0.3824311 -1.2070786 -0.5515527 -0.022968484
1.5011771 0.34871736 -0.02741292 -0.25476322 0.24830708 -0.030090211 1.5841253 0.31468666
0.5612258 0.34933588 -0.2013909 1.046638 0.32556078 -1.0859073 -0.18702585 -1.143167
-2.6062632 -0.101350725 0.944371 0.03863812 0.41047877 -0.4172221 0.87454844 0.5087297
0.061358027 -0.107691966 0.21547048 -0.19672428 -0.38120058 -0.2131667 0.024688754 0.047201704
-0.45424494 0.0010120466 -0.5981975 -0.4094525 -0.15188222 -0.071726985 0.081576146 -0.10767007
0.020081969 -0.01613376 -0.4674153 -0.15715346 0.15111206 1.1333358 0.18895188 -0.24616595
-0.033382248 0.030267 0.03430385 0.05835245 0.689846 -1.5204164 0.19158071 0.21861656
0.01801835 -0.604108 1.5454088 -0.18914503 0.22111255 0.20445536 0.6925877 -0.13277955
-1.1167428 -0.68979096 -0.99151635 0.42019945 -0.27668062 -0.44010693 -1.1026529 -0.8454392
-1.0905718 -0.02903417 -0.19985121 0.003681123 0.5851769 -4.2051497 0.12850282 -0.20427041
-1.457452 -0.037602466 -4.064096 0.007880412 1.7684047 -0.1433862 -0.40789732 -0.22647952
0.0011974686 -0.018464131 0.020034898 0.0028389955 -0.021768626 -0.0042193015 0.024463704 0.020282023
0.02342714 -0.035517573 0.028701495 0.00054740004 -0.01112429 0.030847413 0.025375549 0.004966045
-0.044034146 -0.008892698 -0.00030397135 -0.0042299964 0.00070472044 0.015905967 0.016170036 -0.042321622
0.0034615516 -0.051585447 0.02283859 0.00074787816 -0.018631013 0.023015453 -0.011380091 -0.0067759403
0.64734644 -1.0705352 0.42287484 0.08608726 -0.8942694 -0.6381492 -0.8776264 0.5458669
1.8668677 -0.44589558 -0.4487609 0.093032256 -1.8152798 0.70408213 1.0340812 1.3735868
-0.46953383 -2.0108652 -0.6408681 0.4704781 -2.0616229 0.10445844 -0.06445317 0.023067692
0.012895988 -0.034757283 1.4175134 0.02360087 0.27293238 -0.82724005 0.20773458 -0.21608767
-0.77083933 -0.046441473 0.0470034 0.13147415 -0.13640317 0.7530712 -0.10969664 3.4204602
0.69981325 -0.31496447 1.119303 -0.047816914 -0.8067442 0.48697948 -0.30495876 -0.22507161
-0.6912853 -0.68662757 0.4977787 -0.25921208 -1.202285 0.05340468 -0.59085584 -0.6280466
0.3577291 0.14633334 0.14699157 0.072276816 1.1585177 0.6016972 0.60313034 -0.50058514
0.12308136 -0.0068504773 0.035400935 -0.006428071 0.06958773 -0.043913778 -0.0094924215 0.049291037
0.0028746591 0.11806313 -0.050605036 -0.0051494176 0.0833444 0.19942911 -0.04388501 -0.030504929
-0.052621093 -0.03945973 0.20535468 0.004890624 -0.028538475 -0.21635258 0.13271399 -0.015190204
-0.0789898 0.0049150223 -0.22574784 -0.10086265 0.049767748 0.005780564 -0.059244223 0.11788308
0.3160164 -1.0475658 -1.4848782 -0.33041522 -0.12975015 -0.7362999 -1.8029013 -0.58252424
0.3716416 -1.9922792 -0.39565077 -0.80916184 0.088314064 -0.023703018 0.47020152 0.6587567
-1.2751176 -1.1445589 0.66606444 -0.32956466 0.0040071164 -0.47988608 1.7025722 0.08736092
-2.036554 0.013376234 -0.6307914 0.021458857 0.25738534 0.95624584 -0.323806 -1.0089617
00000000: e12e dc3e 56be 423e 6f25 31bf fc97 08c0
00000010: 02ce c33e 8d81 9abf 8f32 0dbf 6728 bcbc
00000020: 9226 c03f 158b b23e 0f91 e0bc 5370 82be
00000030: 3644 7e3e bf7f f6bc 9ec4 ca3f 9c1e a13e
00000040: 7eac 0f3f 27dc b23e 6b39 4ebe 3cf8 853f
00000050: e7af a63e 03ff 8abf b483 3fbe 4c53 92bf
00000060: 04cd 26c0 f890 cfbd 4cc2 713f 0143 1e3d
00000070: 462a d23e 239e d5be 68e2 5f3f 1c3c 023f
00000080: 8e52 7b3d 9b8d dcbd 4ba4 5c3e 1772 49be
00000090: b92c c3be 5f48 5abe 1240 ca3c 9356 413d
000000a0: cb92 e8be a6a6 843a 7923 19bf c2a3 d1be
000000b0: 0387 1bbe 99e5 92bd 6511 a73d 2082 dcbd
000000c0: f182 a43c f22a 84bc 0f51 efbe d6ec 20be
000000d0: 1fbd 1a3e 2611 913f 9a7c 413e ed12 7cbe
000000e0: d3bb 08bd 80f2 f73c 3282 0c3d fb02 6f3d
000000f0: bf99 303f 019d c2bf bc2d 443e 05dd 5f3e
00000100: 389b 933c d2a6 1abf f5cf c53f 3caf 41be
00000110: 546b 623e bf5c 513e 6d4d 313f 5df7 07be
00000120: 6ef1 8ebf 2496 30bf 04d4 7dbf 6224 d73e
00000130: 15a9 8dbe b255 e1be bb23 8dbf b46e 58bf
00000140: db97 8bbf 11d9 edbc cca5 4cbe ff3e 713b
00000150: 27ce 153f 9690 86c0 3e96 033e 432c 51be
00000160: ca8d babf 0b05 1abd 130d 82c0 d81c 013c
00000170: 165b e23f d5d3 12be ebd7 d0be 3fea 67be
00000180: 61f4 9c3a 1742 97bc 3a20 a43c 710e 3a3b
00000190: 1e54 b2bc 1142 8abb 1b68 c83c 7c26 a63c
000001a0: 46ea bf3c e07a 11bd 661f eb3c 657f 0f3a
000001b0: a742 36bc b7b3 fc3c 62e0 cf3c 34ba a23b
000001c0: 265d 34bd aeb2 11bc 585e 9fb9 c89b 8abb
000001d0: fdbc 383a 3b4d 823c 0677 843c 7059 2dbd
000001e0: 33db 623b 434b 53bd ff17 bb3c 410d 443a
000001f0: 11a0 98bc e78a bc3c 9073 3abc b508 debb
00000200: 7fb8 253f 4c07 89bf 0d83 d83e 844e b03d
00000210: d7ee 64bf bf5d 23bf 20ac 60bf efbd 0b3f
00000220: 85f5 ee3f 6d4c e4be fdc3 e5be b287 be3d
00000230: 175b e8bf ba3e 343f c65c 843f b1d1 af3f
00000240: bd66 f0be 04b2 00c0 ef0f 24bf 81e2 f03e
00000250: a1f1 03c0 4eee d53d 0600 84bd 75f8 bc3c
00000260: b249 533c a75d 0ebd 1471 b53f 9d56 c13c
00000270: cbbd 8b3e 01c6 53bf 60b8 543e 1646 5dbe
00000280: ba55 45bf 6a39 3ebd a386 403d 29a1 063e
00000290: 46ad 0bbe 46c9 403f a2a8 e0bd d2e8 5a40
000002a0: f626 333f 0643 a1be 5245 8f3f abdb 43bd
000002b0: ca86 4ebf 6055 f93e 8e23 9cbe 2c79 66be
000002c0: 13f8 30bf d3c6 2fbf dadc fe3e 72b7 84be
000002d0: 7ae4 99bf debe 5a3d 5442 17bf a9c7 20bf
000002e0: 4528 b73e 68d8 153e f584 163e de05 943d
000002f0: 4f4a 943f d408 1a3f c066 1a3f 5926 00bf
00000300: 1412 fc3d f879 e0bb 9200 113d 91a2 d2bb
00000310: 0384 8e3d efde 33bd 1a86 1bbc 66e5 493d
00000320: c764 3c3b 15cb f13d 3a47 4fbd 72bc a8bb
00000330: 78b0 aa3d 2537 4c3e c5c0 33bd 79e5 f9bc
00000340: 3789 57bd 87a0 21bd 7f48 523e 8741 a03b
00000350: 85c9 e9bc 888b 5dbe 2de6 073e 55e0 78bc
00000360: 67c5 a1bd 320e a13b 712a 67be 1491 cebd
00000370: 44d9 4b3d e36a bd3b 12aa 72bd af6c f13d
00000380: e7cc a13e a316 86bf 7d10 bebf 2f2c a9be
00000390: 39dd 04be 267e 3cbf 78c5 e6bf 4f20 15bf
000003a0: cf47 be3e 0103 ffbf bd92 cabe 3b25 4fbf
000003b0: 01de b43d d52c c2bc 41be f03e 47a4 283f
000003c0: 0e37 a3bf e880 92bf 3383 2a3f b3bc a8be
000003d0: 214e 833b a1b3 f5be e3ed d93f 48ea b23d
000003e0: e756 02c0 fe27 5b3c 8c7b 21bf 7cca af3c
000003f0: 03c8 833e 87cc 743f e6c9 a5be a825 81bf

kernelf.layers.2.bias f4 [64]
-1.1029602 -0.14470994 0.10052086 -0.016655443 -1.0804074 -2.2287686 -0.092032574 -0.2851434
-0.06827931 -1.5538746 0.42926565 -0.0023269902 -0.071939506 -0.013667104 0.3375516 -1.8694319
-0.023708325 -0.003081471 -0.13108677 -0.061029125 -0.18976946 -0.17500268 -0.10165608 -0.032785308
-0.0043380847 -0.038536645 -0.015707973 -0.17442025 -0.14186496 -0.0026142276 -0.43907002 -0.05280334
-0.4421273 -0.14010304 -0.75745267 -0.10121969 -0.0007609847 -0.18475494 -1.4302689 -0.077690236
-0.5199225 -0.009392104 0.7553155 -0.011633302 -0.060503498 -0.03981088 -0.151875 0.65803665
-1.6513642 0.5777047 0.7149649 -0.55932254 -0.068423755 -0.008596354 -0.35439494 -0.30002373
-0.049054313 -0.28761846 -0.0077472245 -0.1052797 -0.009373059 0.53174573 -0.0004940318 -0.4062175
00000000: cd2d 8dbf d82e 14be e1dd cd3d ff70 88bc
00000010: ca4a 8abf 25a4 0ec0 937b bcbd 51fe 91be
00000020: 06d6 8bbd 5de5 c6bf b5c8 db3e 6b80 18bb
00000030: 0555 93bd fdeb 5fbc 90d3 ac3e 8b49 efbf
00000040: f637 c2bc 81f2 49bb 9c3b 06be adf9 79bd
00000050: ed52 42be e733 33be 1031 d0bd e349 06bd
00000060: 7e26 8ebb 9ad8 1dbd 02ae 80bc 399b 32be
00000070: 0c45 11be 7653 2bbb c9cd e0be 5148 58bd
00000080: 825e e2be 2c77 0fbe 6be8 41bf 454c cfbd
00000090: d27c 47ba 6630 3dbe 0d13 b7bf 0f1c 9fbd
000000a0: a419 05bf 57e1 19bc 5b5c 413f 9b99 3ebc
000000b0: 84d2 77bd bc10 23bd 1f85 1bbe 1775 283f
000000c0: e75f d3bf 75e4 133f f107 373f c32f 0fbf
000000d0: c121 8cbd b9d7 0cbc 4173 b5be b69c 99be
000000e0: 2ded 48bd ba42 93be 6edc fdbb e29c d7bd
000000f0: 7591 19bc 7d20 083f ea81 01ba bdfb cfbe

kernelf.layers.4.weight f4 [1, 64]
0.92266864 -0.501194 -0.14889318 0.14418341 0.3700393 -0.39102128 0.10313924 0.72752583
0.20372473 -0.1790878 0.24311547 0.012079576 -0.052220743 -0.060341276 0.38213706 -0.54596406
0.14752166 0.06003974 -0.058153506 -0.20130408 0.09555711 0.3490218 0.13853204 0.27569875
-0.023249244 0.40699315 0.07961375 0.027355134 -0.33759513 0.02532499 1.1139477 -0.091441356
0.43624505 0.97956395 0.15039073 0.08399097 -0.12008693 0.046311073 -0.34001476 -0.12035568
0.15487176 -0.027517218 -1.2038738 0.084153004 -0.11437794 0.21572627 0.110230744 -0.40411356
-0.088734224 -1.6981881 0.62155366 0.083347835 0.19378254 -0.060852103 0.021764573 0.080343805
-0.14761348 0.016954036 0.112688534 -0.2219188 -0.091353826 -0.33348802 -0.044436917 0.6414455
00000000: 0334 6c3f 404e 00bf 7477 18be d1a4 133e
00000010: cb75 bd3e f133 c8be aa3a d33d 223f 3a3f
00000020: 379d 503e cb62 37be 43f3 783e 6ae9 453c
00000030: 6be5 55bd 6a28 77bd 78a7 c33e 4dc4 0bbf
00000040: eb0f 173e 3bec 753d 5f32 6ebd a822 4ebe
00000050: 72b3 c33d fcb2 b23e 58db 0d3e 6328 8d3e
00000060: 3375 bebc 6861 d03e 890c a33d e017 e03c
00000070: 45d9 acbe 5a76 cf3c d795 8e3f 9b45 bbbd
00000080: 835b df3e b4c4 7a3f 0700 1a3e 7503 ac3d
00000090: 23f0 f5bd aeb0 3d3d 6a16 aebe 0a7d f6bd
000000a0: b496 1e3e ca6b e1bc 8918 9abf 6958 ac3d
000000b0: fb3e eabd 59e7 5c3e a8c0 e13d f9e7 cebe
000000c0: 4aba b5bd 3a5e d9bf 241e 1f3f 45b2 aa3d
000000d0: ee6e 463e 0e40 79bd 9e4b b23c 4b8b a43d
000000e0: fd27 17be 31e3 8a3c 3fc9 e63d af3e 63be
000000f0: b717 bbbd f1be aabe 7c03 36bd c635 243f

fcq_0_0.weight f4 [40, 50]
-0.6655993 1.243903 3.6001961 1.0072329 -0.9801517 -2.2668576 -2.8405554 -0.17056993
-1.2028496 -0.22472279 0.57519686 -2.5156689 1.5590152 0.14072509 0.9951609 0.39403278
-0.62579393 -1.577277 1.3207736 0.16336116 3.7469628 -0.72952235 -0.79147565 1.2358117
-1.9666424 -1.5544146 -0.79933417 -0.8854055 -0.4165449 0.5967007 -0.26373315 -0.99878776
-0.012413741 -1.640236 -1.7631123 -3.7501721 -0.7921082 -0.7302931 2.8646328 -0.18643348
-2.0188763 -4.6262426 2.3751886 2.0991096 -0.6647084 -1.2977681 0.28984132 -0.062709466
1.1879886 -0.95029664 1.0888295 0.31893718 6.9603534 0.75453997 -3.3586724 -3.7604876
0.74402946 -0.016330075 -0.24473242 -0.6017 -0.2335436 -1.708321 0.5249604 1.4718632
2.0882704 -0.8027354 1.0657569 0.26918647 1.4332198 2.1939642 3.2871504 2.5866816
0.3309685 -0.22650369 -0.9199427 0.020400057 -1.3486646 -0.638642 -13.127218 0.2246257
0.6083413 0.7098239 1.3213402 1.1213564 0.8394977 1.0703566 -1.0979083 1.4457481
0.2390666 1.1268245 1.6580408 1.5172777 -1.7756625 0.6868531 0.6794346 -0.8777937
-0.3937181 -1.3835477 -2.180205 -2.510663 0.4974573 -1.2263228 5.2430186 0.6338703
1.0428253 3.1128366 0.16184731 1.8384997 -0.114667654 -2.787198 1.5899615 0.29134583
0.013563131 0.3522205 2.2229073 1.6889112 -0.5798361 -0.5394921 0.8341792 0.0852766
2.7895548 0.28173134 -0.9492164 -0.10905435 -1.6033387 0.9270433 0.8307801 -0.8736037
-2.6900768 -0.7415738 2.0513363 -0.08012453 0.7414417 -3.4800813 0.34780383 1.9159294
-0.7628272 -0.49444953 -1.1559818 0.19103514 -2.3376775 6.215248 2.1074107 0.8673
-0.93737507 1.2089497 2.4322045 -1.1217175 2.567682 2.1960485 -1.4294734 -4.5903015
-2.5966773 0.15992773 0.25480765 -2.371475 4.558215 -0.64485705 0.4830625 -1.5488154
-0.1587176 1.4767137 2.5153046 0.34133294 1.3394703 -0.116922535 -2.122024 -0.18713897
0.050936174 0.6136586 -0.4209928 -0.86861056 0.16494365 0.06252262 0.15246068 1.6875199
-0.5763371 0.33112872 1.966452 -0.2163478 -2.18279 0.43257892 1.5129952 -1.602203
0.4848213 0.2656518 1.2982906 0.49218547 1.9552058 -1.4607702 0.8954955 -0.26453772
0.26896477 1.2091842 -0.476949 0.49257076 -0.26684523 -2.0232813 -0.8493727 1.3658041
0.9707085 -0.17618775 3.3423975 -0.14175007 -0.6894077 0.38781008 -1.1521773 -0.20327319
0.79597163 1.7834126 -0.2903043 0.39798313 2.0728858 -1.164125 -0.9978108 1.3252399
-1.644324 0.38570288 -0.37110597 2.036595 0.22236678 0.6552593 -0.11735131 -1.6338538
-0.06795049 0.74122244 -3.950168 -1.1497852 -1.1352837 0.015079912 -1.6978686 0.65132767
-0.8214621 2.2389708 -1.2683475 -1.1990992 0.22730367 0.65356475 1.5265285 -0.1897262
4.629345 6.90578 0.81721646 -2.4684007 1.2143055 0.79660684 0.893857 -0.2300376
1.7451367 -2.1902773 -1.724885 0.65139794 0.15765072 0.6362069 -0.7586647 -2.2938676
00000000: b764 2abf 3738 9f3f 9d69 6640 02ed 803f
00000010: 39eb 7abf 3214 11c0 a9cb 35c0 e2a9 2ebe
00000020: faf6 99bf bb1d 66be 1a40 133f b800 21c0
00000030: cf8d c73f 3d1a 103e ddc2 7e3f aabe c93e
00000040: 0834 20bf 36e4 c9bf 1c0f a93f 2648 273e
00000050: 3dce 6f40 fac1 3abf 269e 4abf 142f 9e3f
00000060: f0ba fbbf 0ff7 c6bf 2aa1 4cbf efa9 62bf
00000070: 6045 d5be 61c1 183f 0808 87be 8eb0 7fbf
00000080: 0163 4bbc 41f3 d1bf aaad e1bf d202 70c0
00000090: 9ac7 4abf 7df4 3abf 2556 3740 6be8 3ebe
000000a0: 4535 01c0 2e0a 94c0 1703 1840 d057 0640
000000b0: 542a 2abf 441d a6bf 1566 943e d26d 80bd
000000c0: 0310 983f a446 73bf c45e 8b3f bc4b a33e
000000d0: 37bb de40 8829 413f 7df4 56c0 d4ab 70c0
000000e0: b778 3e3f a6c6 85bc 239b 7abe 0309 1abf
000000f0: 0e26 6fbe 43aa dabf ce63 063f 0366 bc3f
00000100: 39a6 0540 1180 4dbf b96a 883f cfd2 893e
00000110: bf73 b73f e969 0c40 ac60 5240 318c 2540
00000120: b474 a93e 95f0 67be 5d81 6bbf 051e a73c
00000130: 0ba1 acbf 0b7e 23bf 1609 52c1 4804 663e
00000140: 41bc 1b3f 05b7 353f ad21 a93f 9b88 8f3f
00000150: 52e9 563f 7201 893f 4288 8cbf 460e b93f
00000160: e0cd 743e c93b 903f ae3a d43f 2836 c23f
00000170: e948 e3bf 9bd5 2f3f 6def 2d3f 17b7 60bf
00000180: 6b95 c9be 1718 b1bf 7b88 0bc0 b4ae 20c0
00000190: b9b2 fe3e 25f8 9cbf cfc6 a740 5345 223f
000001a0: 4d7b 853f b738 4740 4dbb 253e f553 eb3f
000001b0: e0d6 eabd 7461 32c0 dc83 cb3f 482b 953e
000001c0: e537 5e3c 3f56 b43e 1d44 0e40 3e2e d83f
000001d0: 2370 14bf 271c 0abf c58c 553f 80a5 ae3d
000001e0: 1188 3240 173f 903e d9ff 72bf e357 dfbd
000001f0: 343a cdbf b652 6d3f 01ae 543f 7ea4 5fbf
00000200: 382a 2cc0 c8d7 3dbf 1849 0340 5418 a4bd
00000210: 20cf 3d3f a7b9 5ec0 5813 b23e 2d3d f53f
00000220: a548 43bf 7d28 fdbe 36f7 93bf b79e 433e
00000230: 829c 15c0 50e3 c640 d1df 0640 5f07 5e3f
00000240: d0f7 6fbf ddbe 9a3f 3da9 1b40 7094 8fbf
00000250: e754 2440 0f8c 0c40 fcf8 b6bf c0e3 92c0
00000260: f62f 26c0 18c4 233e 2676 823e 3fc6 17c0
00000270: e6dc 9140 5a15 25bf f853 f73e 953f c6bf
00000280: de86 22be f404 bd3f c0fa 2040 31c3 ae3e
00000290: c373 ab3f 1575 efbd 3ecf 07c0 5ca1 3fbe
000002a0: 73a2 503d bb18 1d3f 5e8c d7be 435d 5ebf
000002b0: fde6 283e dc0b 803d a71e 1c3e a700 d83f
000002c0: d48a 13bf b489 a93e b3b4 fb3f 478a 5dbe
000002d0: d5b2 0bc0 fc7a dd3e d4a9 c13f fd14 cdbf
000002e0: 7f3a f83e 8303 883e 632e a63f bcff fb3e
000002f0: 2f44 fa3f 85fa babf 313f 653f 7d71 87be
00000300: c0b5 893e 8cc6 9a3f a932 f4be 3c32 fc3e
00000310: f09f 88be 717d 01c0 7d70 59bf abd2 ae3f
00000320: 5a80 783f 906a 34be d7e9 5540 ee26 11be
00000330: 067d 30bf 0b8f c63e 8c7a 93bf d926 50be
00000340: ccc4 4b3f dd46 e43f c4a2 94be 72c4 cb3e
00000350: 29aa 0440 0c02 95bf 8770 7fbf 76a1 a93f
00000360: 3579 d2bf d97a c53e 9a01 bebe 9357 0240
00000370: 1eb4 633e 13bf 273f e255 f0bd 1f22 d1bf
00000380: a029 8bbd c1c0 3d3f 8dcf 7cc0 292c 93bf
00000390: fa50 91bf bc11 773c c253 d9bf 69bd 263f
000003a0: 574b 52bf 4c4b 0f40 3659 a2bf 157c 99bf
000003b0: 4bc2 683e 0550 273f 4965 c33f 9647 42be
000003c0: 9823 9440 26fc dc40 1935 513f 47fa 1dc0
000003d0: 5d6e 9b3f 6dee 4b3f d0d3 643f fa8e 6bbe
000003e0: a460 df3f 812d 0cc0 08c9 dcbf 04c2 263f
000003f0: 316f 213e 75de 223f da37 42bf bace 12c0

fcq_0_0.bias f4 [40]
3.4075801 -1.1350656 3.8944297 1.4595995 -3.455262 0.12702452 -1.3757337 1.1958643
-1.9149942 -0.21853353 -0.41444322 5.132731 2.879169 3.1913636 -2.3368468 -1.6556091
3.9852529 0.42449248 -2.2831748 -2.5176353 1.4072236 0.83824736 4.1956 1.0478057
0.012056892 0.60029507 2.0529647 0.66750455 -0.9231994 1.0907241 -3.6411362 1.0621399
-0.33390796 1.9268327 -0.35410288 1.0307906 -1.8235706 -2.59038 -1.036739 -0.55670404
00000000: cb15 5a40 d449 91bf 563e 7940 28d4 ba3f
00000010: 0323 5dc0 b712 023e 0b18 b0bf 1512 993f
00000020: 881e f5bf 41c7 5fbe e731 d4be 553f a440
00000030: 4e44 3840 4d3f 4c40 e68e 15c0 00eb d3bf
00000040: 620e 7f40 1457 d93e 891f 12c0 f020 21c0
00000050: e71f b43f 6197 563f 5b42 8640 7f1e 863f
00000060: 458a 453c f0ac 193f c663 0340 94e1 2a3f
00000070: cc56 6cbf d99c 8b3f 6008 69c0 33f4 873f
00000080: fcf5 aabe 74a2 f63f f94c b5be f2f0 833f
00000090: c36a e9bf c9c8 25c0 ddb3 84bf 2884 0ebf

fck_0_0.weight f4 [40, 50]
0.19002256 -1.1952639 -4.146166 0.8340079 -1.098102 2.1561036 2.4761722 0.16178977
1.1082032 -1.2007235 -1.9350907 1.4811505 -1.6550977 -0.2063748 -2.9989543 -0.3566824
0.54781765 1.8064057 -0.75384146 -0.053282175 -3.1299024 0.81151104 0.7223942 -0.27087724
1.8877177 1.902501 0.6391499 0.85037994 -0.2719348 -0.5472478 0.31667358 -0.47682685
0.1422169 1.5182781 1.824219 3.564328 0.78091 -0.92848575 -2.482602 0.216572
2.245443 3.9770236 0.19054866 -1.9213061 0.37120172 1.2500336 -0.27078515 0.093179755
-1.1749637 0.28614584 -0.7812555 -0.35117692 -7.096132 0.81275564 -0.4414317 3.5777066
-0.90959716 -0.117061675 0.18595129 1.2458975 1.6990447 1.2338747 -0.62229735 -1.3181213
-0.21698026 0.78999144 -1.1105009 0.102656245 -2.1749413 -2.5999713 -1.3123482 -2.383837
-0.35698366 0.22762516 0.98390704 -0.41724953 1.2830081 0.59776616 12.535894 -0.22108471
-0.5765081 0.39486343 -1.3071954 -1.0089256 -0.9282891 -1.1019146 1.0539589 -1.6496438
-0.28489524 -1.0226549 -1.4444176 -1.614176 0.5678766 -0.6825682 -0.73191154 0.8708189
0.4143677 1.4130832 2.093957 4.3360786 -0.7727335 1.1753614 -5.7218986 0.023731785
-1.6581768 -2.8443177 -0.59669757 -1.7620856 0.04009741 3.6420264 -1.1374497 -0.17968357
-0.057347808 -0.40505573 -1.0495849 -1.6271523 0.5256034 0.68500245 -0.7165856 0.15144894
-2.846741 -0.11321514 0.87374955 0.2469295 1.6597348 -0.1724134 -0.7881352 0.8624765
2.0147316 0.7354408 -2.0304573 -0.16443862 -0.73634654 3.447864 -0.32465532 -1.8110256
0.7172109 -0.5888632 1.106301 -0.182425 2.851656 -6.6294985 -1.172708 -0.9187351
0.9923999 -1.2361431 -2.3634105 1.096153 -2.596232 -3.6231656 0.917998 4.375081
2.322072 0.0021827305 1.3162639 2.069151 -4.481154 0.5608967 -0.3823289 3.2154317
1.8631978 -1.3077159 -2.3750606 -0.25122967 1.4376899 0.061249074 1.981881 -4.709747e-05
0.056459323 -0.43968904 0.06287785 0.9694259 -0.14037967 -0.3534275 -0.041708585 -0.8255757
0.4824393 -0.29501587 -2.2478797 0.1946165 2.0830903 0.26453024 -1.5255266 1.5374073
-0.57165927 -0.30573097 -1.1502858 -0.8004694 -1.7635003 1.3706155 -0.37953848 -0.09990113
-1.0433713 -1.0835211 0.4610075 -0.4889688 0.30689305 1.9715496 0.7907921 -2.8509622
-0.80118835 0.15167083 -3.2288902 -0.48055452 -0.7015708 0.038294747 1.3575587 0.25350982
-0.85907 -1.2796103 -0.13037573 0.24338561 -2.022847 1.0227216 -0.114179045 -1.281714
1.726113 -0.5612278 -1.101113 -1.9746519 1.9044125 -0.74266243 -0.0018227856 0.46962008
0.003982928 -3.549755 3.8814037 1.1073195 1.5071913 -0.030413345 1.7137367 -0.15426785
0.8240797 -2.214604 1.2815844 1.3023933 -0.21389355 0.39230102 -1.6533902 0.22112836
-5.1225543 -6.4586973 0.13681346 2.390647 -1.0511545 -0.7929337 -0.9440838 0.32991877
-1.6672426 3.7670574 1.128755 -0.70692426 -0.7114498 0.34513298 -0.53541934 2.404274
00000000: 4695 423e 68fe 98bf 64ad 84c0 8b81 553f
00000010: 9b8e 8cbf 9afd 0940 9b79 1e40 38ac 253e
00000020: 9ad9 8d3f 4fb1 99bf 0db1 f7bf 5796 bd3f
00000030: 3eda d3bf ea53 53be deee 3fc0 139f b6be
00000040: c73d 0c3f 4d38 e73f c1fb 40bf 693e 5abd
00000050: 5250 48c0 30bf 4f3f d4ee 383f 6cb0 8abe
00000060: bca0 f13f 2785 f33f 549f 233f 80b2 593f
00000070: 0a3b 8bbe 6f18 0cbf 0a23 a23e a622 f4be
00000080: 4fa1 113e f056 c23f 0280 e93f f31d 6440
00000090: b8e9 473f 3eb1 6dbf f3e2 1ec0 0dc5 5d3e
000000a0: 57b5 0f40 8e87 7e40 301f 433e 5ced f5bf
000000b0: 270e be3e 1a01 a03f 5aa4 8abe 07d5 be3d
000000c0: 3665 96bf b581 923e 5c00 48bf 76cd b3be
000000d0: 8313 e3c0 c110 503f 5603 e2be 25f9 6440
000000e0: 5cdb 68bf 08be efbd 046a 3e3e 9279 9f3f
000000f0: 4c7a d93f 9bef 9d3f e14e 1fbf 33b8 a8bf
00000100: 1330 5ebe e13c 4a3f e524 8ebf 703d d23d
00000110: 3d32 0bc0 ee65 26c0 07fb a7bf c990 18c0
00000120: 90c6 b6be 9216 693e 55e1 7b3f bba1 d5be
00000130: 9c39 a43f 3407 193f 0693 4841 0864 62be
00000140: 0996 13bf 8a2b ca3e 2e52 a7bf 7924 81bf
00000150: 5ba4 6dbf 8a0b 8dbf 20e8 863f 8727 d3bf
00000160: cadd 91be 5be6 82bf ade2 b8bf 529d cebf
00000170: 5c60 113f cabc 2ebf 8e5e 3bbf fded 5e3f
00000180: 0128 d43e e9df b43f 6403 0640 28c1 8a40
00000190: ddd1 45bf 3e72 963f cb19 b7c0 2969 c23c
000001a0: 233f d4bf 4d09 36c0 2cc1 18bf 058c e1bf
000001b0: 2f3d 243d f616 6940 f497 91bf f8fe 37be
000001c0: 89e5 6abd 7763 cfbe cc58 86bf 8746 d0bf
000001d0: f28d 063f 525c 2f3f 2772 37bf 6e15 1b3e
000001e0: 0131 36c0 57dd e7bd 0dae 5f3f 16db 7c3e
000001f0: 3172 d43f 238d 30be 3ac3 49bf 43cb 5c3f
00000200: 5df1 0040 d945 3c3f 03f3 01c0 9962 28be
00000210: 3581 3cbf cea9 5c40 3939 a6be b0cf e7bf
00000220: 229b 373f bdbf 16bf 459b 8d3f 9fcd 3abe
00000230: 8881 3640 da24 d4c0 4c1b 96bf 3932 6bbf
00000240: eb0d 7e3f f039 9ebf 1e42 17c0 be4e 8c3f
00000250: aa28 26c0 f2e1 67c0 eb01 6b3f aa00 8c40
00000260: d49c 1440 240c 0f3b 567b a83f f86c 0440
00000270: 9d65 8fc0 ed96 0f3f 9dc0 c3be a2c9 4d40
00000280: 447d ee3f 3c63 a7bf fe00 18c0 2da1 80be
00000290: 3906 b83f 4fe0 7a3d 47ae fd3f 868a 45b8
000002a0: e441 673d ec1e e1be 1ac6 803d 4c2c 783f
000002b0: b0bf 0fbe 73f4 b4be 9fd6 2abd ee58 53bf
000002c0: 4902 f73e 520c 97be 43dd 0fc0 8c49 473e
000002d0: 5a51 0540 8270 873e 7544 c3bf c3c9 c43f
000002e0: 4358 12bf c588 9cbe 913c 93bf 90eb 4cbf
000002f0: 61ba e1bf 5470 af3f de52 c2be f798 ccbd
00000300: 318d 85bf d2b0 8abf 2d09 ec3e 1e5a fabe
00000310: 1621 9d3e bd5b fc3f 5a71 4a3f 2a76 36c0
00000320: ae1a 4dbf 994f 1b3e 23a6 4ec0 3e0b f6be
00000330: 259a 33bf f4da 1c3d 7cc4 ad3f 0acc 813e
00000340: 03ec 5bbf 45ca a3bf 3781 05be 143a 793e
00000350: 5376 01c0 8be8 823f b4d6 e9bd 340f a4bf
00000360: 45f1 dc3f a0ac 0fbf 45f1 8cbf 65c1 fcbf
00000370: cac3 f33f 201f 3ebf 89ea eeba 0b72 f03e
00000380: 3983 823b 302f 63c0 eb68 7840 a5bc 8d3f
00000390: a5eb c03f 6825 f9bc b95b db3f 64f8 1dbe
000003a0: e3f6 523f 12bc 0dc0 f50a a43f d3b4 a63f
000003b0: e906 5bbe aedb c83e 4aa2 d3bf 796f 623e
000003c0: f7eb a3c0 a6ad cec0 d418 0c3e 5c00 1940
000003d0: 3b8c 86bf b4fd 4abf 7aaf 71bf 1deb a83e
000003e0: 3568 d5bf 7817 7140 0b7b 903f fdf8 34bf
000003f0: 9321 36bf 45b5 b03e 3e11 09bf a0df 1940

fck_0_0.bias f4 [40]
4.3153467 4.6017494 -0.41105542 0.30469477 0.5945168 4.170192 -0.74514997 -2.5124495
-3.7720807 -3.13121 4.439687 -0.79962975 0.48926392 3.2883039 -1.1344126 3.1948857
-1.0155017 1.468059 1.384959 -1.3025169 0.53665364 0.16666512 -3.4302227 1.6802626
0.9200075 3.7873592 -1.3678305 0.3876211 -1.0028747 -7.5985694 -0.5016436 1.809873
4.8688316 3.226945 5.5746236 -3.8887806 -2.2037463 -1.2345023 1.6216733 -1.6301016
00000000: 5217 8a40 8841 9340 db75 d2be f400 9c3e
00000010: 4132 183f 3672 8540 26c2 3ebf f9cb 20c0
00000020: c569 71c0 bf65 48c0 ea11 8e40 89b4 4cbf
00000030: cd80 fa3e 9273 5240 6f34 91bf 0279 4c40
00000040: f6fb 81bf 5be9 bb3f 5646 b13f e0b8 a6bf
00000050: 2262 093f 43aa 2a3e c588 5bc0 d812 d73f
00000060: 9d85 6b3f 1864 7240 1215 afbf 4676 c63e
00000070: 335e 80bf 7b27 f3c0 b76b 00bf eba9 e73f
00000080: 78cd 9b40 4486 4e40 5163 b240 c8e1 78c0
00000090: 2e0a 0dc0 2c04 9ebf fe92 cf3f 2ba7 d0bf

fcq_1_0.weight f4 [40, 50]
0.2597542 0.34905598 -0.063001096 0.012410691 0.29816645 0.5071508 -0.7465452 0.5780431
-0.920392 0.16305962 -0.20015173 -0.225422 -0.25896537 0.09073282 0.006652074 -2.79103
-0.23653832 -0.023791866 0.013513344 -0.116322264 0.013337983 0.2834918 2.5996523 -0.24362758
0.22141403 -0.059586827 0.00035286142 -0.17918523 -0.377567 1.3977914 0.49300602 -0.056064643
-1.6554859 0.36509496 -2.8082538 1.9000714 -0.3363396 -0.07040042 0.6351617 0.37969458
-0.71090835 -1.154274 0.1364563 -2.7411797 1.2578591 -0.19252895 0.419573 -1.6449867
0.99510276 -0.46114376 1.0526104 -0.30917618 -0.21884976 -0.59612465 -0.54042584 0.4867589
0.08509905 -0.011818023 -0.42651227 -0.23236743 0.38172293 0.26734006 -0.25648326 -0.4903621
-0.43656957 0.14586757 0.41828486 0.67550826 -0.752529 0.55075324 -0.5289448 -0.13244759
-0.2856113 0.36036456 0.6412254 -0.1334699 0.40511948 -0.35994956 -1.4064534 0.16221869
0.30765423 0.13780646 0.38757494 0.10981071 0.0016587237 0.38874507 -0.041681066 -0.6561572
0.078584254 0.009658006 0.36453232 -0.70051885 -0.48603556 -0.20554927 -0.48372853 0.08626368
-0.26667184 -0.10071303 0.44392315 0.1972326 -0.22462165 -2.2263718 0.59012896 -0.86097026
-0.030104496 0.045066297 0.047646064 1.6142919 -3.0888488 0.15541065 -0.2752179 0.48337305
-0.62722 2.2146208 -0.37114677 0.56749547 -0.9378732 -0.0663088 -0.1393605 0.10943509
-0.06395531 0.022388387 0.74691385 -0.20527641 1.5911852 -0.06542669 0.022891376 0.4103341
0.069890365 -1.3707939 1.8472471 -0.048122954 -0.8306086 -0.2343388 1.4376882 -0.045284517
-0.055301037 -0.078743055 0.054638553 -0.2951872 0.19478121 -0.6649845 0.3625553 1.9739892
0.49170926 -0.84749496 -0.8237934 -0.6702978 -0.48394656 -0.33050218 0.24796154 0.088980705
-0.31658602 -0.008385404 -0.4178735 0.74083 0.31630424 -0.7001245 -0.29981866 0.05239833
0.29107293 0.034071043 1.2252784 -1.4046983 -0.07861339 -0.6525282 -0.4849049 0.051249318
-0.0018587842 -0.03510161 -0.056541346 0.29915887 1.5792892 0.1535635 -1.5210494 0.15082876
-0.2840268 0.03091978 0.31673098 0.9018286 4.168802 -0.15083212 -0.39208353 0.5437237
-0.6868185 0.30837747 -0.3116662 -0.097327955 0.5099192 -0.123857334 -0.26104248 1.1762637
-0.124588504 2.664455 0.1681626 -2.5371408 0.18865669 -0.8751329 -0.70403075 0.11877295
0.2810172 -1.6495075 0.05475813 -0.004259579 -0.071525775 -0.921799 0.33492598 -1.0497004
-0.17814058 0.056408644 -0.02939923 -0.015784694 3.832608 -0.43435052 -0.057186972 -1.4292871
0.3658438 -0.13679343 -0.14760369 0.026694905 0.04962045 0.4900636 1.0741354 0.06078917
0.39379817 0.022897134 -0.10310905 -0.6843406 -0.053393412 -0.5055554 -2.3023312 0.0062294207
1.4853463 0.13173386 1.1649604 0.7110362 -0.46524695 -0.079331875 0.1269402 -0.13153897
-0.26537055 -0.39362183 0.12143894 0.71454716 -2.0679584 -1.9080617 2.4519062 -1.6490661
-0.22152379 -0.09818484 -0.69140536 -2.330986 -0.13684253 -0.07177229 -0.053914323 -0.1948039
00000000: 81fe 843e 77b7 b23e b806 81bd 3656 4b3c
00000010: 46a9 983e a3d4 013f 961d 3fbf a2fa 133f
00000020: cf9e 6bbf 1af9 263e 93f4 4cbe 06d5 66be
00000030: 1c97 84be 21d2 b93d a4f9 d93b 3ca0 32c0
00000040: 1a37 72be 29e7 c2bc 1367 5d3c 5e3a eebd
00000050: 8e87 5a3c d625 913e b460 2640 8279 79be
00000060: 5cba 623e 5111 74bd 4200 b939 557c 37be
00000070: 7650 c1be d4ea b23f 496b fc3e 0aa4 65bd
00000080: f6e6 d3bf baed ba3e 6eba 33c0 8a35 f33f
00000090: b434 acbe 182e 90bd f599 223f 5467 c23e
000000a0: 17fe 35bf 40bf 93bf 33bb 0b3e 7d6f 2fc0
000000b0: 8701 a13f 4f26 45be 46d2 d63e ed8e d2bf
000000c0: 0ebf 7e3f 091b ecbe f0bb 863f 574c 9ebe
000000d0: 271a 60be a09b 18bf 5959 0abf 7638 f93e
000000e0: 6948 ae3d 62a0 41bc d15f dabe baf1 6dbe
000000f0: 3071 c33e cce0 883e c651 83be be10 fbbe
00000100: 0c86 dfbe 4f5e 153e 6f29 d63e 1cee 2c3f
00000110: bea5 40bf 2afe 0c3f ed68 07bf 57a0 07be
00000120: a53b 92be b481 b83e 5927 243f 55ac 08be
00000130: d26b cf3e 4f4b b8be aa06 b4bf a81c 263e
00000140: db84 9d3e 231d 0d3e 3970 c63e 70e4 e03d
00000150: 8869 d93a 9809 c73e c4b9 2abd ebf9 27bf
00000160: c8f0 a03d 9d3c 1e3c fba3 ba3e 3455 33bf
00000170: a7d9 f8be 827b 52be 44ab f7be 03ab b03d
00000180: 3689 88be a242 cebd e549 e33e 58f7 493e
00000190: 3803 66be e07c 0ec0 b112 173f 8c68 5cbf
000001a0: b49d f6bc 7097 383d 8528 433d 1ea1 ce3f
000001b0: b3af 45c0 f823 1f3e 5ce9 8cbe ac7c f73e
000001c0: 7d91 20bf 59bc 0d40 f306 bebe 6247 113f
000001d0: 7518 70bf e8cc 87bd 85b4 0ebe 811f e03d
000001e0: 00fb 82bd da67 b73c bf35 3f3f fb33 52be
000001f0: f5ab cb3f 6efe 85bd b286 bb3c 5017 d23e
00000200: ae22 8f3d 2d76 afbf 9872 ec3f 931c 45bd
00000210: c4a2 54bf 83f6 6fbe 2b06 b83f 427c 39bd
00000220: 5783 62bd 0a44 a1bd adcc 5f3d c722 97be
00000230: ba74 473e 6d3c 2abf d9a0 b93e aeab fc3f
00000240: 51c1 fb3e 6ef5 58bf 20e4 52bf a398 2bbf
00000250: d8c7 f7be 9537 a9be a1e9 7d3e 843b b63d
00000260: 9017 a2be ef62 09bc 84f3 d5be 09a7 3d3f
00000270: a1f2 a13e 5c3b 33bf d581 99be a29f 563d
00000280: 8307 953e 148e 0b3d ecd5 9c3f 27cd b3bf
00000290: 0f00 a1bd 170c 27bf 7445 f8be ceea 513d
000002a0: 73a2 f3ba b5c6 0fbd e697 67bd 5a2b 993e
000002b0: 2626 ca3f c03f 1d3e bfb1 c2bf db72 1a3e
000002c0: f66b 91be 7a4b fd3c 902a a23e 3dde 663f
000002d0: d366 8540 bc73 1abe 2cbf c8be 7a31 0b3f
000002e0: 56d3 2fbf a7e3 9d3e b692 9fbe e153 c7bd
000002f0: 118a 023f eaa8 fdbd 5ca7 85be cf8f 963f
00000300: 4228 ffbd 6e86 2a40 d132 2c3e 8460 22c0
00000310: 382f 413e b608 60bf 5c3b 34bf 3b3f f33d
00000320: 7de1 8f3e 1023 d3bf 104a 603d f093 8bbb
00000330: 1b7c 92bd 05fb 6bbf 6b7b ab3e 955c 86bf
00000340: 7c6a 36be c00c 673d a7d6 f0bc e74e 81bc
00000350: 7349 7540 3163 debe e33c 6abd e1f2 b6bf
00000360: e14f bb3e 9413 0cbe 6c25 17be 46af da3c
00000370: d03e 4b3d 9ee9 fa3e 457d 893f 11fe 783d
00000380: ea9f c93e c592 bb3c d62a d3bd f230 2fbf
00000390: 0db3 5abd 146c 01bf 6559 13c0 2b20 cc3b
000003a0: d41f be3f 3ee5 063e 6c1d 953f 7806 363f
000003b0: d934 eebe c078 a2bd 9dfc 013e 27b2 06be
000003c0: a6de 87be cd88 c9be fbb4 f83d 90ec 363f
000003d0: 6e59 04c0 5e3b f4bf 08ec 1c40 9914 d3bf
000003e0: 22d7 62be 2215 c9bd f1ff 30bf e02e 15c0
000003f0: 7320 0cbe 5afd 92bd 44d5 5cbd ac7a 47be

fcq_1_0.bias f4 [40]
-0.2829017 0.95962435 -0.34801802 0.11806757 -0.14106108 -0.43452027 -0.2722432 -0.08177972
0.6087917 -0.015980737 -0.1869328 -0.19805859 0.66617143 0.23365302 -0.32333344 -0.5707069
0.78684825 0.29341945 -0.46713033 -0.07760801 -0.5730896 -0.065722756 -0.35490668 -0.029471206
0.20945589 1.8404052 0.34746408 -0.29590765 0.051065188 -0.7227488 -0.4741641 0.09119921
0.0031359082 0.068135716 -0.07379572 -0.0056816014 -0.5219841 0.8087006 -0.23255602 -0.1051985
00000000: 7ed8 90be f1a9 753f 6b2f b2be 69cd f13d
00000010: 5172 10be 7179 debe 7663 8bbe 207c a7bd
00000020: c6d9 1b3f 09ea 82bc 506b 3fbe dfcf 4abe
00000030: 368a 2a3f bd42 6f3e f68b a5be d919 12bf
00000040: e36e 493f 133b 963e b52b efbe f3f0 9ebd
00000050: 00b6 12bf a799 86bd 54b6 b5be 996d f1bc
00000060: 9b7b 563e 6692 eb3f d0e6 b13e 3581 97be
00000070: bb29 513d 1106 39bf a3c5 f2be a7c6 ba3d
00000080: cf83 4d3b bd8a 8b3d 3622 97bd ba2c babb
00000090: c0a0 05bf 0107 4f3f 2a23 6ebe 5072 d7bd
