best_model_dk10_diverse_synthetic.ckpt (torch, 158615 bytes, 26 tensors)

kernel.layers.0.weight f8 [32, 1]
0	0x3ce7997a40a3f105	2.6200732333873646e-15
1	0x3d7748af76213e50	1.3235380338968585e-12
2	0xbfede66fb149c342	-0.9343794310244464
3	0x3d335420b1355db6	6.866906632189319e-14
4	0x3d91295d26915983	3.9020909789999604e-12
5	0x3d86011614f1e73e	2.5015928249302725e-12
6	0x3dc8a7cd16e5ab57	4.4848044429334637e-11
7	0x3d4b669ff95c4890	1.946949517908358e-13
8	0x3d02c1a4f719fd6d	8.329525256114307e-15
9	0x3df64ee9cef77a2c	3.246278376031648e-10
10	0x3d5c80aa5e9ac2a7	4.0504630239027773e-13
11	0x3cfbafb806886edb	6.147616139835756e-15
12	0xbff0596f377162fb	-1.0218345800150803
13	0xbfe83fd0e6e03261	-0.7577900418560369
14	0x3d4daeb490095872	2.1090644016848624e-13
15	0x3d502a6547bbee69	2.2972710543998083e-13
16	0x3cdb7cee0a1ad6cf	1.52589092439716e-15
17	0x3d2653fd11d4785e	3.96626381273914e-14
18	0xbfa9b6b2b690f82d	-0.05022200087158555
19	0xbfc45116f6d7c202	-0.15872466137763303
20	0x3cde4ca0b421268a	1.681950531229577e-15
21	0x3d6ddbf066926659	8.486477148930796e-13
22	0x3d22b2f2f35e998b	3.3216131414994856e-14
23	0x3da088a16d9ed1a4	7.518662277526915e-12
24	0x3ccf86b9712ad3fa	8.750296909630112e-16
25	0x3ce08c64c129ed9c	1.837242845899573e-15
26	0x3fb5821270137c90	0.08401599155648598
27	0xbfed32fa40c460d5	-0.9124728455526802
28	0xbfd0bfe4962d03ee	-0.26171221414193624
29	0x3d04d24de8432171	9.246604047181903e-15
30	0x3d5a57e78b5ba33c	3.743619009335235e-13
31	0x3d508d338b409c25	2.352119245803548e-13

kernel.layers.0.bias f8 [32]
0	0xbcf984bf95678904	-5.66625598306318e-15
1	0xbd89377a1a24a328	-2.8668076629988584e-12
2	0xbfeafa4da7399ed4	-0.8430546060671653
3	0xbd44fde07865d222	-1.491550449018631e-13
4	0xbda2b5fc6058357a	-8.508724116576278e-12
5	0xbd97dfe73a3ca7af	-5.428460554290991e-12
6	0xbddae426c2a9358a	-9.782967549356739e-11
7	0xbd5d1ff92ce834f9	-4.138896637349748e-13
8	0xbd1458f6f7881c1f	-1.8072226751672796e-14
9	0xbe0933f307d8b7bd	-7.335017174317393e-10
10	0xbd6e9db88b9dd8d4	-8.701618181983332e-13
11	0xbd0df7af3b61e090	-1.3308251202181505e-14
12	0xbfed1ab4567e10bb	-0.9095098199182056
13	0xbfe5af57c1edc738	-0.6776541507408416
14	0xbd600e2c0624233a	-4.563207554827091e-13
15	0xbd61d438813e7b12	-5.067302935155484e-13
16	0xbcedf8253970237a	-3.3272626874546865e-15
17	0xbd388e5d9bd71782	-8.724084870047023e-14
18	0x3fc6e750bf2223ff	0.17893418629344635
19	0x3fd7ed15210c6049	0.37384536960008014
20	0xbcf082c73c57ef96	-3.6661457416045744e-15
21	0xbd805bbd3127358a	-1.8597297174539443e-12
22	0xbd34593178473038	-7.229207845610214e-14
23	0xbdb1e49e191c2232	-1.627362270059016e-11
24	0xbce1138031230987	-1.895836243968644e-15
25	0xbcf1e9eaf523ea5d	-3.977649635920248e-15
26	0xbfcf4fc896bfdc7b	-0.24462230072797184
27	0xbfea596e0fbde582	-0.8234167392212586
28	0x3fb9e33666d51981	0.101123237710544
29	0xbd16bd8a026b938b	-2.019752108419491e-14
30	0xbd6ccde809e31760	-8.186680667670918e-13
31	0xbd61f29a4d2e8af8	-5.101033751176906e-13

kernel.layers.2.weight f8 [64, 32]
0	0xbd276eebcc51b1f9	-4.162587695652741e-14
1	0x3d95d217f6784a97	4.961447790014647e-12
2	0x3fdb6c267bf86bff	0.428475972237436
3	0xbd70cf8c2bf99a19	-9.555795146288492e-13
4	0xbdc34577eb006082	-3.5054401547454714e-11
5	0xbdc08e88a5ea346e	-3.011659388832221e-11
6	0xbdfb40e95b02ff16	-3.965915053060147e-10
7	0xbd237674cf700c4b	-3.4572735578885505e-14
8	0xbd4ac3db84a18be7	-1.901772487416819e-13
9	0xbe27a8821a501f56	-2.7541810659405124e-09
10	0xbd8de1a8aadbebec	-3.397130957473177e-12
11	0xbd37e35e4727f811	-8.486778326289249e-14
12	0x3fde2b1e254e8bcd	0.47138169902080734
13	0x3fc807e30fecf40a	0.18774069097153784
14	0xbd7dffa336830187	-1.7052220858755737e-12
15	0xbda612c145daa2eb	-1.0037757242532646e-11
16	0xbd15afc64236e6b1	-1.926158693603561e-14
17	0x3d469476d96a411f	1.6044011272282835e-13
18	0x3fc4081ca4035915	0.15649755485964847
19	0xbfc29624af632902	-0.14520700992427044
20	0xbd10565a0ec0dd35	-1.451044766155125e-14
21	0xbdb0626afc4d5bf7	-1.4901565891725758e-11
22	0xbd53f9e74dc893c3	-2.838786722709813e-13
23	0xbdc4b7218431ff47	-3.7681011543996734e-11
24	0xbcf9725009985b01	-5.650265538790184e-15
25	0x3d1a8cacb2f8f2c3	2.3580701994870443e-14
26	0xbf44a731725b3f37	-0.000630282539271199
27	0x3fd5a481033a8cc5	0.33816552462867505
28	0x3fc920332447102b	0.19629515906683656
29	0xbd3c75f29861f728	-1.0111283529450251e-13
30	0xbd8d922a48f389a9	-3.361828671288333e-12
31	0xbd843ca96af881c1	-2.3006760001526253e-12
32	0x3be660dd778c97a0	3.791044917711857e-20
33	0x3bdaca190e91323b	2.269154241643571e-20
34	0xbd365cdacce29d15	-7.944831860174073e-14
35	0xbbd702c6e5607607	-1.9490945902338432e-20
36	0xbbfc8fbd4838295f	-9.677006498957665e-20
37	0x3bbaad0383a1d822	5.648827758079425e-21
38	0x3bebf2614cd007b4	4.734371596495897e-20
39	0xbbf1928bcc64b1ec	-5.953776173269412e-20
40	0xbc11e895e2b91e4d	-2.4270593501165133e-19
41	0x3c33dd9dd7bb2b5e	1.0769211986180777e-18
42	0xbc360a68557ffa79	-1.1948262751510235e-18
43	0x3bd45e3affd90eea	1.7252441404853238e-20
44	0xbd3cf12e394bf25e	-1.028230356661352e-13
45	0xbd33dba20693c2fb	-7.0549578857493e-14
46	0xbc112eab844ff2ec	-2.3286365022873757e-19
47	0xbbfbe21ecd734cbb	-9.447223585248048e-20
48	0xbbbe02b7ab43d826	-6.354994932191784e-21
49	0xbc24599999cf446c	-5.515878555906885e-19
50	0x3d2389e48dba2d3d	3.4707603371779795e-14
51	0x3d35ab6d6a013859	7.698602031916919e-14
52	0x3baa1942d4abd840	2.7633048071286207e-21
53	0x3c290fdad5a5a891	6.793050524318218e-19
54	0x3be1b9a6bc071c82	3.002765749860607e-20
55	0x3be7d8efdd11a35e	4.0399083999643764e-20
56	0xbbd12d4eb21c2961	-1.4549469732211536e-20
57	0x3bb1664ae19a6418	3.684504402718324e-21
58	0xbcc85d1574ccf127	-6.76225982055464e-16
59	0xbd35cc1fce433df7	-7.743978015879013e-14
60	0xbd146d136b8aa6d5	-1.8142001302986746e-14
61	0xbc01eecda8389fe7	-1.215175528189829e-19
62	0x3c5b2c1f36e80f20	5.892064461146501e-18
63	0xbc101f8349806c6b	-2.1850871037163073e-19
64	0x3c5a57e3dc1ce9f9	5.712297088225083e-18
65	0xbc72fb28f17ed0c5	-1.646347424344478e-17
66	0xbd921bd7a9043923	-4.117455197005414e-12
67	0x3c67beb6731bebce	1.029773985729479e-17
68	0x3c6e993112d26023	1.3269942893017585e-17
69	0xbc255bc5a9dfd6a4	-5.7892289206708875e-19
70	0xbc76180ea5f2a9f2	-1.9163467266444144e-17
71	0x3c6d82c151a04faa	1.279825304397197e-17
72	0x3c8bbee34350f179	4.813103953150026e-17
73	0x3ca2820bd7f5764f	1.284250013196918e-16
74	0x3cd6607b6817c0da	1.2421665382660455e-15
75	0x3c6399fc88a45a74	8.500799720977605e-18
76	0xbd8c890cc3bc4d48	-3.244093820992126e-12
77	0xbd92ffd0e9a50b13	-4.31993646644386e-12
78	0x3c46bae0f45f9454	2.4643909997029896e-18
79	0x3c80f0d2c329324c	2.938745770724008e-17
80	0x3c5aeac1f3830d85	5.836698737332885e-18
81	0x3ca75e55fd29d751	1.6215153932621716e-16
82	0xbdac816ce82e66f1	-1.2962831550930865e-11
83	0x3db121df2ab935c0	1.5581746544265636e-11
84	0x3c44f6a42489fd8e	2.272860948852121e-18
85	0xbcc2c618d5e0d9a4	-5.210780823239015e-16
86	0x3c7859b1070522fe	2.112056837936783e-17
87	0xbc711252056566b9	-1.4807221457940602e-17
88	0x3c62dbc05c2c4ccb	8.178529004831312e-18
89	0xbb809b38a8b58ca1	-4.395659823913879e-22
90	0x3d7610d9b3542cc2	1.2542967537033552e-12
91	0xbd927555614e3d50	-4.196939254811107e-12
92	0xbd9d1f7d866b285b	-6.621805621444945e-12
93	0x3c899d466f30e259	4.4433824662618856e-17
94	0xbcd8da6d17d7ec95	-1.3796312497531771e-15
95	0x3c4906db8ed15633	2.713409758101716e-18
96	0xbbda21131b22469e	-2.2132291408624524e-20
97	0x3c83b505028df030	3.418638236420512e-17
98	0x3dcc937b662284bd	5.197962613013337e-11
99	0x3c33d2426aeabe5f	1.0745162329798621e-18
100	0xbc488a8f01205e89	-2.6607670682604115e-18
101	0x3c75cd9599497286	1.891114343783251e-17
102	0xbcb0c2540104af62	-2.32579154532352e-16
103	0x3c34cb2f4bdd7bad	1.1272282171810301e-18
104	0x3c013095b8b4772b	1.164825110881076e-19
105	0xbc8944453fc89d62	-4.383070583259402e-17
106	0x3c88613927d6fd4f	4.229217388728905e-17
107	0xbbede58b5d634c3a	-5.064690831849862e-20
108	0x3dd04e388a9e97c1	5.931924626403539e-11
109	0x3dc80dcad20b31fe	4.3753745640010734e-11
110	0xbc71879430d00c1a	-1.5204508624567358e-17
111	0xbc487fab8fd5afa6	-2.6561556313953886e-18
112	0x3b7e690df723b270	4.0247788708306863e-22
113	0x3c406c8edd55575f	1.780699604755848e-18
114	0x3d8bfd98bdeac382	3.182164153472007e-12
115	0x3dc011b3ba9a4d65	2.92296112013581e-11
116	0x3bd99c480a2c0c7f	2.1692915475337796e-20
117	0x3c6143d7e9c43bf1	7.487505981210518e-18
118	0x3c0c2ecb01d8f469	1.9097398050087585e-19
119	0xbc78daf695767d40	-2.1558557951666613e-17
120	0x3bdb2ba3fabfcb28	2.3014284026446924e-20
121	0xbc008891a030ecc8	-1.1203516462365902e-19
122	0xbd12fd3097ed2338	-1.686564019766235e-14
123	0x3dcbe60bc0327ef2	5.0747288337385676e-11
124	0xbdcdc2f66dc223ba	-5.413598538183086e-11
125	0x3c2ae5e302cd7b14	7.290716197581973e-19
126	0x3c7cc737ebfbf639	2.4961107008727298e-17
127	0xbc72211a586106d6	-1.572466830905141e-17
128	0x3baac52daa7a0b1a	2.834408146193407e-21
129	0xbc16bd4845cf874a	-3.081761197665816e-19
130	0x3d42b4d5bb5cc773	1.329168689049759e-13
131	0x3be198bedaf6b654	2.980990532608324e-20
132	0xbbd07bec4852fffe	-1.3962553897393593e-20
133	0xbbd16dedfa9ba9e5	-1.4763286656075812e-20
134	0x3c046a47c61189e1	1.3833848942563848e-19
135	0x3be4f2f34d54dda7	3.5489028767338e-20
136	0x3b97e0dd88cb5818	1.2641109300060636e-21
137	0xbc27f13f52c4833f	-6.489593066228106e-19
138	0x3c07195a0410027d	1.5652511420757092e-19
139	0xbba15f9be11d073f	-1.8394879286826428e-21
140	0x3d44ef2b78e22bab	1.487468429896417e-13
141	0x3d3f36f4ceacdd77	1.1089679561612927e-13
142	0x3c04f2dcf0c17606	1.4195380293159963e-19
143	0xbbcfe51d9020c7d8	-1.3508050449401945e-20
144	0x3bab99565c185d44	2.922155035539338e-21
145	0x3beeefb55345a4ae	5.240823331512685e-20
146	0x3d324ce4bc936c03	6.501595792906233e-14
147	0x3d425d9b7670f0d7	1.3049581626453378e-13
148	0x3b92e691576c4a1e	1.0005923568084606e-21
149	0xbc33a71f8715bf24	-1.0653817684910928e-18
150	0xbb879d73dc36fa22	-6.250851459281017e-22
151	0x3bf6db27d2188fa8	7.743939890604494e-20
152	0xbbb29df6cfe046b5	-3.9423131114500405e-21
153	0xbbe9ed5ee2030660	-4.392243446852631e-20
154	0xbcd46f3327d95a6c	-1.1343356433840447e-15
155	0x3d423f9c04103fe2	1.2966320897544194e-13
156	0xbd4a54a9d45199a3	-1.870909925865424e-13
157	0x3bb16790f85c2757	3.685558052761898e-21
158	0x3bf203f10d41760e	6.103853895665759e-20
159	0x3bfcd26a153de348	9.765250131195508e-20
160	0x3bfb991b2f4c292d	9.350590186193265e-20
161	0xbc1078d0bc9658b0	-2.232363473329612e-19
162	0x3d5d6cc6fed3f6d0	4.181531413275634e-13
163	0x3bce313f31a98419	1.2786966290451911e-20
164	0x3c2eebf19030f341	8.381331304070026e-19
165	0xbc46f96175fc5569	-2.4908616169046805e-18
166	0xbc4222fb38deef45	-1.9663790827639124e-18
167	0x3c104389f47e46cb	2.2041591339979703e-19
168	0x3c19e66ccd1ea6a8	3.5101177708943836e-19
169	0xbc3476025886e4c8	-1.1091915848366645e-18
170	0xbc6bf77ee5c2c4fb	-1.2128657476022473e-17
171	0x3bfd08036861e836	9.836187717613828e-20
172	0x3d5dcfb402a6df23	4.2364462857013575e-13
173	0x3d57425046c0b4e0	3.3053080159558764e-13
174	0x3c11c44c80df5dce	2.407849357910701e-19
175	0xbc41391e7dbd9dcd	-1.8673345756390163e-18
176	0x3c16a7a22c433aa1	3.070300403903432e-19
177	0xbc448779980eaa6d	-2.2257802292661043e-18
178	0x3d68d9590791c054	7.062514763843649e-13
179	0x3d7a09b9fd3e0dec	1.480088611765487e-12
180	0xbbc4bf19deed3ed2	-8.786479652713722e-21
181	0x3c401278287dd247	1.7425455575192285e-18
182	0xbbe2b3d448c3224d	-3.16831961569978e-20
183	0x3c46fea95f68c727	2.4930981673845267e-18
184	0xbc059bf2c72c35b1	-1.4642945363572577e-19
185	0x3be02e18bd479b7d	2.741009627538369e-20
186	0xbd0dd830c02c7c30	-1.3253617703911888e-14
187	0x3d5cb77507fb0b09	4.0808784979167504e-13
188	0xbd77dd8d3fbc106b	-1.3565930054333834e-12
189	0x3c2f0c26802a05a6	8.415431565891355e-19
190	0x3c419beb02791fa6	1.909177537507753e-18
191	0xbbf4280aaebb5d57	-6.829258364708559e-20
192	0x3bb087036b72d810	3.499812221426779e-21
193	0xbc004b311a02a137	-1.1041052770539497e-19
194	0xbcf119e22a9b8568	-3.797208608865185e-15
195	0x3be845902083f570	4.111791076231499e-20
196	0x3bb6ef51b1c8eed9	4.856641345375361e-21
197	0x3baddb24f5de126a	3.1611304236500854e-21
198	0x3b927fff901d9096	9.793814922175134e-22
199	0x3bc4591d3801c9e8	8.617756443500095e-21
200	0xbbc24607df885991	-7.73915269024243e-21
201	0xbbff7aa80276d1a5	-1.0665542790929695e-19
202	0x3c430b687f4a3a08	2.064815685091777e-18
203	0x3bb3fdd59ce089f7	4.233373414620324e-21
204	0xbceff5fa40dc499a	-3.548367134925964e-15
205	0xbce8bd3de83043de	-2.7466058178546855e-15
206	0x3b81e076543ef346	4.731951031173748e-22
207	0x3be1b97d3a5df482	3.0026584581054594e-20
208	0x3baec68d279c838b	3.2584924806152213e-21
209	0xbbe06d55d6e798bc	-2.782857470461262e-20
210	0x3cfab4d1609f32ae	5.929994239212394e-15
211	0x3cb7a92a186345ed	3.2835954195628473e-16
212	0xbb90efc3d677c21e	-8.966151853409678e-22
213	0xbc3287308e76f282	-1.0044094822042611e-18
214	0x3bc655a184c65e23	9.459026913754576e-21
215	0xbbcac74a392d762d	-1.1341125855258795e-20
216	0x3bea4eb1f1e01d60	4.4566473725398776e-20
217	0x3ba4b4d7f11c88e7	2.192377496126572e-21
218	0xbca08aeef65765ba	-1.1478810107218487e-16
219	0xbcf0b5aa49842465	-3.71028310875908e-15
220	0xbcd7adc84ba44f53	-1.3144395303542183e-15
221	0x3bd76c96f13ec892	1.9841050695804947e-20
222	0xbbe5b026a58014a5	-3.674105307539391e-20
223	0x3bd0b060f11edd14	1.4136115251702338e-20
224	0xbbeb760f4e04ae16	-4.652103326872763e-20
225	0xbc335cf3c0b195dc	-1.0496754491638306e-18
226	0x3de2c3838d63b536	1.3652407563376724e-10
227	0x3c111a9c4f7c4ccf	2.3180171444426104e-19
228	0xbc988647100da080	-8.508652751423362e-17
229	0xbc916f80e01647d4	-6.049175130122552e-17
230	0x3cfb308ba00de9ec	6.037310765019655e-15
231	0x3c63dbde47838c21	8.612407863144986e-18
232	0xbbf7c28af39ba1e7	-8.050178339777503e-20
233	0xbccc0e6521ea6a02	-7.787168315517116e-16
234	0x3c7641c6e516c3d5	1.930481915383143e-17
235	0xbc02a305297d3c17	-1.2628785222493237e-19
236	0x3dd8e608e3f05f0e	9.058048147028847e-11
237	0x3dd94382c00ed256	9.190885553878925e-11
238	0x3c6b7d925a654e83	1.1922110183287319e-17
239	0xbc396b46d7f1b9a2	-1.3779694473422794e-18
240	0x3b5e59e632850587	1.0042359354145715e-22
241	0x3c12e0a83c0f276f	2.5583874017195766e-19
242	0xbe07e116a228d4ae	-6.949776902567387e-10
243	0x3dff20edfeb9b992	4.5298120699342733e-10
244	0x3bc57f09b5af41b3	9.104012569259444e-21
245	0x3c63ebbc9805dc8c	8.639290005440406e-18
246	0xbbddfdbcb007db8a	-2.5403500980606618e-20
247	0x3cc620e1933223ad	6.141876452174739e-16
248	0x3b7f0900388df51d	4.1074691753451374e-22
249	0xbbe1c05996167ede	-3.0071985378608645e-20
250	0x3db182572d3b405d	1.592447252792499e-11
251	0x3de28788aac466db	1.348193409200064e-10
252	0xbdeed5d58a0d00c4	-2.243562601545912e-10
253	0x3c07f7b44a2be0bc	1.6241073937778188e-19
254	0x3c6dc9d56c73b70b	1.2918664764810668e-17
255	0x3c7343041271dfe1	1.670693174477799e-17

kernel.layers.2.bias f8 [64]
0	0xbf9969b3c639f4d4	-0.024817284559038935
1	0xbd3958a6baf95725	-9.004812576841342e-14
2	0xbd8b8a0510e228bb	-3.13083771746692e-12
3	0xbdb25dcf6973d69d	-1.67041854227085e-11
4	0xbd329c46ddd75ac8	-6.611762280073927e-14
5	0xbd65970965661961	-6.136243406144357e-13
6	0xbcd95e8c2bfe6d92	-1.408280511800259e-15
7	0xbdc79b0f57588838	-4.2938523325670794e-11
8	0x3fb36a91b72bf464	0.07584486696210174
9	0x3fbc75e70e9ac467	0.11117405039364457
10	0xbd4b2d4cdbcddcae	-1.9310387258511913e-13
11	0xbd13b6f36d42f6af	-1.7510128367916565e-14
12	0xbda40a03120eac85	-9.112731892249634e-12
13	0x3fbf77b0fba7c9d6	0.1229200949090122
14	0x3fb8044a75bc3932	0.09381547331233689
15	0x3da42ccc2861dfac	9.174523347584246e-12
16	0xbc79110fa7fb5af1	-2.1741848897928824e-17
17	0xbd83463d4d1706a7	-2.191242501914032e-12
18	0xbe7752860e63a993	-8.688255412654527e-08
19	0x3e2eee3c5de0375e	3.6007967571239144e-09
20	0xbd15f441c6dfb501	-1.949918331253871e-14
21	0x3d8c19bd0145a82f	3.194661557808528e-12
22	0xbd819f0a211fe8b6	-2.0033039973297152e-12
23	0x3fc4937e1c069fa3	0.16075111740542267
24	0x3fba24940a6496c4	0.10212064031346829
25	0xbd3026d650654c3a	-5.738239278520105e-14
26	0x3fc9e293922b6fcf	0.2022270644873729
27	0xbd76cbb47f96bdc8	-1.2957868271381777e-12
28	0xbc40e4645448b3a3	-1.831451212758834e-18
29	0x3fc569bbd59a61af	0.16728923730694364
30	0xbe4eca4a30f8e58d	-1.4337801639625965e-08
31	0x3e2ac0f31ff31e09	3.1145417352779e-09
32	0xbe73bdcda252f224	-7.354251659297423e-08
33	0x3dba216405f421fa	2.376548989902499e-11
34	0xbcd1a99630e7c97d	-9.804628211179364e-16
35	0xbda8be278e8e09a0	-1.1251718701579967e-11
36	0xbd99f06b2661ad73	-5.897876457799728e-12
37	0x3fb705750d05ec20	0.08992702072093595
38	0x3e2a65a815a38dc5	3.0730264280387636e-09
39	0xbd1fd7c4e74d7b71	-2.8282130645757617e-14
40	0x3fbbfd091083e49e	0.1093297639198618
41	0xbcc229b9610c3617	-5.041241010880845e-16
42	0x3fc6dcaa2554bd9e	0.17860915015033368
43	0xbdf2e00f7ff596f6	-2.7467084159152917e-10
44	0x3fbe76d0768582db	0.11900046247093192
45	0xbdbc1df3447e4f32	-2.5572256361798937e-11
46	0xbdf5f937725822f3	-3.1975654272317224e-10
47	0xbe490d0731101f05	-1.1665230144702147e-08
48	0x3e2ca72edb58a3c4	3.335655053187176e-09
49	0xbd97607e472a9427	-5.315297778285022e-12
50	0x3d9d534458f4e78b	6.667792524669097e-12
51	0x3fc51420eeb10498	0.16467677740914577
52	0xbc6011b55f4266a1	-6.968893244038072e-18
53	0x3fb9ea4a250e462e	0.10123122601205445
54	0xbd34b01a21dade5e	-7.349818086207529e-14
55	0xbd07412ca14cdee2	-1.032711127767012e-14
56	0xbd3824875a59b229	-8.577206614939367e-14
57	0xbd1ccda7db72129f	-2.5582507266142216e-14
58	0xbc73aa6b389c029e	-1.705727448575944e-17
59	0xbea634a713601133	-6.617806664892755e-07
60	0x3fca102cba301b23	0.20361861315924398
61	0x3fbdefd1f9806727	0.11694061604830762
62	0xbd84f1bb1a645a96	-2.3810868261353907e-12
63	0xbe4d4cd97df4ac83	-1.364396590030507e-08

kernel.layers.4.weight f8 [1, 64]
0	0x3faab567657624c9	0.05216525186103522
1	0xbd1522f0d27a9fa1	-1.8772971759251898e-14
2	0x3cb310f28787a72e	2.645966876874733e-16
3	0xbd5ceabaace2a8eb	-4.109340201742083e-13
4	0x3cbf13a800f217f3	4.312769902721405e-16
5	0xbd0fa55ec3613863	-1.4053637019323811e-14
6	0x3ca1b67ace33faf8	1.2290731878725943e-16
7	0xbd7ae033ac3d0d4b	-1.527711700899536e-12
8	0xbfc7fb1bdbf5aaa5	-0.1873507331868797
9	0x3fd0fb097958bf1b	0.26532208299885135
10	0x3d12efa15ba47c0e	1.6818596184505798e-14
11	0xbcadae45a0b36938	-2.0595157478709476e-16
12	0x3d497e9ef5566449	1.8115012076637874e-13
13	0xbfc85c5df86371ba	-0.1903188193163155
14	0xbfcb595e8ff462dc	-0.2136648371604427
15	0xbd6d12851c62f80d	-8.262857025703843e-13
16	0xbc50b515bb3c1077	-3.622831818528922e-18
17	0xbd21cbf1ccd2d65d	-3.161321573692709e-14
18	0xbe80cfa5a0cc5ec9	-1.2525261219234865e-07
19	0xbd9863d7d147c79b	-5.545646641560714e-12
20	0xbcb6bc34ad1ed246	-3.155139868234313e-16
21	0xbda22f648c4089ce	-8.269638778339419e-12
22	0xbd188285ea9fdfe4	-2.1769125083586873e-14
23	0xbfd39ed4458d05b5	-0.3065691642005633
24	0x3f972f718e93a14d	0.022641920401754324
25	0xbcd21fb459400443	-1.0060755368662506e-15
26	0x3fcdd701a5f3cb4b	0.23312397578373587
27	0x3d13cc1cd83ba115	1.758354807053711e-14
28	0xbbd9d338f211f263	-2.1874700122805335e-20
29	0x3fcf67ef337ca118	0.24535932554250262
30	0x3e2254616c30d661	2.133847627696994e-09
31	0x3df4dc00a2a90278	3.035439978019433e-10
32	0xbe6744dbe493aab4	-4.3341853281566975e-08
33	0x3d7f316b3e410eba	1.7731191889575399e-12
34	0xbc6c774af0824bdf	-1.234515408121797e-17
35	0x3d6a1f597320abfe	7.424449291979647e-13
36	0x3d067655a62a045a	9.975240367598643e-15
37	0xbfd665f799e1482d	-0.3499735834822129
38	0x3de779d95a78fff0	1.7081018304319182e-10
39	0x3cd83d30dcc09c09	1.3455362840443379e-15
40	0x3fc1eaab78d1a8a4	0.1399740543304847
41	0xbc5f8da1ec42a9f3	-6.842020872881642e-18
42	0xbfdaa5be0dd696c8	-0.41636611319914296
43	0x3db693587c245431	2.053236032486159e-11
44	0x3fd0568a4f440c3f	0.255281999023456
45	0xbd5792cf5b3dea57	-3.3499924978420967e-13
46	0xbdaec2fc7dd21542	-1.3988785765076553e-11
47	0xbe246be28b7913a5	-2.3773668275172966e-09
48	0xbdd0ac8cd2111edd	-6.065974503664745e-11
49	0x3d6588071d7744d8	6.119580168566357e-13
50	0xbd7110ece92af3bb	-9.700963216858748e-13
51	0xbfd4ed5d27510f22	-0.3269875415755782
52	0xbc018d59dae0c3b3	-1.1893801053885333e-19
53	0xbfd4d519eba14f0b	-0.32550666819337043
54	0xbcc2f6ac1e745ebe	-5.263446297407885e-16
55	0xbca3a60cb8784ddf	-1.363397700344513e-16
56	0xbcca4544690ce328	-7.291549339079194e-16
57	0xbcadb781e4750096	-2.062019010463225e-16
58	0xbc1168faf7fd91bf	-2.3595057492374194e-19
59	0x3ea62cc240829a72	6.608617022688342e-07
60	0x3fcd6f9bd76ed975	0.2299685289305661
61	0x3fc2d5b3e20da381	0.14714668786771415
62	0xbd2261595b33c661	-3.264991782413067e-14
63	0xbe1adea21ee3b87c	-1.5640201317721403e-09

kernel.layers.4.bias f8 [1]
0	0x3fc24c525a31def3	0.14295415309947365

fnw.layers.0.weight f8 [32, 1]
0	0x3e5ad8dfcc1ca203	2.5003370713419354e-08
1	0xbfd70e60f5be2db5	-0.36025260923699004
2	0xbfab025101f88d47	-0.05275204800661953
3	0x3fcfa868ac261ef2	0.24732693105419618
4	0xbfef559196060f5b	-0.979195397391304
5	0x3e94ba60b5577c1f	3.088718377435186e-07
6	0x3fe97b7fd22e073b	0.7963255982469727
7	0x3fda6808be24455f	0.41259974068187505
8	0xbe989b8a16dd3c39	-3.6668145396863154e-07
9	0xbfdacbf7abda1f06	-0.4186991861574686
10	0x3e4904d69f7b7c24	1.1650333128286977e-08
11	0x3fe53ea33f57e98f	0.663896201818078
12	0xbfe669fcd2bc92fc	-0.7004379383039061
13	0xbfe68f8f9faa91bc	-0.7050245398027566
14	0x3fe103b880eae6f3	0.5317041891023265
15	0x3fd97d8be39d8e5c	0.3982877466971553
16	0xbfef1569a83f2f98	-0.9713638578482344
17	0x3fe48f64811ad7a0	0.6425039788798479
18	0x3e60b90a4b3ec4fc	3.1148667117308153e-08
19	0x3fd647c024554bba	0.3481293062988545
20	0xbff285037f864dfc	-1.1574740392142067
21	0x3fe10da5077b0f20	0.5329156061274922
22	0x3eb767900fb856eb	1.3950194092163182e-06
23	0xbfd7a03b6127e98e	-0.3691547821796569
24	0xbfeabdc56a7ed06d	-0.8356654243457463
25	0x3feeae5caf0210cf	0.9587844293714854
26	0x3fe8a570423ca6cc	0.7701951307000967
27	0x3e48e03cdc4df973	1.1583756962102108e-08
28	0x3e578147cd8ab985	2.189073886282274e-08
29	0x3fdb5d62dd68e693	0.4275748407559174
30	0x3ec9a86d294ae800	3.0586618982838057e-06
31	0x3fd2eeb8d6a86ca6	0.2958204361218101

fnw.layers.0.bias f8 [32]
0	0xbeab736a7a3fd357	-8.18098886855478e-07
1	0xbfc014029ec1588d	-0.12561066390725664
2	0xbfb7457b2a71e252	-0.09090394769908386
3	0x3fcf027248818f5e	0.2422621587785398
4	0xbfdea72408829610	-0.478951462088248
5	0xbeb0757ef32c99de	-9.81030961974564e-07
6	0xbfe44df26de3311d	-0.6345150133361447
7	0xbfd63d302516c3a3	-0.34748462316479783
8	0xbe9ea27b1ab6bb5e	-4.564924675721085e-07
9	0xbfe4849838cd2e11	-0.6411858662990558
10	0xbe551995249b3190	-1.96508429865086e-08
11	0xbfe0e31b2eae4894	-0.5277229224905278
12	0xbfde03db545711e3	-0.46898539768542785
13	0xbfc45ff4ecd1a85d	-0.15917836726595427
14	0xbfdadf33546aad73	-0.41987307781047106
15	0x3fdfe784c289bb75	0.4985057735238379
16	0xbfc20bfee34f3007	-0.14099107836807453
17	0xbfb8ee1932b88909	-0.09738309372236044
18	0xbe8fe260601aa3d0	-2.3755642080305876e-07
19	0xbfd31feff3a0d1f1	-0.29882429878060096
20	0x3fa0950d31ed9961	0.03238717302774564
21	0x3fe6a5642c32529e	0.7076893676008529
22	0xbed12d183c8e9fab	-4.095113532644118e-06
23	0xbfd82edf9e1a0781	-0.3778609317743005
24	0xbfee2754ef7cec4f	-0.9423012425899148
25	0xbfe87c63d57b40e3	-0.7651843232688659
26	0x3fea4ffab06b68bd	0.8222630925841014
27	0xbe54a7d3ea1af1c5	-1.923700543889082e-08
28	0xbe6d43e8b6ada460	-5.45108126058002e-08
29	0x3fe08dbaaf872bcd	0.5173009327203261
30	0xbeca6cf753fffe72	-3.1501828345879536e-06
31	0x3fd28b787a8101e0	0.2897626110389222

fnw.layers.2.weight f8 [64, 32]
0	0x3dcbd08ef3b431ac	5.0594610500284484e-11
1	0xbec928b9aeda211a	-2.9991964457001614e-06
2	0x3ea4cc5c3df6fa0a	6.198371202343949e-07
3	0xbed06181d818093d	-3.905507925507706e-06
4	0xbec701adc242bef2	-2.7425953864275676e-06
5	0xbdb0387afee619dd	-1.4752574102585612e-11
6	0xbe9a7c8d4f6fdf39	-3.946800712357755e-07
7	0x3e9f4946e7415f5f	4.66201277809263e-07
8	0xbd9d5e8c85f4eb65	-6.677812897330858e-12
9	0x3ebe81384f10284f	1.8182257088849776e-06
10	0x3d996ca2d112bcb4	5.780830039284742e-12
11	0xbe91854fb8ddaf7c	-2.610794859112166e-07
12	0x3e76ff584d6b9934	8.567214436101677e-08
13	0xbeca2ba2925aa44d	-3.1197606798661293e-06
14	0xbe834ec1c74f7bd0	-1.4385316018849314e-07
15	0xbef1b145502f1b03	-1.68728484018178e-05
16	0xbebe9dc3065dfc44	-1.8248711284028137e-06
17	0xbee09805cf2a3b28	-7.91255886170362e-06
18	0x3dcbf13673f3dab8	5.0826633261604537e-11
19	0x3ea6b9f608d9868e	6.772998106358397e-07
20	0x3ed2a80117ba0162	4.448000591517365e-06
21	0xbeff278e427c2190	-2.971126028142448e-05
22	0x3d5b57d4b4ee131b	3.885686708933403e-13
23	0x3eb7d822c0c69d64	1.421229856560441e-06
24	0x3ec0a52261706a9d	1.9842452832046347e-06
25	0xbea2969a1c553adc	-5.539741826739852e-07
26	0x3f072dbee4637880	4.420985037410872e-05
27	0x3d3336e692166b4e	6.826345969906235e-14
28	0x3d5215b456d190c0	2.5700022386592927e-13
29	0xbeef867a43c67ac7	-1.5032435947412948e-05
30	0x3d62b3812591b869	5.315197703648972e-13
31	0xbed391ca85e446ef	-4.665731550683565e-06
32	0x3d96b78374bc69ca	5.165213590174598e-12
33	0xbead88f431efa2ab	-8.802108800695334e-07
34	0x3e969caeabf64474	3.369456571195979e-07
35	0xbef3ced715d9ae83	-1.8890351717022843e-05
36	0xbedbdef35ef13132	-6.644940625366145e-06
37	0xbd7c8cad500bea4c	-1.6228522975810406e-12
38	0xbee5f148c24be00d	-1.0463007194413976e-05
39	0xbed06b3593f8fc51	-3.914543696802753e-06
40	0xbd6ee07e5f750152	-8.775750841637522e-13
41	0x3ec0dab71e0a0fd5	2.009195881948529e-06
42	0x3d805fd283ad0d98	1.8615430626827737e-12
43	0xbee2661b3b43020b	-8.773256788053627e-06
44	0xbec9883373f4ae8c	-3.0436557662183956e-06
45	0x3ed40b7b2e7b219a	4.779064262279767e-06
46	0xbede80a69038afbf	-7.272372616589446e-06
47	0xbef1beeb360277fa	-1.692369130578545e-05
48	0x3ef0edd809854ae1	1.614482661811245e-05
49	0xbf1096c45cf58ab9	-6.328176026707933e-05
50	0x3d57a8c0c8e51359	3.362173353844578e-13
51	0xbec8a6acaf9f09d5	-2.9386368369532347e-06
52	0x3f1075f4e5dac6e7	6.279284704182771e-05
53	0x3efce237680b36df	2.7545602736370598e-05
54	0x3d93362a9664c68a	4.368209223071284e-12
55	0x3eba5c2a6d4ec77d	1.5711797704928594e-06
56	0x3ec9b0190d867f3d	3.06223419617438e-06
57	0xbeea8ff126845fa7	-1.266587897012768e-05
58	0x3f1b1db7e247e041	0.0001034396632987331
59	0xbd48ec7188c2dd0f	-1.770928818328766e-13
60	0xbdd0616a5bc7c9df	-5.959201790457955e-11
61	0xbf1057e2ff4da86c	-6.23447702544925e-05
62	0xbd2a72324402a870	-4.69776741830469e-14
63	0xbef7061e8ea0ce41	-2.1957305684062884e-05
64	0x3dbce0f353622ba7	2.6265036336358033e-11
65	0xbed00041315a6b68	-3.814934435598636e-06
66	0x3e9e0aa4249eb7b2	4.476542342324223e-07
67	0xbe882bdc80fa7b04	-1.800904674180435e-07
68	0xbed351d3530a47cf	-4.6061589250734615e-06
69	0x3d91e79b2922e56a	4.071060019264227e-12
70	0x3ec72c6f6e4c38d7	2.7625054478458985e-06
71	0x3ebf2608a13a8e05	1.8565994012530835e-06
72	0xbd73cdfe96053101	-1.125764920534909e-12
73	0x3ebd9c65dd1016b2	1.7649489232342088e-06
74	0x3d940bf57126820f	4.5580950194587386e-12
75	0x3ec3f9c6c9bd9a63	2.3812877553598142e-06
76	0x3eabae124704e3a2	8.249272820732372e-07
77	0xbed2b7cb6f333a39	-4.462706544929164e-06
78	0x3ec07ddd9c9f29a6	1.965959403248471e-06
79	0x3ec2b883649e70cd	2.2316878913308976e-06
80	0xbed03e79c92c72d8	-3.872882319536009e-06
81	0x3ee0799c2f72b6ac	7.855910992250865e-06
82	0x3dbb799c049e9a9b	2.4988400488328065e-11
83	0x3ebc640782b466c3	1.6922199488955876e-06
84	0xbee33261630d295a	-9.153746846419956e-06
85	0x3f042fa56c086287	3.8501964358232886e-05
86	0x3d6001e67f274d11	4.549583351952364e-13
87	0x3eb4216dfebb6d54	1.1998763466612309e-06
88	0x3ec08880dcbd9e6f	1.9709129669870063e-06
89	0x3ecadc65c98262c1	3.202072161267604e-06
90	0xbf06ea21039ada1e	-4.370606661778887e-05
91	0xbd49aa4f146baefa	-1.8236270564032148e-13
92	0x3db0680793896234	1.4921502593454837e-11
93	0x3e9cbc496f7aae41	4.281922509712123e-07
94	0x3d82ebcf83fb1c1d	2.1510840254007307e-12
95	0x3ea525b7e9ec0558	6.302397713432778e-07
96	0x3dcda5420d75ba4a	5.3924921544147076e-11
97	0xbed5b65013a91249	-5.176582187408986e-06
98	0x3ea4458028b27e9c	6.041373849137067e-07
99	0xbed2c001a32d402c	-4.470354315014339e-06
100	0xbed634f1e231e3ad	-5.29451748142947e-06
101	0xbd7ad1f0258321cd	-1.5245445067238514e-12
102	0x3eaf804a3a9ea1ff	9.388069106458008e-07
103	0x3ec2e06b033d5fd7	2.2502699951569387e-06
104	0x3dbc8a3867837aa7	2.595690890491667e-11
105	0x3ec30b2ba00dc567	2.2701781294201835e-06
106	0x3daac9f1cbe2649d	1.2182156647494678e-11
107	0x3eb35e6b20b2e220	1.1544717633383175e-06
108	0xbea4d7c1ef53dedc	-6.211639333166717e-07
109	0xbed924c2bd52e230	-5.994700548566298e-06
110	0x3eb542acb5491359	1.2672214399083667e-06
111	0x3ed816dc5c248045	5.74333665984145e-06
112	0xbed91d4765b3369d	-5.9877325739428796e-06
113	0xbee042e69c07462c	-7.754007015944765e-06
114	0x3dce59793a0a6bb4	5.520542985863762e-11
115	0x3ec3a016df9a8f54	2.339523914001159e-06
116	0x3ee7baaa4b832f58	1.1314945695415905e-05
117	0xbf21044aa4b3c576	-0.00012982760595251955
118	0x3d640e5735c66244	5.700263221764445e-13
119	0x3eb8f30e68ef0433	1.4871024267423317e-06
120	0x3ec4c2188dea03a3	2.474568744859468e-06
121	0x3ea44f0befa7a9c3	6.052486861117752e-07
122	0x3f159a818ca5909e	8.241096216960112e-05
123	0x3d3518a401b20f95	7.494894497905918e-14
124	0xbda97e0583cde531	-1.159254300095768e-11
125	0x3ef5c40b2cb7091b	2.0757480155849788e-05
126	0xbd5d4bbbf1610258	-4.1631887670037006e-13
127	0xbed2ae874d9fb6d7	-4.454076782051909e-06
128	0x3dad87628c40fea0	1.3428165162218254e-11
129	0xbed75f264b34e96e	-5.572242275870378e-06
130	0x3e9311936bea4e68	2.8414511269692867e-07
131	0xbebe6d99ed00ec13	-1.8136578781153013e-06
132	0xbed4056265b91ca1	-4.7733861623995195e-06
133	0x3d9491a21810187d	4.6768217562401246e-12
134	0x3e934a7bdbf43a14	2.8745759191118765e-07
135	0x3e8ee89b12307aa3	2.3028713611122744e-07
136	0x3daab116d05b8069	1.2138004586827203e-11
137	0x3eb988071645b435	1.5217875325116416e-06
138	0x3d9913f37fb147da	5.702062082220538e-12
139	0x3e86de27449304c6	1.703782877334932e-07
140	0x3eb2ba11b1e0eab0	1.1162061990382492e-06
141	0xbee395b97dfe6ec1	-9.338789766214787e-06
142	0x3e6731cd4108419c	4.3203194025870486e-08
143	0xbe24baabb02bb9e6	-2.4131944232536432e-09
144	0xbee433f9ce4290d8	-9.633555642381641e-06
145	0xbec3244b315f614f	-2.2818770828264587e-06
146	0x3da93239a99c256d	1.1457901728370938e-11
147	0x3e9576f122b32348	3.198477169339472e-07
148	0xbedc2a240e8f064c	-6.7149669371060815e-06
149	0x3f037e76e770a81c	3.7181857742332925e-05
150	0x3da6dedf9406f21b	1.0400344323473083e-11
151	0x3ead9911cbb6797f	8.820869860542604e-07
152	0x3ebea7497ba7fe54	1.8270888931803046e-06
153	0x3e9c425835f4a14e	4.210942758536496e-07
154	0xbf021f61c78dd134	-3.4566089147344137e-05
155	0x3d206dc8f9bd3473	2.918349631894611e-14
156	0xbd9ae844d79badc6	-6.118011799322101e-12
157	0x3eb61710c26c3758	1.316672532506116e-06
158	0x3da970db6ad5b07d	1.156915825170039e-11
159	0xbeb49a1cd233fe18	-1.2279750272735722e-06
160	0x3d9094b3e201a612	3.7700533071701505e-12
161	0xbeb79f7daa5b657a	-1.4080411942423764e-06
162	0x3e718b41612b3a74	6.535636768864276e-08
163	0xbed054205e04f3a2	-3.893046113309744e-06
164	0xbeacae73ebb6c74a	-8.54774007510845e-07
165	0x3d72949b07c8691a	1.0561786084621712e-12
166	0x3ed7a5875dc25875	5.637788003684282e-06
167	0x3ec29d7a83fea197	2.21909888860703e-06
168	0x3d5315da99da4b52	2.7121937529773077e-13
169	0x3e9b49b3f9c63fe6	4.0662143321271717e-07
170	0x3d7ec9cf483f5cf4	1.7501133200780278e-12
171	0x3ed3d690836525c6	4.729781770082406e-06
172	0x3e7aded152f4a5f4	1.0009997163510525e-07
173	0xbeda66602dc589e1	-6.294227855670941e-06
174	0x3ed03f71c42de1cf	3.873784467305467e-06
175	0xbf02952c065544bb	-3.5443693188094584e-05
176	0xbef1d2d962ed5754	-1.6997937730543172e-05
177	0x3ef685859c44337e	2.1478242858075345e-05
178	0x3d857db720f8e3c6	2.4432524212097893e-12
179	0x3ebc161b5f579d36	1.67407722295196e-06
180	0xbf15a50bc9b84544	-8.256802032515382e-05
181	0xbf2e0834ade87e2b	-0.00022912638719761852
182	0x3d8af2bdf1c385fa	3.0636568705376737e-12
183	0x3e83cb8adba06a6e	1.4748489524168917e-07
184	0x3e9bde014c5385c3	4.1525374812168873e-07
185	0x3edc681a962b9950	6.772674484101175e-06
186	0x3f0d3c01511369c3	5.5760183508463404e-05
187	0xbd34fb80758a4106	-7.454456209975009e-14
188	0x3db021320fa84f5d	1.466984951795032e-11
189	0xbf02178877c76224	-3.450761048257405e-05
190	0x3d91d98a85a79fb1	4.058567794649283e-12
191	0xbed19b81ba8029ad	-4.197942793391518e-06
192	0x3e827c60c443a4ea	1.3773032681651427e-07
193	0x3f94ad81537615d8	0.020193119734832482
194	0x3f84bc08d36c067b	0.010124272300802808
195	0xbfc88c8ab6353d7b	-0.19178899666665558
196	0x3fdfd59c57efe0ce	0.49741276347732544
197	0xbea0316de203bcab	-4.825914779164677e-07
198	0x3f97eca4b803ccea	0.02336366055619702
199	0x3fb9091ede380e7b	0.0977954189802918
200	0x3e7438cdfdc8d778	7.533242247438072e-08
201	0x3fc084c61f69df15	0.12905193837990994
202	0x3e35af33cfc8b66a	5.048789161521869e-09
203	0x3f8b1a8279da2821	0.013234156936295762
204	0x3fe592c488acb199	0.6741659802842604
205	0x3fc10315b1dc4cdc	0.1329066389522272
206	0xbfa3768cb1abf6bf	-0.03801383656353385
207	0xbfc3180b2c587ba2	-0.14917125382723123
208	0x3fca1f14fa8788ab	0.2040735457695225
209	0x3f9aca603334f2f3	0.02616262733976078
210	0x3e52a128584e7364	1.735009426720159e-08
211	0x3fc98e9e70a6ea96	0.19966488361918228
212	0x3fd6de738ba0e819	0.35732735286330947
213	0xbfe52b6db61f4dc2	-0.661551337916926
214	0xbeb20277230dc7c2	-1.0734576216500689e-06
215	0x3fb05eedace4bb0b	0.06394849272758678
216	0x3fe10aa64da4aa89	0.5325500027150422
217	0xbfc3058e7a8c0b60	-0.1486070726751576
218	0xbffd4ed38d46b660	-1.8317447203256947
219	0x3e2362e6bff54558	2.256866249148513e-09
220	0xbe60cef6bcdfaaf7	-3.13081823659303e-08
221	0xbfd20d0646d1d9b2	-0.28204495349873604
222	0xbe9d3eb62f452a16	-4.357839735914956e-07
223	0x3f91a8403feb7dd5	0.01724338903556862
224	0x3da80db0dfdc7db2	1.0938256373286934e-11
225	0xbedbe7ee733c9260	-6.653304627045152e-06
226	0x3e97b8a0c514d640	3.5347347189808626e-07
227	0xbec47044a0cdae55	-2.4364646890507042e-06
228	0xbed8d8ff92abb0a9	-5.924141343465754e-06
229	0x3d91448249fb49c6	3.926200645815875e-12
230	0x3eaefc58c5b4b0e2	9.234467016942176e-07
231	0x3eb6c4a8f194aa61	1.3570906445917955e-06
232	0x3d9d84432bc775da	6.711309185517938e-12
233	0x3ebb34c76c9ae3f2	1.6216139776938145e-06
234	0x3d76f182c171ec4a	1.304181377167841e-12
235	0x3eb08000e17910e3	9.834774398346508e-07
236	0x3ea6a21f2b8729da	6.74524549154367e-07
237	0xbee070676ce03407	-7.838763306034306e-06
238	0x3eb043f31e89f82b	9.694950852397106e-07
239	0xbecbb6f82dbcefc4	-3.3038526065214564e-06
240	0xbed965ceccba63b1	-6.05528039057054e-06
241	0xbee190ade97025ec	-8.375717966318878e-06
242	0xbd630b33c6e555be	-5.412561791717409e-13
243	0x3eb6486bc7c9212c	1.3281640171160177e-06
244	0x3ed9ef070ebc11e4	6.183076248115753e-06
245	0x3f0898351b802b69	4.691040106770997e-05
246	0x3dc31a921e42ce2c	3.474959537360847e-11
247	0x3eb10bc7812f474d	1.0160215466636718e-06
248	0x3ebf74528f71c465	1.8748274308833963e-06
249	0x3eaaaedd15f01b08	7.952171862120715e-07
250	0xbef99525a111cc4b	-2.4397473741232916e-05
251	0x3d4a0d9592d15e56	1.8511815057277554e-13
252	0x3db1183b0fa721cb	1.554749469645486e-11
253	0x3ec0665402fcb669	1.954998900452824e-06
254	0x3d7e83c163edad96	1.7345581484555415e-12
255	0xbec3bf007bf9cfba	-2.353918688241847e-06

fnw.layers.2.bias f8 [64]
0	0x3ec674a4f2413fc6	2.676921115031514e-06
1	0xbf196e62206e551f	-9.701227109667033e-05
2	0x3ebfa029af3a4c19	1.885034802838432e-06
3	0x3e32988a9b72faaa	4.329687212216956e-09
4	0xbee5e0aa672d8bad	-1.043205268098042e-05
5	0x3f242b643ba56f73	0.0001538810591438195
6	0xbfc098657ac42a20	-0.12965076918074292
7	0xbef5e67ca7a6e145	-2.0885791380571552e-05
8	0xbeda4e28c5468a95	-6.271674540067126e-06
9	0x3ee57a5ee7f229d5	1.0241513562787952e-05
10	0xbe6d41e5251d1ec8	-5.449615926453332e-08
11	0xbf0a01757269ee67	-4.960193318922779e-05
12	0x3ed6fb0d0a482337	5.479018146300338e-06
13	0xbf0a387618b2c1ee	-5.001173402641503e-05
14	0x3ee15d7302957169	8.28029449689216e-06
15	0x3f2c635fe6ea23ae	0.00021658464125476118
16	0x3eb48814abf1e4d1	1.2237766638097643e-06
17	0xbe845a3850b18762	-1.5163735897759524e-07
18	0xbeb1d7376f3f8213	-1.0633879670083904e-06
19	0xbf030ca821964cea	-3.633392425252977e-05
20	0x3fb288027daaad83	0.07238784378085054
21	0x3ee27167bd179da6	8.794302547478573e-06
22	0x3f0b2b71bccaa8ec	5.182209824757138e-05
23	0x3eee4af03c328123	1.444469842787393e-05
24	0xbfcbf10df248077e	-0.21829389886994116
25	0x3f03c9d5a0590499	3.7743408068732425e-05
26	0xbec51d18c88a7fbe	-2.5169443385736066e-06
27	0x3ee186bf75a6ee24	8.357219191227365e-06
28	0xbec97cef38d566c8	-3.0384093806901516e-06
29	0x3ee216e61c39da2a	8.625721313421342e-06
30	0x3ec231ade6bbf91f	2.16890093962455e-06
31	0xbfc5965784966e6b	-0.16865056966786382
32	0xbf21c78e85929d4f	-0.0001356469609039381
33	0x3ed4346f2b275e85	4.817204784811025e-06
34	0xbfc5a665c3b60df1	-0.16914054924210079
35	0xbfd65f18958f964c	-0.34955420117907887
36	0xbec52381a9b142f4	-2.519929080992454e-06
37	0x3f18a6ef4fa25b8b	9.40402568708599e-05
38	0xbfd0e6a36f53fe71	-0.2640770518482674
39	0xbef369d419cf94ba	-1.851405396626337e-05
40	0x3f14bb281ba5974c	7.908279704834964e-05
41	0x3ed24dbde4cf43e5	4.363937091648463e-06
42	0x3eda0d205a828a03	6.211107951655754e-06
43	0xbf1013b8b326ce41	-6.132902925664545e-05
44	0xbf2300134eea8973	-0.00014496074387177933
45	0x3ef56b00c6e552c4	2.042577801238361e-05
46	0x3efb103b0929e283	2.580967027163368e-05
47	0x3f0dc0c329cd37c0	5.6749301825406284e-05
48	0xbe4fa74d49fc9d78	-1.4739820308384216e-08
49	0x3eb20e00f8a3520f	1.0761441183077056e-06
50	0xbeb9a67ef2b9bf1f	-1.528881464898193e-06
51	0xbfd0e7c1e7c10004	-0.26414535171716147
52	0x3ed515eef56bacc8	5.02721726179239e-06
53	0x3f07fa5012dcaa4c	4.573399415471312e-05
54	0x3f15ddf43611b96e	8.341601416514906e-05
55	0xbeef690b9b40c7b6	-1.4977614093056881e-05
56	0xbf0f7fcedcd2c2d1	-6.00800518467719e-05
57	0xbf0c0b699666cc19	-5.349079110619093e-05
58	0xbfc50a910cf74801	-0.1643849671659723
59	0xbfbd94be63cf9e57	-0.11555089890281899
60	0x3ef8d28680ec883d	2.3672451841545912e-05
61	0x3eaaac3d01ae9050	7.94911560010351e-07
62	0xbf437cfe5fd39016	-0.0005947343885535107
63	0x3eecefe301f79e3e	1.3798264318644963e-05

fnw.layers.4.weight f8 [1, 64]
0	0x3e349ba8477c6d68	4.7981823998183904e-09
1	0xbec63ca2d813306b	-2.650840258943941e-06
2	0xbec21da8e1c81927	-2.1595785837407802e-06
3	0xbec90ac9e2885c73	-2.985256078124086e-06
4	0xbed26b3e8014847e	-4.391413314126377e-06
5	0x3ea063ac619dfcf2	4.884406650112199e-07
6	0x3fe29dd4311f81b4	0.5817662200388924
7	0xbec3fabc41bdd44e	-2.3817342604212453e-06
8	0xbe80bc0ceb459f88	-1.246822784004411e-07
9	0x3e4f591746c12958	1.4597555352117628e-08
10	0xbe5bce823fa177a4	-2.5896984092206966e-08
11	0x3eb74dcaaa2cfb07	1.3890191119106467e-06
12	0xbeb8c1855d4b934a	-1.4755690830810984e-06
13	0x3ea9b78e471dd7ff	7.664267640389559e-07
14	0xbe620b36567b3b26	-3.3609192593583446e-08
15	0xbea995ce930087fc	-7.6249788172702e-07
16	0x3ec112a8e2cc0575	2.035247027243928e-06
17	0xbe723dbc4cbdd254	-6.795359580402463e-08
18	0xbea5193106d2f16c	-6.287814479293209e-07
19	0xbe77aa4c0a2fac3f	-8.815982481507545e-08
20	0x3fc9ef1c5b16589e	0.202609581447807
21	0xbec5e9c059d43c3f	-2.612244044748339e-06
22	0x3ea277b039fca625	5.503753648151214e-07
23	0x3e67a6086d157659	4.404888688068066e-08
24	0x3fe48a37dcf44e5b	0.6418723407281947
25	0x3e97eb861a9b7f00	3.564359994777947e-07
26	0xbe7035b1c7ec57e9	-6.038600195950403e-08
27	0xbe873d300e78c714	-1.731441507820842e-07
28	0xbeb31c62bab7e2b0	-1.1390973025921722e-06
29	0x3e6f82cce435e6b6	5.86936974811882e-08
30	0x3ea8ab286323f064	7.35181123339833e-07
31	0x3fe3dd9ee63ab97b	0.6208033081691576
32	0xbec0033e14536aa4	-1.908858538441265e-06
33	0xbea682604c701167	-6.708288758932311e-07
34	0x3fe5c4d75115c8d0	0.6802784522717733
35	0x3fe46685fc7216ec	0.6375150614337293
36	0x3e255e6d69b67e5e	2.487662365774813e-09
37	0x3eac897a38248659	8.504695048519917e-07
38	0x3fdc9bba5b611492	0.44700488017799345
39	0xbe79b3517bfb2f81	-9.57416821337084e-08
40	0xbec3188894e943a6	-2.2764008129967442e-06
41	0xbe90ee124d5c1954	-2.522761638343964e-07
42	0xbeb9dc65d1ee6e80	-1.5414314657795586e-06
43	0xbece172eb9e5745d	-3.5870738905167827e-06
44	0x3e4da208df540a85	1.3798916657322844e-08
45	0xbe9cd2660a240378	-4.2947932334118904e-07
46	0xbea4a0d70c290d14	-6.147706915277876e-07
47	0xbeb36597671f58c6	-1.1561418458059632e-06
48	0x3ecff74c3c31ac76	3.8106449849382627e-06
49	0x3e80cf59557c5682	1.252439385471571e-07
50	0xbe7df0d189d9a823	-1.115377891936435e-07
51	0x3fe2b00615381cdc	0.5839872755467712
52	0xbeb54c4572ab1ff6	-1.2694558317195133e-06
53	0xbe8266386e33d482	-1.3708545685385214e-07
54	0x3e9d690ff9ec572e	4.3824911159902525e-07
55	0x3ec2404f7b5d933a	2.1757141110294338e-06
56	0xbe991237046450a6	-3.7358927719553456e-07
57	0xbe85c0ae42244f34	-1.6206993886573142e-07
58	0x3fe291d6e1c3241c	0.5803026589793521
59	0x3fe25213c11e4d3f	0.5725191852419939
60	0xbec27d40f58ad206	-2.2040930328320997e-06
61	0xbea7a2e343dd94ba	-7.044160452550419e-07
62	0xbeeca762d0ab45cb	-1.3663221144185903e-05
63	0x3e85cd8c9cc0f221	1.624444635489362e-07

fnw.layers.4.bias f8 [1]
0	0x3fcc1dfe2ff1de3c	0.21966531125120692

fnb.layers.0.weight f8 [32, 1]
0	0xbcba7cb02755ea14	-3.675818384599134e-16
1	0xbfda954a04163a69	-0.4153618850622594
2	0x3fb100860a7df42d	0.06641423946526066
3	0xbff2694503d55b8e	-1.1507005834334652
4	0x3fe7a048db150ab2	0.7383159903477774
5	0xbf835deee3461fda	-0.009456507025575368
6	0x3fe5617e4034e2fe	0.6681510213885244
7	0x3fda782ba91f0b18	0.41358462825535147
8	0x3dc024b3347a1b27	2.9364599779207764e-11
9	0xbdc47a47f472e132	-3.72486473575996e-11
10	0xbd3c4a78e9246c07	-1.0050949388702394e-13
11	0x3fe2eb9f363c022f	0.5912624415651119
12	0xbeb1ed27c53c503c	-1.0684959947425884e-06
13	0xbe3d78846948ff18	-6.861698449505438e-09
14	0x3e38a7895e78203b	5.740309095687038e-09
15	0x3e18ec81ca05cd37	1.4507593252508728e-09
16	0x3fe25a7afc92f7e3	0.5735449727142136
17	0x3fc1894a54fc47c3	0.13700226926499512
18	0x3fdf771205caa319	0.4916424805219762
19	0xbfebbfb93a36cccd	-0.8671537529939087
20	0x3feef04afb672b73	0.966832629224298
21	0x3fb127e110bba42e	0.06701475771446105
22	0x3fd2c5448b102abd	0.2932902677572818
23	0x3e31a24b0627687d	4.1057256227319554e-09
24	0x3fcf5047328df2eb	0.244637393650826
25	0x3fe968d364aa0dac	0.7940461126421972
26	0x3e021abeebcead35	5.269095920123521e-10
27	0xbfed669bc50bcae7	-0.9187754486614182
28	0x3fe8df1d384328fb	0.7772356127618701
29	0xbd9689502b6eae80	-5.124179447624284e-12
30	0xbfda22a54609d1da	-0.40836459960635596
31	0x3fcb0189ca28b45a	0.21098444338841454

fnb.layers.0.bias f8 [32]
0	0xbd1f7faac4f84150	-2.7976465130710084e-14
1	0xbfb0957fb719be12	-0.0647811719916194
2	0xbfae86be88af55b5	-0.05962176722065796
3	0xbfc5612178908f9b	-0.1670266951269895
4	0x3fe640c4cbb16564	0.6954063394906993
5	0xbf835e04b73efea2	-0.0094566696569694
6	0x3fe40949e799a6e4	0.6261338733140431
7	0x3fbd78e48aa35212	0.11512592682567682
8	0xbdc9dd0fccb574ef	-4.704547306288472e-11
9	0xbe47bc702de43bb5	-1.1052976697554674e-08
10	0xbd6038bc7d8af7c0	-4.610463445055843e-13
11	0x3fe19d34e3596a3c	0.550440258065755
12	0xbeb871852edae4f3	-1.4569424666001964e-06
13	0xbe44e90d7973cf7b	-9.737146018717464e-09
14	0xbe40577b16961f58	-7.609707269496273e-09
15	0xbe2644c3447c66da	-2.5924067648532306e-09
16	0x3fa33d55217a809f	0.03757730516122248
17	0xbfbf9aaa19bf038b	-0.12345374229972898
18	0x3fa8b4c8c8df4f4d	0.04825427486471643
19	0xbfe20857af1777b7	-0.5635183734664143
20	0xbfdc3376f2dcb4d7	-0.44064115254407227
21	0xbfb185c24037fcf8	-0.06844724719848105
22	0xbfd0ef905f8796ad	-0.2646218235880536
23	0xbe3454fc25b6313f	-4.733906235228193e-09
24	0xbfcc3dc388f8fede	-0.2206348818599428
25	0x3fe7f36552b04db9	0.7484614005101583
26	0xbe2b823d827e2588	-3.202440108185102e-09
27	0x3fd4315beffdbe4f	0.31551264225615666
28	0xbfe6824c2a96522b	-0.7034054595738487
29	0xbdcc0970d0bf7619	-5.099878340246355e-11
30	0xbf96abe3b40d8abf	-0.022140081276470932
31	0xbfb43581684a0f12	-0.07894142910123161
