best_model_dk40_sinonly_synthetic.ckpt (torch, 449559 bytes, 26 tensors)

kernel.layers.0.weight f8 [32, 1]
0	0xbfd08aa6fda03fd9	-0.2584626652542262
1	0x3fc639b284efd32b	0.17363578311019387
2	0xbfe735d77047e54f	-0.7253224556908807
3	0xbfe35bda7ee59d96	-0.6049625853019502
4	0xbfc5440311310f77	-0.1661380609458509
5	0x3fe02e4805705317	0.5056495767808852
6	0x3f1374ed46789e67	7.422159398428608e-05
7	0x3fd64386a339fda8	0.34787145557489874
8	0xbfe79f70cee36f63	-0.7382129708089277
9	0x3ecc38c89d725db6	3.3643020561182085e-06
10	0xbfa028498db9ffca	-0.03155736784992731
11	0xbf02e9b0d711b2fd	-3.607340739439876e-05
12	0xbfe94006340ee512	-0.789065457988871
13	0xbfe1a3ebee5949dd	-0.5512599616288828
14	0xbfc164bc64a3e9a8	-0.13588671602321978
15	0x3fc35890a0f2009c	0.15114028795870105
16	0xbee6e6a33cd5e14c	-1.0920013574931005e-05
17	0x3f31f9de0160a8b4	0.00027429266026735987
18	0xbfe54dfe31dba3b8	-0.6657706235683838
19	0xbfd89dc609435bb0	-0.3846297350368628
20	0x3fdfcf0bc28cd706	0.4970120811370723
21	0x3fd051a4ffeb0703	0.25498318664550385
22	0xbf9e2108c0e85350	-0.02942289044775076
23	0x3fc6a546f162a5c7	0.17691885744470268
24	0x3f456af3382ee366	0.0006536185832067664
25	0x3f997bce4dbab747	0.024886344427321985
26	0x3fdb91f96b2ed7a3	0.4307845637043732
27	0xbff0cfbf3cbc52bc	-1.0507194874273145
28	0xbfe40f3311fd4a37	-0.6268554068904625
29	0xbef0cd7b8d3f54f5	-1.602427148824234e-05
30	0xbfd29e0db753d1c9	-0.29089682486599294
31	0x3fe429b91fe23117	0.6300931570745288

kernel.layers.0.bias f8 [32]
0	0xbfbb6a903732e5fb	-0.10709477756144985
1	0xbfc97cdce0695e50	-0.19912301023099355
2	0xbfe809aeb14bc1ee	-0.7511819327174274
3	0xbfe3b25a30b78fef	-0.6155215217117965
4	0xbfc5293c56b032a6	-0.16532091362787077
5	0x3fded0308b491c15	0.48145688631160627
6	0xbf1a194c4dfb33db	-9.955909944921132e-05
7	0xbfb51a2931393387	-0.08243043376678659
8	0xbfb5baf3e45bc179	-0.08488392186314354
9	0xbecebcf2df2e5ff7	-3.6642647897704123e-06
10	0xbfa019e6fb6deece	-0.03144761866766786
11	0xbf1079414b04d721	-6.284199730973969e-05
12	0xbfea8ac213ef2f80	-0.8294382466642531
13	0xbfe20f05312611d9	-0.564333530419897
14	0x3fd34a787f88206c	0.301420330565185
15	0x3fc22bb6c6022c7e	0.14195904415496224
16	0xbee8db4c4e133176	-1.1852566276359467e-05
17	0xbf349262932f0a10	-0.00031390101065312346
18	0x3fdea1dc2197e33c	0.4786291435298613
19	0x3fe9fc114d48562c	0.812019968931684
20	0x3fd98155ebe36b04	0.39851902042362064
21	0xbfcfec2666909388	-0.24939422615093698
22	0x3fd2cd90148539e0	0.29379655841776575
23	0xbfc9a779d78908b4	-0.2004234602373508
24	0xbf468feb220c854f	-0.0006885431394928839
25	0xbfdaf87dab40555f	-0.4214166805625918
26	0xbfdb77b5a795c936	-0.42918149343235557
27	0xbfe0084dd04b7e4c	-0.5010136669406591
28	0x3fd211a199527ce6	0.28232612583992844
29	0xbef1232e8c3924df	-1.6343525898220085e-05
30	0xbfd27cb65bfbe761	-0.28886183722317155
31	0x3fe332df9513d0c2	0.599960127989583

kernel.layers.2.weight f8 [64, 32]
0	0x3f02dbd2be8d2acd	3.5970086008937226e-05
1	0x3e5c1455b6886ab8	2.6151009720636242e-08
2	0xbeb1fd69e0f29915	-1.072281410144343e-06
3	0xbeadc7354374fcf4	-8.874582197239973e-07
4	0xbe952e7e7f5ce31b	-3.156306996768524e-07
5	0x3f1b361d4063e815	0.00010380319153915935
6	0xbe22aa89afbe1c77	-2.1730274228819307e-09
7	0x3eef45acb7de4e9c	1.4911731110157319e-05
8	0x3f290d6085fb6761	0.000191133530271166
9	0xbe04aa6f85762bfa	-6.014528969686276e-10
10	0xbe6f4a52ed24d5c0	-5.8282777398042836e-08
11	0x3e19e738273cec20	1.507764715989658e-09
12	0xbeb3b52afc96d709	-1.174669693388419e-06
13	0xbeab29724c834d89	-8.094877097748953e-07
14	0x3f1c3ba2008fade7	0.00010770012171661785
15	0x3ef873cedbe1bb6d	2.3319602171441496e-05
16	0xbdb533257f17e3d9	-1.9281097502741914e-11
17	0x3e2d32cd82de9f65	3.399146761767916e-09
18	0x3f6014ff2f734920	0.0019631370629237394
19	0xbf6a4cd305fa0a72	-0.0032104608106363003
20	0x3f1793df7424ad43	8.99415145211762e-05
21	0x3e71c82416d06593	6.62423695483416e-08
22	0x3f1873037428664b	9.326656894650361e-05
23	0x3e5bd18877465310	2.590798638261754e-08
24	0xbe2fe099240a53d4	-3.711010415910082e-09
25	0xbe9411884fa74967	-2.9904374767882994e-07
26	0xbe9c2650466b8948	-4.194626569820623e-07
27	0x3f20b02755ac6223	0.0001273201003975248
28	0x3f4694a38b901080	0.0006891058502565134
29	0xbdb7a2275462ba14	-2.1494463565022887e-11
30	0xbea44ba36aea295a	-6.048519106277678e-07
31	0x3f224858e79423d4	0.0001394852186325223
32	0x3f09330deac69791	4.806410047146417e-05
33	0xbee456a3dcafd1da	-9.69812290028346e-06
34	0xbeca8db9ff2312ea	-3.1654380957278317e-06
35	0xbec38709aab0b393	-2.327858358983122e-06
36	0xbe9a369af3f77b42	-3.906086369613644e-07
37	0xbef3445bf7b4cb4c	-1.837447005676876e-05
38	0xbe3a891493277601	-6.178270605591068e-09
39	0x3ee59db6c91dc205	1.0307345551048051e-05
40	0xbf0ba2c8d78c705d	-5.2711252413768026e-05
41	0xbe17d40a3efc1f60	-1.3869885205105214e-09
42	0xbe7655bdef926672	-8.320409596238047e-08
43	0xbe0b698c2a4e096e	-7.978027861691428e-10
44	0xbecfcb6b0274967c	-3.7902118667106863e-06
45	0xbec282ecea6fafbb	-2.2067341265332287e-06
46	0x3f117093455e42f9	6.652735586799495e-05
47	0x3ef7a1617d4341ee	2.25356996715348e-05
48	0xbdfd10314cb44d3c	-4.2292598304043095e-10
49	0xbe54bdb0d04d8b4a	-1.931654216041393e-08
50	0x3f699a21113da863	0.0031252523275969043
51	0xbf6ff16034878661	-0.003899276638762925
52	0xbf0c2162bb2dfb0f	-5.365450433369143e-05
53	0xbeeba74372530d0c	-1.318615574986148e-05
54	0x3f104de303e099e5	6.219575968256055e-05
55	0xbee4994208258b12	-9.822208316639185e-06
56	0x3e353f587dda45a5	4.947056068302719e-09
57	0xbeea1ceabc175438	-1.2451628097412846e-05
58	0xbef8380edaa7e36c	-2.3097016006421082e-05
59	0x3f1fecc97e8e9f13	0.000121784017791723
60	0xbf37a1bb80d656e9	-0.00036059215275350984
61	0xbe07678b638a4ba8	-6.811597458651219e-10
62	0xbe9e11b735f39e53	-4.480660233522423e-07
63	0xbefa9c27c5636ffc	-2.5377256258049527e-05
64	0x3f13ed3073b49403	7.601364352589905e-05
65	0xbeeae5127add9af7	-1.2824446311743879e-05
66	0xbed288f8e0d877c6	-4.419099707967825e-06
67	0xbecb4183bea14132	-3.2491584436648754e-06
68	0xbea26eb50d660723	-5.493298214505884e-07
69	0x3f325a3b35fffea5	0.0002800364072754558
70	0xbe511ba6370581e6	-1.5933071252444883e-08
71	0x3f0a0cd421ecff8a	4.96866452892589e-05
72	0x3f3a053ab04609e4	0.0003970402033461036
73	0xbe28973d90d7ff77	-2.8627439366528523e-09
74	0xbe7eed64b19fa7ff	-1.1521323664524123e-07
75	0xbe15224e4b16f489	-1.2301611225842446e-09
76	0xbed62c760848d11b	-5.286616332745676e-06
77	0xbec9f3819b737eaa	-3.093623685765234e-06
78	0x3f2946a784f71857	0.00019284052767271312
79	0x3f13455d43853fde	7.351285683410101e-05
80	0x3dcb8cb6ae03baa9	5.0112544107261464e-11
81	0xbe4d9f84c8071367	-1.3794340115381715e-08
82	0x3f67df5cad304d26	0.0029141244972465006
83	0xbf6abb8ee0cffeda	-0.003263262804921269
84	0x3f311e323e04bd1f	0.00026119925134345136
85	0xbef150fd1b00202f	-1.6514169772136204e-05
86	0x3f21c3374ed2af73	0.0001355175985840968
87	0xbeeb2eebda6a3569	-1.2962001006112515e-05
88	0xbe88dec42539cb91	-1.8529728383931962e-07
89	0xbef0a306ce7e6318	-1.5866110430448518e-05
90	0xbefad4a14e66ce2f	-2.558764108480225e-05
91	0xbf18af42ce5fa8b4	-9.416432621348303e-05
92	0x3f552f190dbe301b	0.001292967287528596
93	0x3dece9848835f963	2.103637855103791e-10
94	0xbea3f2f4c7c0b6ca	-5.945279464341786e-07
95	0x3f378e2cda0cdd06	0.0003594264508594711
96	0x3f135bd7a96f442e	7.384780688758703e-05
97	0xbeefb630d01b0edf	-1.5121308482142003e-05
98	0xbee20e6b583eddff	-8.609926915300289e-06
99	0xbedbab4f5edebe28	-6.596846544512247e-06
100	0xbeb6deb94332dc43	-1.363159083207227e-06
101	0x3f3bc373cb6054ec	0.00042363717091238487
102	0x3e26502b3e35408e	2.597593683262402e-09
103	0x3f1b3307e90381a4	0.00010375724582756832
104	0x3f418198469142da	0.0005342477353541223
105	0x3e295720895012dc	2.9500038614182195e-09
106	0xbe92538930c8f9e4	-2.730833308684515e-07
107	0xbe23d5c43bc5c443	-2.309100881146317e-09
108	0xbee4f675fceb369e	-9.995812346198879e-06
109	0xbed9dc6c2875f789	-6.165748920648303e-06
110	0x3f238668e951b3d0	0.00014896422058843653
111	0x3f24e3757326b9e6	0.00015936669076439743
112	0xbdfc4c02ca88bcb8	-4.117743459872578e-10
113	0xbe6c8cef4acd4b74	-5.3179499337689126e-08
114	0x3f6d29454de64816	0.0035597184752953577
115	0xbf6dbe02c8566f64	-0.003630643305497049
116	0x3f3a537d410fb2df	0.0004017048641447428
117	0xbef3d93d859e2899	-1.8929095268606885e-05
118	0x3f243423f645e848	0.00015414179791745281
119	0xbef003233069e48d	-1.5270477002425404e-05
120	0x3e8c8737b3711e2c	2.125516062897977e-07
121	0xbef45f0825479cb1	-1.9427507440908282e-05
122	0xbefd5f8e300bcb51	-2.8012526857200505e-05
123	0x3f28ff0c621b0b6c	0.0001907065025560055
124	0xbf39b89ffad20cff	-0.0003924742293934385
125	0xbe0f927fb8622e75	-9.188737416501748e-10
126	0xbec0e18ff93f2ad3	-2.0123843089461047e-06
127	0x3f4009835d212475	0.0004894153046360999
128	0xbf22aac2263cecb5	-0.00014241809832946586
129	0xbef37a1d55f5b685	-1.8574724319922568e-05
130	0x3ecb6fcfc0c42278	3.2707171212546694e-06
131	0x3ece44dab95e656d	3.6083415108744186e-06
132	0x3ebe25bc19fc927f	1.7969251544038313e-06
133	0x3f27a4cec256875f	0.00018038772502132047
134	0x3e444e526a189f2d	9.4556925094352e-09
135	0xbecc588999123f5e	-3.379088589890098e-06
136	0xbf118a5233c4aca1	-6.691099855931023e-05
137	0x3e3a8d8cf665499f	6.182336287292237e-09
138	0x3e955b2f6a098541	3.182320629566156e-07
139	0xbe303077635a50f4	-3.769370195871837e-09
140	0x3ec65b2daf5252d5	2.6650626475200768e-06
141	0x3eca1278a0519f8c	3.1080428493541543e-06
142	0xbf2505f219698fb9	-0.0001603944808322691
143	0x3eff90a1a2b88f7d	3.010269771953855e-05
144	0xbd9acc059d6cc4e9	-6.092923439882575e-12
145	0xbe7820989eafec72	-8.988130388569751e-08
146	0x3f29fc9082178505	0.00019826187148822713
147	0xbf344346ae819522	-0.00030918574930745475
148	0x3f2bacf2edd67f78	0.00021114793245846273
149	0xbefab8999c327430	-2.548322096328578e-05
150	0xbf247487f2e5d3bf	-0.0001560607865475332
151	0xbef39af3bf53a735	-1.869705370875011e-05
152	0x3e953027dab1376c	3.157274146057282e-07
153	0xbef3b45a3b70f881	-1.87916773166587e-05
154	0xbef59cb290cf79dd	-2.0610904403523207e-05
155	0xbf25fc9e9057a4fb	-0.00016774592965810423
156	0xbf1e6402810f1305	-0.00011593117984804939
157	0xbdf83ba15596d025	-3.526355506117073e-10
158	0x3ecf8082c5aa0266	3.7553304939599677e-06
159	0x3f2d68c88684e56f	0.00022437522717115184
160	0xbfd9b3cc3f400da4	-0.4015989892652334
161	0x3f53970d99a82df0	0.001195681840388537
162	0xbf9787631d851907	-0.02297739856410266
163	0xbf94c0448911718c	-0.02026469313237693
164	0xbf86feb04b06bc75	-0.01122796753847253
165	0x3fada4659ec79f8a	0.05789487422208513
166	0x3ee17ae200772e1d	8.33511877731176e-06
167	0x3f6412ea49cc9d89	0.0024504257147730008
168	0xbfd3aac88cbb153e	-0.30729879134408467
169	0x3eb7df5a3c6ece53	1.4229101325925191e-06
170	0xbf7c739f1a8fa74a	-0.006946202754059725
171	0xbeef75cf471edf82	-1.5001389531352003e-05
172	0xbf99d4ebe06319ff	-0.025226293154242182
173	0xbf93010bd37e77ff	-0.01855867842061087
174	0x3fbb44ac132f0ebb	0.10651660412173218
175	0x3fa1428ed71a26e5	0.03371092201002827
176	0xbecd27406230b924	-3.4753473001837067e-06
177	0x3ef67fc8067e0934	2.1456857580933952e-05
178	0x3f8c9e92102a5018	0.01397432433922323
179	0x3fc6c8d4184bce3b	0.17800379930814522
180	0x3fb6a7585a1ab2c2	0.0884909839612176
181	0xbf94e517e5380af4	-0.020405171742832587
182	0x3fc7d0635294e818	0.18604699642475064
183	0x3f4008b407661fed	0.0004893187568066872
184	0xbf2a4c408bb49a61	-0.000200636748425259
185	0xbf8eff7e35b62241	-0.01513575173773163
186	0xbf87102a2b94d869	-0.011261300520896538
187	0xbfe1933e8e2f251a	-0.5492241646799443
188	0x3fbffdda79450ce3	0.12496724568068233
189	0xbed8c05456670026	-5.901166650834654e-06
190	0xbf8cec15e4ec0145	-0.014122172402040287
191	0x3f8870ebcea08ef7	0.011934129946957734
192	0x3f1b09fc12ad27ee	0.00010314560919968938
193	0xbea2623a3f1dfe3a	-5.478769919825063e-07
194	0xbe9af47535380636	-4.016595102907814e-07
195	0xbe95872d3e2e3f2b	-3.207927063370265e-07
196	0xbe7f24151d8a52c3	-1.1600906847160649e-07
197	0x3ef4592fad7dcdac	1.9405730966549274e-05
198	0xbdf4f08963f3aa96	-3.0471123189919146e-10
199	0xbec3a54ad5d82c11	-2.3419467385424923e-06
200	0x3f332cec48bbeff7	0.00029259461074082567
201	0xbdeb3a600f39fad8	-1.9810997947438707e-10
202	0xbe56e4ea5266e721	-2.1321885723788694e-08
203	0xbdceef699899b20f	-5.627081012524759e-11
204	0xbe9e7454ac9a64c1	-4.5380617717247763e-07
205	0xbe93e182db972f0a	-2.9624854000204116e-07
206	0x3f1cd6a9a6e56ee7	0.00011001024697548553
207	0x3ed093493bb7a476	3.951868105181024e-06
208	0xbde990720af54d37	-1.8600432780741035e-10
209	0xbe114b8f7ecad36b	-1.0067107106003243e-09
210	0x3f29b1ae56faacfb	0.00019603017016343164
211	0xbf57c2c229a689ce	-0.0014502426261989612
212	0x3f0450008e26f934	3.874303526484255e-05
213	0xbeae2ad6c1d44e8d	-8.99056775390725e-07
214	0x3f116cdab5762899	6.647190945422084e-05
215	0xbea2b98d6963112f	-5.58042944097858e-07
216	0x3e18ab6cf63bace7	1.4359615379860407e-09
217	0xbeac5a86f8759d52	-8.450037833175226e-07
218	0xbec33d119dcf2180	-2.2934138841116075e-06
219	0x3f2cee8daf1ef734	0.0002207324937994415
220	0x3f44fe4cd8f053d4	0.0006406665069130743
221	0xbdf0bf60172741a2	-2.437090730206825e-10
222	0xbe8c9b9a6b3576ad	-2.1314490581796002e-07
223	0x3ef8fdae4bbd2f61	2.383321837777454e-05
224	0x3f8fe823d1cb41e7	0.015579490508941652
225	0xbf4aeeb8968675cf	-0.0008219147976437582
226	0xbf26118620c6bdc8	-0.00016836893372616638
227	0xbf1c720fe815cfa9	-0.00010851118169857725
228	0x3ef1375a09ede4e7	1.641866458210609e-05
229	0x3f83f1a4ec47ff26	0.00973824354241477
230	0x3ee020441c2feb06	7.689494742270993e-06
231	0xbfa4a6aac6740de0	-0.04033406899000247
232	0xbfd4bd60240b43a9	-0.3240585662834357
233	0x3ec3e2c4f3b69f1b	2.3705742060071007e-06
234	0x3f065c73888cb975	4.265048580119865e-05
235	0xbeabc5237ceb30c3	-8.276126609251705e-07
236	0xbf2bc493db88e78d	-0.00021185212041690792
237	0xbf1ac5cdd7088cc1	-0.00010212963912485923
238	0xbfbe2b4e10cef28d	-0.1178482810054879
239	0xbf5ab0a09f06c598	-0.0016290253225686776
240	0xbe917c2321f2056b	-2.6054547847688807e-07
241	0xbeef9a623a1ff784	-1.5069513953132813e-05
242	0xbfa9ee0bd449351f	-0.05064427343732291
243	0x3f88370ff4f48885	0.011823773062648488
244	0x3fafd8a02d5f0b94	0.06219959787224308
245	0xbf5a71ef9baa3a9b	-0.0016140785143396233
246	0xbfc2798841d95abf	-0.14433387007985307
247	0xbf4b5290c8196ed4	-0.0008338171903221289
248	0x3f2047e2fa293362	0.00012421270101228415
249	0xbf4f9652a0a3f0a3	-0.0009639647917363447
250	0xbf5bfc9f65765c32	-0.0017081791500908159
251	0xbfc643051ae245fa	-0.17392028629960504
252	0xbfc4fe5663f5d559	-0.16401176339028714
253	0xbe9fc90ce390f559	-4.736386674564163e-07
254	0xbeee5299be7ca89a	-1.4458970283810335e-05
255	0x3f9e6e887deae5ef	0.02971852558650839

kernel.layers.2.bias f8 [64]
0	0x3f401f3490113bb9	0.0004920012144199382
1	0x3f5415ff2bc4ff65	0.0012259475616502532
2	0xbf51b42ae845ad68	-0.0010805529610376733
3	0xbf24dac9dc89e43e	-0.00015910829667456662
4	0xbf5010e24ce873b6	-0.000980587955957219
5	0xbf90a8d178820737	-0.01626899049779881
6	0x3f3f3187528a3cae	0.00047597459573806955
7	0xbfa6ce6d13777bfd	-0.044543655992804056
8	0xbf50224386f8e5be	-0.0009847316213281577
9	0xbf58ee4b3d367530	-0.0015216574437098666
10	0xbf73559f724023e6	-0.004720328175616273
11	0xbf4c4f77cca193be	-0.0008639655072896141
12	0xbf3db5c1ffa354bd	-0.00045333849233248816
13	0xbf56079a3bc59fb3	-0.0013445860086793548
14	0xbf47c388f41746c9	-0.0007252138822712802
15	0xbf478139533b8be6	-0.000717308989319651
16	0x3fc5c62ee1a76c22	0.17011056917439854
17	0xbf7a18c0fa4babf6	-0.006371263331611301
18	0xbf5b389cb65fa2b7	-0.001661446608972534
19	0x3f142f37742d7a16	7.699752772569903e-05
20	0xbf46ebff42015e14	-0.0006995197654857143
21	0xbf44c67cf258ca88	-0.0006340131846570155
22	0xbfc10ba951a65ae2	-0.13316837775047136
23	0xbf3f463f8b775962	-0.00047720958124610445
24	0x3faeda602c987d22	0.06025982422237976
25	0xbf62c2e2f88fb140	-0.002290194800016604
26	0x3fc08b04f3365110	0.12924253345102743
27	0x3f16855494d04026	8.59101175623161e-05
28	0xbfc06993012e59bc	-0.12822187001866137
29	0x3fc413af270efc3b	0.15685071379809465
30	0xbf51b9a49dd56fa9	-0.0010818584044818092
31	0xbfb717695589f963	-0.0902009805522304
32	0xbfb527a15f47cf9a	-0.08263596130546916
33	0x3ef4e025bc76cd70	1.9908500488786116e-05
34	0xbf542d37b7304db6	-0.0012314838502377307
35	0x3fcb4d33c55876d8	0.2132935250855812
36	0xbf68536415ac29ce	-0.0029694514063340676
37	0xbf651a706b2c2b36	-0.0025760837246528124
38	0x3f6a111911fe7535	0.00318198105374159
39	0xbf318f4dc8b92758	-0.0002679409887816806
40	0xbf503471d8a93976	-0.0009890662937724593
41	0xbf31ae649fa8f8ab	-0.0002697940505277478
42	0xbf5190972e2faefb	-0.0010720707293740406
43	0xbf6431edecf9b609	-0.0024652144418755334
44	0x3fa70db4c3420227	0.04502644427794094
45	0xbf694d732237bc8d	-0.0030886887268404884
46	0x3fb8f5e37361cd29	0.0975019604391504
47	0xbf4d166c95c4aa9c	-0.0008876829338409667
48	0xbf1550405529a809	-8.130448012769199e-05
49	0xbf4ee73568779777	-0.0009430895597091056
50	0xbf5132666c2cc14d	-0.001049613973645408
51	0x3f82bdd2a45643c7	0.009151120796362279
52	0xbf641f7f1649117b	-0.0024564249199860422
53	0xbf5c060a412930e5	-0.0017104244367543372
54	0xbf4a31e6f6471d54	-0.0007994058365107617
55	0xbf4bfeb7f13e5b79	-0.0008543394237559974
56	0xbf124d50e1ad9373	-6.981664811929276e-05
57	0x3fc7baab9a96f931	0.18538422630622045
58	0xbfc21dac1298590e	-0.14153052242245007
59	0xbf4b407da8386dc0	-0.0008316625175583334
60	0x3fbdd390ce6af8ae	0.11650948562143768
61	0xbfa16eca9a681987	-0.034048396442858446
62	0xbf397a2ee40105db	-0.0003887524108031317
63	0xbf4b6f0c12ea4858	-0.0008372124628570716

kernel.layers.4.weight f8 [1, 64]
0	0x3f122d1af3ba2531	6.933667185129025e-05
1	0xbea032cbbb66dee2	-4.827505708992391e-07
2	0x3f038f665f8f8d22	3.730803650350336e-05
3	0xbf149f0766da8fcf	-7.86636607821849e-05
4	0xbf307539393ffc1c	-0.00025112769185392666
5	0xbfbb6589431b741b	-0.1070180691562687
6	0xbee0d2d8426de3a6	-8.022123507466145e-06
7	0xbfb997564b157774	-0.09996547062971023
8	0xbeee8381863421ca	-1.4550063673472112e-05
9	0xbf4045caef85aadf	-0.000496601190247272
10	0xbed9bea10cca15f6	-6.138001663052216e-06
11	0x3f3398a479843836	0.0002990151929375158
12	0xbf051b1327bb87f2	-4.02560444550253e-05
13	0xbf3c7ab840025055	-0.00043456075946691114
14	0xbef89002052a094b	-2.342465479411e-05
15	0xbebcd0d5c4c45b82	-1.7175532490193081e-06
16	0x3fc4a865e6b12564	0.1613891006875675
17	0x3f3162b258855f47	0.0002652821936144256
18	0xbefd3b2d3788cea5	-2.787700529634112e-05
19	0xbf23ecba37575ef0	-0.000152013522593412
20	0x3f24c213003b1ecd	0.00015837175316434638
21	0x3f04e32bf4cc9b01	3.983953374691284e-05
22	0xbfb4fe927f68f737	-0.08200946436496968
23	0xbf1307aebb7819d1	-7.259372693377916e-05
24	0x3fae7733c624938c	0.059503190934527245
25	0xbf3dd322b5d61d8a	-0.00045508954448122334
26	0x3fc4dfebc65a5a39	0.16308352647020444
27	0x3f2172f3fc39608c	0.0001331255754049059
28	0xbfbcd1e6b8bc15b5	-0.1125778389942614
29	0xbfb6cb61051eaffc	-0.089040817022294
30	0xbf1895fb8ed5fda7	-9.378764999289653e-05
31	0xbf843764b65744df	-0.009871279539682863
32	0xbfb604363fb8f81a	-0.08600176864362688
33	0xbfb432b7b9e4331c	-0.07889889038433434
34	0x3f29af1fe639af6b	0.00019595398326843357
35	0xbfcf1c867f540f36	-0.24305802552418648
36	0x3f3100758adfbdeb	0.00025942678155296714
37	0x3eebdc800852389a	1.3285316763391852e-05
38	0x3ed256742d486d69	4.372050814295668e-06
39	0xbf305c5e83ae4e2e	-0.0002496462581629025
40	0x3f317534dbaee723	0.00026638546449541024
41	0x3f38a8faa6b37dc3	0.00037628287709698063
42	0x3f387d0411a06385	0.0003736624654507237
43	0x3ef81f2faec47194	2.300436146739219e-05
44	0x3fc394ac37bf9642	0.15297463152016816
45	0xbf26e4677964aecb	-0.00017465365517332072
46	0x3fc771b0a8aabd93	0.1831570457047574
47	0x3f29012bd404759b	0.00019076976787683612
48	0xbf3550c8a552ed5d	-0.0003252496583845044
49	0x3ed1b3d38fe9eda3	4.220592244248881e-06
50	0xbf42a29b0255b143	-0.0005687004929036194
51	0xbfb9e99d479e71c6	-0.1012209224558723
52	0x3ed0379d019827da	3.866491192558756e-06
53	0x3f000885c515a1b3	3.0581075985139544e-05
54	0xbea156fabceaa178	-5.167652206888219e-07
55	0x3f0d20c9f1c1d1ef	5.555740628518715e-05
56	0x3ecec0410f01a21b	3.6658039946244954e-06
57	0xbfbf05e7bedc8345	-0.1211838570566331
58	0xbfb63c1b2920f48c	-0.08685464624518796
59	0x3f3b22aa404b3638	0.0004140535022941513
60	0x3fb8859b29c7ef24	0.09578866739314812
61	0x3fb403e520c6e658	0.07818443346231996
62	0x3ea3265f73cebc1b	5.70711314309516e-07
63	0x3ec67e9abe1c660c	2.6815591675055267e-06

kernel.layers.4.bias f8 [1]
0	0x3fa5279ab0e70f9f	0.04131778153853748

fnw.layers.0.weight f8 [32, 1]
0	0x3fbff7e713762e70	0.1248764441026482
1	0xbfb6978b04dabdbe	-0.0882498633243278
2	0x3fceb568cfe8def3	0.23991117622221445
3	0x3f38a8dd3cf2ccf1	0.0003762760288267961
4	0xbfe95dffdef32164	-0.7927245478140716
5	0xbfcaaea842ccde3f	-0.20845511686069249
6	0x3febe6c8f81f5251	0.8719220014705319
7	0x3fe80795de2b12db	0.7509259547446975
8	0x3fb468e5055d921a	0.07972556477540885
9	0xbfd575f56e9d0752	-0.3353246288498798
10	0x3fd2dae31d6ef7a0	0.29460981249200735
11	0x3fc1bf1485225baf	0.13864380360311432
12	0xbfdc7db7686d8438	-0.445173122387192
13	0xbfd8aaf31f38bb89	-0.38543394135461334
14	0x3fef5c2c932a97d1	0.980001723703703
15	0x3fd04ddb78b09fd0	0.25475203310133754
16	0xbfe761e5389e96dd	-0.730700121483746
17	0x3fec641d72e730d8	0.8872210735512693
18	0x3ef49b83651977aa	1.9652818372121725e-05
19	0x3fe57853dc22a4d1	0.6709384250181306
20	0xbfea6656b32e6671	-0.8249925136216928
21	0x3fda68baf98e3cd3	0.4126422345224913
22	0x3f9763e5cc12f633	0.022842016773884487
23	0xbfd6c71249619c7e	-0.3559003559698296
24	0xbfe75c7c08d4627d	-0.7300396130040806
25	0x3fd959b85887e775	0.3961010803756076
26	0x3fe2d9229744a501	0.5890057520347513
27	0xbfb57fcc353ab894	-0.08398128795190224
28	0xbfb82a8ca6749c5a	-0.09439925254683726
29	0x3fd43fab13ca4179	0.3163860028517074
30	0xbed8ab2454687242	-5.881434225443534e-06
31	0x3fbd9244f09ddc23	0.11551314234189695

fnw.layers.0.bias f8 [32]
0	0xbfd00e011b956a34	-0.2508547562953567
1	0xbfafb925cb8a5574	-0.061959439369426855
2	0x3fd0327c4d53df81	0.25308139373327526
3	0xbf386081b310e009	-0.000371963181410973
4	0xbfe1eda9b700940a	-0.5602615904105062
5	0xbfcb5522f96c484f	-0.2135356634030949
6	0xbfd00c7fb4ce295d	-0.25076286942262077
7	0xbfb30a36b92f94b6	-0.07437459965838653
8	0xbfbd5190812f00a2	-0.11452582506081169
9	0xbfe18ec0eaed2f71	-0.5486759746940902
10	0x3fd28e119d4c9a01	0.28992119179966386
11	0xbfc8b69437384d92	-0.1930718679073889
12	0xbfdcc5ba60ec8fb5	-0.44956836190453525
13	0x3fad9468ba8917c0	0.057772896547745756
14	0xbfb7691de0389809	-0.091447703591797
15	0x3fe117c37dcdd624	0.5341508347616508
16	0xbfd96fe93b682b12	-0.39745550919967443
17	0xbfb5af8714d28022	-0.08470958956104416
18	0xbf085d549d45b50d	-4.647173378456203e-05
19	0xbfb2f4f0abfa6cc1	-0.0740499896877962
20	0x3fc49c4a4b9aa59a	0.16101959888082434
21	0x3fe3c53d4a601837	0.6178270771640716
22	0xbfe0c916fbf047f3	-0.5245470925021877
23	0xbfde944ddfcc0072	-0.47780176978267896
24	0xbff0feab3a68604b	-1.0621750146438156
25	0xbfdce1f0d041e62f	-0.4512903245700696
26	0x3fe9ae9cce163d44	0.8025650048383928
27	0xbfd8a9db38cbb3c5	-0.3853672079702018
28	0xbfe18bf715354405	-0.5483355917186833
29	0x3fe117a01490e246	0.5341339494398845
30	0xbede39f52c450135	-7.206534693715833e-06
31	0x3fd70beb1e5bcf7b	0.36010244335852065

fnw.layers.2.weight f8 [64, 32]
0	0x3f2bd63244f9f00b	0.0002123772014676065
1	0xbf1574e96e886f80	-8.185076479388757e-05
2	0x3faecd8380d7fb93	0.0601616949825178
3	0xbea8d46e3ec76925	-7.399859192584091e-07
4	0xbf322b05309c2935	-0.00027722241121410095
5	0xbf12ad8c4b4df9b5	-7.125061786259527e-05
6	0xbf877517a240f5a9	-0.011453804625598378
7	0x3f8eef387a547d78	0.015104714616028345
8	0x3f2e9a6c9974b208	0.0002334840362235998
9	0x3f01d4041f66f6ec	3.400456982969959e-05
10	0xbf65d1660a361785	-0.0026633255926666343
11	0x3f2f02d23c513100	0.000236595309760175
12	0xbf123221a5532512	-6.94115672842564e-05
13	0x3fb169c371a086d7	0.06802007221315463
14	0xbf977bedda79ba6b	-0.022933689555822683
15	0xbfc0c2bd059ea903	-0.13094294332888276
16	0xbf640d168b9373ad	-0.002447647126798866
17	0xbf7cfeecf43d5eac	-0.00707905349903341
18	0xbe7077945a3171ba	-6.134475554045817e-08
19	0xbf783783177ff1dd	-0.005912315442398311
20	0x3f7bf0d0410798a8	0.00682145451762587
21	0x3fa374b7ba0a9d22	0.037999860248698406
22	0x3f1fa1d3ec848563	0.00012066703778092695
23	0x3ecf7a8ce60b7e3c	3.7525549462095493e-06
24	0xbf02cfe43295acfb	-3.588118699834362e-05
25	0x3f1c4092fbf8d62d	0.00010777375336420347
26	0x3fb3d3a7a037adfa	0.07744834577140827
27	0x3f2014d00e553c30	0.0001226905798525648
28	0x3f1a8914e719f314	0.00010122480468939223
29	0xbfa130074ea69ffb	-0.03356955370992406
30	0xbe80a08ab39abbfb	-1.23881670967854e-07
31	0x3f73da65d7e32b60	0.0048469522718715685
32	0xbf2b11a0fa3437a8	-0.0002065190320554276
33	0xbf37eddbd3ae053c	-0.00036512963168185467
34	0x3fb7bbd035f8e89b	0.09270955388720596
35	0xbeb246d51d507ce9	-1.0893755775299709e-06
36	0xbf604573352803b6	-0.001986241354871211
37	0xbf272831cd810c05	-0.0001766739649174677
38	0xbfa157461d3b8d7e	-0.033868971889911656
39	0x3fa20a7c98ff2e39	0.035236257244460174
40	0xbf19eda7ccc1edf7	-9.890877407941328e-05
41	0xbf399787ca9ebe47	-0.0003905016443423764
42	0x3faae2106703f63e	0.05250598199380051
43	0xbf25e2f132cb7acc	-0.0001669806892072495
44	0xbf353a01fed46daf	-0.000323892104306468
45	0x3fb044ad3764f6ab	0.06354792215730735
46	0xbfaab78f94a29013	-0.05218170823471282
47	0x3fb6c086e3276402	0.0888752274107816
48	0x3f3554b971ea0eac	0.0003254845377471487
49	0x3f79dcea274c2d7a	0.006314196264394107
50	0xbe646c3c886e9381	-3.804042685650469e-08
51	0xbfa55a748e1e3563	-0.041705744121922426
52	0x3fb0c59975508ead	0.0655151282704149
53	0x3fbb26d297df61a3	0.10606113632036922
54	0xbf39cf5a3c59f845	-0.00039382889767825376
55	0xbf36c6722818a98f	-0.0003475216582013102
56	0xbf47ad2a381af305	-0.0007225471637962449
57	0xbf3e8c348208b54d	-0.0004661205476022737
58	0xbf632c5764a0fb71	-0.002340479554760071
59	0xbf330a02ba2fb844	-0.0002905136736320905
60	0xbf3a26ea72e2454e	-0.00039904807898335094
61	0xbfbedf97f68f21f0	-0.12059926766881524
62	0xbe8ed5efa435b14d	-2.2974377787298679e-07
63	0x3fbf4d26c83921af	0.12227098835240356
64	0x3f074a6a8e915d38	4.442346273297388e-05
65	0xbf1d6ed4a38cf9d8	-0.00011227772564568279
66	0x3fb71862675913c5	0.09021582625525955
67	0xbe9eee63760b898e	-4.6091087395178547e-07
68	0xbf5d2973d4340295	-0.0017799025670798597
69	0xbf23df76377fbf9d	-0.00015161817623221283
70	0x3f503870742c1a6f	0.000990018671190331
71	0x3fbfbe366f8cf571	0.12399616454509556
72	0x3f0642eff79b0540	4.2460392206242984e-05
73	0xbf308d5d78c40c93	-0.0002525666429990605
74	0x3f743a3b52245b10	0.0049383465978028035
75	0x3f0e5f862070e013	5.793216774246947e-05
76	0xbf33dbd99246f44e	-0.00030302106668129026
77	0xbfa111c079d384ce	-0.03333856093537123
78	0xbfb4e64fa4fef0e7	-0.08163926866740533
79	0x3f3b3f4399620bfe	0.00041575813646249616
80	0xbf6a03853638a1ae	-0.003175506762790734
81	0x3f9a6d5351d7d8c6	0.025807668562230622
82	0xbe70bc052526c218	-6.234069730468564e-08
83	0xbfb02d216a714f2a	-0.06318863724419246
84	0x3f9b61d0792c43e4	0.026740319629485657
85	0x3fa6301b75eb70b0	0.04333577932786292
86	0xbf058d9e05a2a221	-4.110945219909881e-05
87	0xbf30d1f0ae33c70d	-0.00025665403354856246
88	0xbf423739ad7766df	-0.0005558997754022374
89	0x3f169ceaee2629a8	8.626159573147405e-05
90	0xbfa87082eba23fcb	-0.04773339392079342
91	0xbf17afab73cc799e	-9.035572015789756e-05
92	0xbf1d4e92ae048e30	-0.00011179704916180404
93	0xbf97d24cd8e445a5	-0.023263169038789795
94	0xbe510f6a0a220cae	-1.588856036366415e-08
95	0x3f93e34fcf765edd	0.019421813046931347
96	0x3f0696f6facc6980	4.308644506619257e-05
97	0xbf2cfcbf01d69e47	-0.00022115546827915415
98	0xbfaa91749a342311	-0.05189098722809694
99	0xbeb339160d0f0d6f	-1.1457796526983043e-06
100	0x3f44e75b1ec44dbe	0.0006379313395278791
101	0xbf202cea93cd0621	-0.00012340892308242236
102	0x3f9c0c09cb620930	0.02738967231608419
103	0x3f883f3bca14ee45	0.011839358429475708
104	0x3ee33c6092c7723e	9.172367378456754e-06
105	0xbf126ec44a34fddd	-7.031510408683031e-05
106	0xbfb9d60f6e558219	-0.10092255061818668
107	0x3f08fc7189288f40	4.765721782387525e-05
108	0xbf1b2c848dcd899d	-0.00010366019291788713
109	0xbfb7146f62cb58b0	-0.09015556489916565
110	0x3facfc733545c318	0.056613540890685765
111	0x3f8eb3876c250f9f	0.014990861881081062
112	0xbf795b50589206c3	-0.006190599299886026
113	0xbfba858327f93186	-0.1035997364608133
114	0xbe6640002e67afce	-4.144385972238166e-08
115	0x3faa7ec34c46627d	0.051748374043374824
116	0x3f8aa68f92ab7cc2	0.013013002074727335
117	0xbfbf3a6a614a01a1	-0.12198510050985202
118	0x3f05e4e2e20bb472	4.1759656829267684e-05
119	0xbf161131852830cd	-8.417954203582545e-05
120	0xbf228a73328bc289	-0.00014145523279964305
121	0x3f28d747a00b0dc2	0.00018952130633041574
122	0x3f965d311bc9a647	0.02183987362005826
123	0xbefb2c4507e73447	-2.591412384749341e-05
124	0x3ebdee2094b812ad	1.7839780238625557e-06
125	0x3fbcaa3327776c90	0.11197204316651921
126	0xbe981adbf6c81e99	-3.591912818572113e-07
127	0x3fbf3e5888649d23	0.1220450718870905
128	0x3f2372b47744564f	0.00014837696984020202
129	0x3f1d98240f5e600e	0.00011289329617480989
130	0x3f53b85243e13a1c	0.001203613602701054
131	0xbe8932052ea7221d	-1.8772029559815463e-07
132	0xbf2113cf517ea635	-0.00013029008618774406
133	0xbf21779d5c481fd6	-0.00013326450256578745
134	0xbf8d1226a35b0ff9	-0.014194776401730268
135	0xbfb3f14e7426ea4f	-0.07790079437010287
136	0x3f1f64fca86a10bd	0.00011976043797729242
137	0xbf256e26d5b5f34d	-0.00016350006158552047
138	0x3f8ff7514dd8ada9	0.015608439624961461
139	0x3f251cd391f30d1d	0.00016107638018612253
140	0xbf2b2215007c64c5	-0.00020700937624765748
141	0x3fa3f3b6996b7d57	0.038968759754193165
142	0x3fa63ee7fbfa8f6e	0.043448686131596456
143	0xbf97027b3efcdfc7	-0.02247040340372999
144	0xbf66ff43d39a66f5	-0.0028072666871822257
145	0x3fa5b96f8b6aba7e	0.042430387276330514
146	0xbe6105446124c36d	-3.170329078634537e-08
147	0xbfb1c0a0d905110d	-0.06934552477202179
148	0x3f98fe460c90e529	0.024407476918189595
149	0x3fc2be9e957ddbd7	0.14644224452396656
150	0x3f062139733ad04f	4.220921110001439e-05
151	0xbf27b0e8a38e47d4	-0.0001807483656902075
152	0xbf32fdd101eb4e95	-0.00028978684160317045
153	0x3f26e7b7a0affcae	0.00017475239323514385
154	0xbfaca4c7bc4b84fa	-0.05594467328570292
155	0xbedc2caf05f73bf2	-6.717335139196599e-06
156	0xbef88bf8dd15871c	-2.3409620387388535e-05
157	0x3fa64af85015c391	0.043540725494387485
158	0x3e642b1fc0198349	3.756667156236787e-08
159	0xbfa657aa8c048e66	-0.043637590019241654
160	0x3f31c00fbea7cbc0	0.00027084717171915393
161	0xbf165ef6fc84fda2	-8.533842549684212e-05
162	0xbfa021aa0c023c2c	-0.0315068378123374
163	0xbeb2bb486ee30074	-1.1164888138876196e-06
164	0xbf44cfd111f3d552	-0.0006351252413014186
165	0xbf21cf52ce129b2d	-0.0001358784275328982
166	0x3f8fb53f88ba3c18	0.01548242221841005
167	0x3fb111815ca24cc2	0.06667335998126858
168	0x3f226df51f26043d	0.00014060609062130523
169	0xbf0ed3dd501fb399	-5.87989725458822e-05
170	0x3fc260d327794263	0.14357985904145484
171	0x3f31817bb7ce67fe	0.00026711721857852744
172	0xbf2662a636b6dc17	-0.00017078665710609848
173	0xbfa8c96cb3c861e1	-0.048411747881065066
174	0xbf8eedd819b56865	-0.015102089199604938
175	0xbfc0f9de84ce0c07	-0.13262540325749247
176	0xbf83993db63d7cf4	-0.009569627880124255
177	0x3f9ed00be23dfba5	0.030090509113047798
178	0x3e4edf99e23dd583	1.4376566666072765e-08
179	0xbfacb9ee348ee25f	-0.056106037059582496
180	0xbf95123cbcac4f2f	-0.020577382102671734
181	0xbfb9ffe0d002eda3	-0.10156064108280431
182	0x3f3072f11fd3b7a5	0.00025099169563602203
183	0xbf1b33c7f60672a0	-0.00010376842465693393
184	0xbf1e4bb4a0de90c7	-0.00011556901901471898
185	0x3f414ce58234893f	0.0005279656074075669
186	0x3fa30438c90f5b25	0.037141584914641514
187	0x3f1527c9cd72ffa9	8.070153431827147e-05
188	0x3f223fefe27d699d	0.0001392345741305202
189	0xbfb3b2254497291c	-0.07693703579494521
190	0xbe99a454ed449206	-3.8209439636092414e-07
191	0x3fa772858924a4d7	0.04579560565100287
192	0x3f328565c6e57736	0.00028260931767031276
193	0x3f29b4c1969fe6c7	0.00019612181796429246
194	0x3fba169f5f504629	0.10190769268981427
195	0x3ec9ea84213566e4	3.089437322562114e-06
196	0x3f32d796cef7411e	0.0002875083145825896
197	0x3eff9184f128c840	3.010600546300029e-05
198	0x3f93be957a70c5b9	0.01928170738046273
199	0xbfa2f7c342ec5d13	-0.0370465296929813
200	0x3f2e5590fcfcc89d	0.00023143191219216356
201	0xbf0ca6e2423ed05a	-5.464914309474883e-05
202	0x3fabe3bbb61b7696	0.05447184179295765
203	0x3f32ca974d39aebb	0.00028673356903284223
204	0xbf21db4d0b9bb381	-0.00013623538489273768
205	0xbfbec7227fc11159	-0.12022605532644572
206	0xbf89352ac7719279	-0.012308439456498054
207	0x3fa3960f65e90b82	0.038254243078447395
208	0xbf7ecd84b2c9c71a	-0.0075202163248933255
209	0x3fadda8f50f19ab9	0.05830810416300864
210	0x3e912c1492c61405	2.558855552103827e-07
211	0x3f85c4e8d5ce9aea	0.010629481339333908
212	0x3f9471586e42842e	0.019963628511167446
213	0xbfb9d235fe1e6348	-0.10086381391591914
214	0x3f2da823fec4d1a5	0.00022626342195909452
215	0xbf1259edac2ddf42	-7.000458849215372e-05
216	0xbf394cac46101246	-0.0003860397901578643
217	0x3f41986db3b30b49	0.0005369697240883233
218	0xbfbb3960fe67d0b6	-0.10634428225586387
219	0x3f21574558b13ce0	0.00013230058206879
220	0x3f215d4f286e8da6	0.00013248053821000616
221	0x3fad6bf0a2d79e4a	0.05746414172955079
222	0x3e73dd892a5bb695	7.400428589005131e-08
223	0x3f9200f2672cfa32	0.017581737086624645
224	0x3f490f3436c735cb	0.0007647519064961026
225	0x3f4738c18f9fdd52	0.0007086701509696847
226	0xbfb1b59d1fc9ed8d	-0.06917745615094457
227	0x3edd9eb48687b983	7.061944508708598e-06
228	0x3f4b110ee744dd19	0.0008260081072312436
229	0x3f4bf8da94fb30d4	0.0008536402983394761
230	0x3f8e7c230f27362f	0.014885209941804948
231	0xbfb15eff08468ac6	-0.06785577728309553
232	0x3f47611c0c41043b	0.0007134806587673134
233	0x3f4d3a187fa01483	0.0008919353124389326
234	0xbfb013758a2e03ad	-0.06279692290810486
235	0x3f485e3aae5d8396	0.0007436548737410505
236	0x3f4ced3456edff87	0.0008827691616346425
237	0xbf918952d2f4c879	-0.017125410199874545
238	0x3fb5cc859a152497	0.08515200626165363
239	0xbfba514d6c9f1334	-0.1028030767620976
240	0xbf722aac38145cf7	-0.0044352271372851615
241	0x3f82786e6db83c1e	0.009018767093065757
242	0x3eceaa7e7543ebce	3.6556711312507904e-06
243	0xbfa7f1e708c03565	-0.04676744443723172
244	0xbf94ca0986ce6776	-0.020301960804864426
245	0x3fbbdf99b48dc4cd	0.10888062151004192
246	0x3f4c37459a33eb49	0.0008610811095473926
247	0x3f4cf3a22f6b406c	0.0008835355682439545
248	0x3f50fcdaef8028b2	0.0010368478815530433
249	0x3f4c767c6dc74b46	0.0008686168253525326
250	0xbf9ef574debce161	-0.030233217329823762
251	0x3f4ab67258e053ba	0.0008152063690000024
252	0x3f4c6d97098854a8	0.0008675563322550111
253	0x3fa7baff792ea363	0.046348556082483915
254	0x3ee1309479c11401	8.196718958805931e-06
255	0xbfae891149cd70e8	-0.0596394922820041

fnw.layers.2.bias f8 [64]
0	0xbf94ce18ccd3e333	-0.020317447187127868
1	0xbfc282b6965eb673	-0.14461405126842272
2	0xbf85fbaca866e12e	-0.010733937157838182
3	0xbf844cd4ca813617	-0.009912168912843673
4	0xbfab0edc9c085364	-0.05284776119893911
5	0x3fb96353a0b7fa89	0.09917185472293445
6	0x3fa93d2e72d6debe	0.049294902342294375
7	0x3fa68d8104d2e64c	0.04404833969006158
8	0xbf945cae09783130	-0.019884795501682706
9	0xbfa20f3766ff5df3	-0.03527234203619036
10	0x3fc4421563d290ea	0.15826671003481546
11	0xbfa465e981249bf0	-0.039840027822997004
12	0xbfc31b6665ffd0d3	-0.14927368145402528
13	0xbfb9a5b06c1ac3a1	-0.10018446578284436
14	0x3fb779672d280c25	0.09169621326877626
15	0x3fb2de58be748371	0.07370524072440589
16	0xbfd0ebbad44b7296	-0.2643878052893255
17	0xbfae50db42bddc94	-0.05921063604085322
18	0xbfb86c2415091c34	-0.09540009988369108
19	0xbfb4e705fcedf8ea	-0.08165013718641814
20	0x3f9899bf53cfcbd1	0.024023999681911882
21	0x3faea8293ebf4fa2	0.05987671748121605
22	0x3f980ef590ccda3d	0.02349456497469248
23	0xbf9c5b8c249e847e	-0.027692975745257524
24	0x3fa72a1ac5217f0b	0.045243107379745316
25	0x3fa17c8b0dc72869	0.03415331404865258
26	0xbfb49440d509c964	-0.08038716508034366
27	0xbf9c2a2b23d7504e	-0.027504610121312383
28	0xbfbab82c88c485e5	-0.1043727716355743
29	0x3f7b806447e781a3	0.006714240762875442
30	0xbfa24d2f5ee3dc5f	-0.03574512513471783
31	0xbfc0130b736c1476	-0.12558119903420434
32	0xbfb98d363d59b9bd	-0.09981097219290454
33	0xbfd08d51c92db68c	-0.2586254562982979
34	0x3fb0edc1147e6bb2	0.06612784147584597
35	0xbf768c837137c93b	-0.0055050978148634645
36	0x3faa2378d5d0af16	0.05105187997864229
37	0x3fb464350be88d42	0.0796540407250648
38	0x3f7d66f1534f152f	0.007178251912539665
39	0xbfa1f7aa6e9e9789	-0.03509266472182932
40	0xbfbed22badc85324	-0.12039444916474601
41	0xbfba192040536689	-0.10194589205220884
42	0xbfb6ebb5001eae6e	-0.08953410389829639
43	0xbfc17ab946836b72	-0.13655773108515806
44	0xbfbb58b69ed830b4	-0.1068224084667147
45	0x3fb01a8290a56aea	0.06290451079750495
46	0x3f862b0c6d4cce4f	0.01082429607922744
47	0x3fc0877cbda1f867	0.1291347433033849
48	0x3fada6b09b9ed6cf	0.057912367817534276
49	0xbfb7310da49d6d7c	-0.09059224385184977
50	0xbfa0092ea25f6111	-0.03132005436026664
51	0x3f85e0aa03569db5	0.010682419039610072
52	0xbfc3f0db44de8185	-0.1557878576541151
53	0x3fa8256b9e0550f4	0.04716049484219012
54	0xbfa76505fa03c2bf	-0.045692621964808826
55	0xbfb9e3a96da02028	-0.1011300938263281
56	0xbfd1f7e03c0e367e	-0.2807541452865293
57	0xbfb95426a8700f8a	-0.09894029247521821
58	0x3fb4ac24f9f0ed7a	0.0807517156799146
59	0x3faf8b577d238478	0.06160996820995818
60	0x3f93db34d2acf26c	0.019390893324486333
61	0xbfb162c913a7817a	-0.06791359643785269
62	0xbfbfd95e23eb1d84	-0.12441051842608003
63	0xbfb225ffd2a6ea46	-0.07089232342597382

fnw.layers.4.weight f8 [1, 64]
0	0x3efca28419e7bc3d	2.730830021307702e-05
1	0xbf0b140767cb6d94	-5.1647640224773656e-05
2	0x3ed3dd9399e48277	4.736312261749955e-06
3	0xbf21a9412d05cb11	-0.0001347438869846109
4	0x3f065b67bbcb90bd	4.2642691800571956e-05
5	0xbf17ea16eb3f2b96	-9.122624288619564e-05
6	0xbf27c0a437f3a0a6	-0.00018121723767384085
7	0x3f41720084e6fba5	0.0005323889288816232
8	0x3ecc90ac066e6de6	3.405228244669192e-06
9	0x3f12063968775f9a	6.875729933797232e-05
10	0x3fc1b68c81f88c5b	0.13838344904169983
11	0x3ef5501a7f819e0a	2.0325569466099167e-05
12	0x3fd619a77f252162	0.34531581322200655
13	0xbf2727466b051074	-0.0001766465625313605
14	0xbed0c9d843b4e3fa	-4.002679868713751e-06
15	0xbee9222f7066f95d	-1.198460405482372e-05
16	0x3ff48fb27b6322ba	1.2850823230566406
17	0x3eca67c4f7a73baf	3.147762922518314e-06
18	0xbf00d38362b068e7	-3.2093474452392534e-05
19	0x3f3c35473e10de89	0.00043042172734739835
20	0xbed59ea3eef3f868	-5.1545355141941105e-06
21	0xbedf3280a40cb494	-7.438010073451983e-06
22	0xbee9841240dcc7b6	-1.2166930925514588e-05
23	0x3efb45d6c7fac4d2	2.600937705094371e-05
24	0x3efeb2d12a457303	2.9276374918440876e-05
25	0x3f42792855efaf80	0.0005637595130543044
26	0xbf227a988d49f7a6	-0.00014098274427348545
27	0x3fa0bcc0b04fcec7	0.03269006874316243
28	0xbf2da665faadb0e1	-0.00022621149886548674
29	0xbf04c2ad3be8d6c6	-3.959742706564693e-05
30	0xbee10648b5ab4a0e	-8.117936592643069e-06
31	0x3fd8814845e23206	0.38289076637809705
32	0x3f233fbb09efc269	0.00014685781658798088
33	0x3ffd3a51c1a4bf05	1.8267381252480288
34	0x3ef3bd4911604aeb	1.8824955155659106e-05
35	0x3f01fa9277989906	3.429183466279084e-05
36	0xbef8e17791b2ee44	-2.3728113870842443e-05
37	0xbef0ef1ce84b355d	-1.6149554101831598e-05
38	0xbf0635ee1b4d3cd7	-4.2363480509005693e-05
39	0x3f25b9c480117227	0.00016575359043970278
40	0xbf340bf5f576e3ee	-0.0003058886990988098
41	0xbef1b99f95ac2179	-1.690396434653313e-05
42	0xbf163ae507898f43	-8.480093846113556e-05
43	0x3f0358bd9aa7dd92	3.690079332224339e-05
44	0xbefb27e1b4c7b420	-2.5897777321693652e-05
45	0xbf1181fefc40b9e5	-6.678694541115795e-05
46	0xbf33a40293ba6047	-0.0002996927539498134
47	0xbe86cf696de7eeae	-1.6994925196289122e-07
48	0xbf27c7b4799f999b	-0.00018142774643976626
49	0x3ed542601a4d93ff	5.068607070811588e-06
50	0x3f41ca19d6c393f0	0.0005428911367998373
51	0xbf19926d32d8f605	-9.754935737135019e-05
52	0x3ee1b4849877e419	8.442472576130178e-06
53	0xbf1866e656c89d54	-9.308606031110017e-05
54	0xbf21a52480f55918	-0.00013462133982029205
55	0xbf19e4a1ab10c6ae	-9.8774306722028e-05
56	0x3ff85c0f1900216e	1.5224753357489038
57	0x3f0c5066f14a0be2	5.40048041886216e-05
58	0xbed4bd338fc77b3f	-4.944579128778405e-06
59	0x3ef152d68f03469f	1.6521059422575282e-05
60	0xbecce15440f2fc13	-3.4427871536675443e-06
61	0xbf24b04bbe8624a3	-0.0001578419171546541
62	0xbf3c81ebec1366bb	-0.0004349900228369609
63	0x3f270455651bf0a3	0.0001756052247897699

fnw.layers.4.bias f8 [1]
0	0x3fa8b974f1ba5e71	0.04828992319852155

fnb.layers.0.weight f8 [32, 1]
0	0x93d589d15471ddb4	-3.99866955475853e-213
1	0x9665a2f1ddd05be1	-8.833238808621332e-201
2	0x98a357642cf8d13d	-5.426252883262623e-190
3	0x9906bedf79433827	-4.0840407542082705e-188
4	0x94002585413b2cb4	-2.398132633125028e-212
5	0x92ae416c1f9b2a4a	-1.0713670869010039e-218
6	0xa29876975af45ae5	-5.015291214735885e-142
7	0x984d0f82ac8db901	-1.2739053551877196e-191
8	0x99e32850e3935ec3	-5.635742419690685e-184
9	0x95487ec17cff4954	-3.814809917263311e-206
10	0x91924fcc04afdc97	-4.947115628000263e-224
11	0x975ce8cef590050a	-3.867426184875985e-196
12	0x9740d04d21e43be0	-1.1246452125035076e-196
13	0x1cb4cf392c4a100e	2.153889412834879e-170
14	0x1e22ce26ffaceeeb	1.632797124087397e-163
15	0x975b394e0834977a	-3.6419361697616876e-196
16	0x93fea7519358d12e	-2.2763780688879308e-212
17	0x9cd5257956aec769	-8.755048221618925e-170
18	0x950462a2c4874995	-1.9842209056805007e-207
19	0x9cf950a3f29ac6fc	-4.1923777308433296e-169
20	0x9b5ce1806cdb2f19	-7.1270986102191395e-177
21	0x1bc1142086df3757	5.394675635090303e-175
22	0x9563aa61b9c0afbd	-1.2250650455789941e-205
23	0x1c871561fb20e436	2.9865832824079363e-171
24	0x9451094ca9354e09	-8.09690392150795e-211
25	0x1b53d1b2d1a9a32b	4.8908827331536655e-177
26	0x930bc689adbf03b9	-6.2947084463584056e-217
27	0x94624b0aac83f354	-1.7388459122536055e-210
28	0x96d098adb9557da4	-8.672749154850818e-199
29	0x966f201c4f0b665a	-1.2707153848634307e-200
30	0x94564007d16a2fce	-1.0574878534539468e-210
31	0x94a6547caf60ac89	-3.3961141629960064e-209

fnb.layers.0.bias f8 [32]
0	0x93f7f29aaa212784	-1.7783874301089343e-212
1	0x968cbcd517ac1c3f	-4.692926891405156e-200
2	0x98b6ca8ae66ae11d	-1.2788204970507157e-189
3	0x99190e46c10bc346	-8.997677403972025e-188
4	0x94215657cef47826	-1.029992242276348e-211
5	0x92d06497716c9080	-4.643868218059096e-218
6	0xa2ff1eb012cddf22	-4.0831925613599836e-140
7	0x9860c05605381999	-2.937254679391254e-191
8	0x99f36d26598cfc18	-1.1429684166561936e-183
9	0x956a618f1b1ce7db	-1.6434091611595943e-205
10	0x91b2d96574ef993f	-2.036930677357155e-223
11	0x9785f87748d8ffc8	-2.351333058174746e-195
12	0x97693fd5bbd091b1	-6.755587462356703e-196
13	0x9cd2f1583e2b0111	-7.842698948007008e-170
14	0x9e4f2e1660cbd28a	-1.0829012841624727e-162
15	0x9785c12f97dc1d5d	-2.328222989269167e-195
16	0x9420b9092fb22d69	-9.934864763357694e-212
17	0x9d23a912872fb7e5	-2.6047475773251956e-168
18	0x95285f8117238a6b	-9.489495140205604e-207
19	0x9d47c2273b230680	-1.2590698286417583e-167
20	0x9ba09b2d9918cb0d	-1.3113598201633545e-175
21	0x9bd2ef410cccc6b2	-1.196184980536676e-174
22	0x9587c5a978b0331f	-5.923533158069174e-205
23	0x9cba82f5fee52973	-2.7440868086649555e-170
24	0x9472c08fa903701c	-3.564963421439637e-210
25	0x9b7c00705ca0e39c	-2.7640581342680275e-176
26	0x932dfa44bae345cd	-2.71750373365424e-216
27	0x9484ba0998154fd9	-7.88067429507611e-210
28	0x96f6e002bea2d7d5	-4.781506600605561e-198
29	0x969146654b075f8c	-5.642096621384482e-200
30	0x9476f4c2e3c73a64	-4.364164578896438e-210
31	0x94c713a5ebcc6929	-1.4038725043943937e-208
