best_model_dk20_sinonly_synthetic.ckpt (torch, 255639 bytes, 26 tensors)

kernel.layers.0.weight f8 [32, 1]
00000000: c9de 2910 28ba a3bf fb35 eda6 d2ae c53f
00000010: 75e8 0817 1708 eebf 0da7 e0fe 2454 c2bf
00000020: 5e65 c315 736c 3a3d 154b cf1a a453 d43f
00000030: db79 c18b db7e 623f b96f 8020 0b63 e33f
00000040: 7fee d042 cd1b aabd 68da 53c3 0db1 d4bc
00000050: a6e6 e603 69b1 d1bf f1e3 81ca c356 f43c
00000060: 0a55 fd6d 38a2 f0bf 68bc d0b2 ec60 e8bf
00000070: d13d bdd3 646c d0bf df17 92de cfb7 bf3f
00000080: 0bda 9b92 6b0a e3bc 87e1 99bf 4619 df3f
00000090: cc61 e9b1 39ed e4bf 18d8 b4b2 10f2 d4bf
000000a0: ac3b 4535 2225 d43f 6cb5 0c6a 23dc ea3f
000000b0: e8f1 fdc1 0f0e 703f 3e49 e482 9ed7 e43f
000000c0: 2485 e73c f015 fbbc 4cba 3e07 65c8 863d
000000d0: 13c0 6ca9 dc55 e93f b430 8848 2cda eebf
000000e0: 9d91 d785 a135 debf 2283 988c 965b 97bf
000000f0: 1b3d 279a bd4e 3f3d 2023 9eb2 57f5 eb3f
-0.038529636357393544 0.1693976702758134 -0.9384875726602916 -0.1431928867835314 9.38755955030995e-14 0.3176050435842382 0.0022577560430783023 0.6058402666853829
-1.1872817042017256e-11 -1.148615439244112e-15 -0.2764532602410362 4.516148573829403e-15 -1.0396045967548297 -0.7618316166389265 -0.25661583593042986 0.12389849838117993
-2.11394279070408e-15 0.48591774664921455 -0.6539581751667867 -0.32727448894309097 0.31476645662490443 0.8393723555833907 0.0039196601427389025 0.6513207012633655
-6.0142328871656616e-15 2.590103528010873e-12 0.7917311963155974 -0.9641324440613261 -0.4720233733226225 -0.022810318309100748 1.11226869845581e-13 0.8736990440966999

kernel.layers.0.bias f8 [32]
00000000: fb54 e5cf 33d0 cdbf f8b9 94fd 90b9 c5bf
00000010: 70e7 3572 2aa2 e4bf c87f 70fa ff81 d1bf
00000020: 4f91 8b33 fe48 60bd 68d3 31f8 4d59 e73f
00000030: 93c8 51c2 161d d13f d287 d047 e27e d73f
00000040: b667 95ec 5572 b2bd ad9a 4cb1 b478 d5bc
00000050: 18a5 0211 dfdc 24bf 3db5 8007 1841 f4bc
00000060: 0c32 143b 0c94 e6bf faa2 efbc 2264 dfbf
00000070: 5b6f 703a 7f92 d33f 3681 ce04 ba69 da3f
00000080: c4aa 686b 939d 07bd d2c4 d143 3ad3 c8bf
00000090: 0d29 87a6 353b dd3f 61f0 916a b5a3 e53f
000000a0: 4f8c fbcb 18f7 d33f e149 7ccc 0098 b13f
000000b0: a65e 2d8c ce12 db3f 8657 15b2 ea24 dfbf
000000c0: 3086 131d 3607 febc 2d06 1047 d2a0 8cbd
000000d0: 50d6 04a9 5ac1 e2bf bfed 8c72 2853 e1bf
000000e0: 5202 f970 a126 c83f b69a 22cb 4a14 993f
000000f0: 11fb ee09 c676 4cbd d5f7 8832 5e01 ca3f
-0.23291633273280596 -0.16972553617365782 -0.6447956305193951 -0.27355956513383406 -4.628511989254314e-13 0.7296514365722091 0.2674004457140963 0.36711937916890947
-1.677710642848303e-11 -1.191908080560532e-15 -0.00015917036990246362 -4.497352025931083e-15 -0.7055722383389038 -0.49048679781712645 0.3058164663977913 0.412703041738513
-1.0487402366114507e-14 -0.19394615470404247 0.4567388654947003 0.6762339669653664 0.31195659561325767 0.06872563354799112 0.42302287759000945 -0.4866282214255694
-6.667593023854645e-15 -3.254650503250083e-12 -0.5861028004789635 -0.5414011227907664 0.1886789132713767 0.024491470955264126 -2.022485953454962e-13 0.20316674678355065

kernel.layers.2.weight f8 [64, 32]
00000000: d73d 4473 a10c 463e ad7e d43a f17e 4c3e
00000010: fde8 c253 05e7 a1be 99b4 85b4 9cb0 433e
00000020: 85a3 3d19 6692 2a3c 42b6 9bab b79f 98be
00000030: 1c39 70e9 51f8 97be c544 272f ad9f a7be
00000040: 56f6 8409 7a36 793c 4c49 9398 42d2 de3b
00000050: 5211 a290 fb57 93be 2b6f dfaf ce38 c53b
00000060: 8fc0 d0a3 07ca a2be 345e 17a2 ba4d a0be
00000070: 3a68 1630 db52 8bbe 94ae f16e 30e7 9abe
00000080: b6a2 39d5 2942 c4bb 777d 5a46 7343 11be
00000090: 5892 150e c97d b13e d485 a7de e523 b5be
000000a0: 6502 875b 832e 9bbe 201e 4617 04e9 9bbe
000000b0: 98b2 3dee 993e 95be 0e94 5375 36a5 623e
000000c0: bc97 21ac 1a68 0c3c 8938 595e 6416 253c
000000d0: da4e 8327 34be 653e bed3 1541 82d4 a1be
000000e0: ef38 1ecf 8873 89be ddf0 b022 09bc 82be
000000f0: 36ac 9dc5 3653 163c f8c6 d1d0 b85f a4be
00000100: 8ddb d660 abe6 dbbd e63b 78f9 0fe6 f0bd
00000110: fc04 a5fd 4eca 703e 0d7a 7051 adaf c2bd
00000120: 433e 8f66 4f32 45bc f815 8efe c973 4fbe
00000130: 4be2 dab7 606b 4f3e da68 34bb 733f 613e
00000140: 9749 61e1 b318 7fbc b23d e5ee 4d31 b5bb
00000150: d3f0 c698 ebc2 583e 1552 26f1 2cbb b7bb
00000160: 06b5 0f24 b27a 723e d8e4 8919 0945 6c3e
00000170: f6f2 88bf 9506 563e 1f75 1373 62f6 423e
00000180: d2e1 ecdd 53ef e1bb 4911 c1ff c388 40be
00000190: 96bb 7a4f 1a57 59be 0405 5093 8876 65be
000001a0: b9e7 d194 32f5 31be 6b68 3b83 e5f1 3c3e
000001b0: eb56 d32f 1ddc 443e 2136 a6ee e6ad 21be
000001c0: 91fb 5bec ee10 dcbb 94c6 9b8d 0755 57bc
000001d0: 7ff7 730d 6f90 27be a980 1bfa 6fbb 713e
000001e0: dfd5 3802 9a62 533e 275d 955f 02bc 2e3e
000001f0: ab3e 8c0b cab1 20bc 7792 6fdb c296 583e
00000200: fbea 5fcd fc99 71bf f321 5e7f bf0c b4bf
00000210: 7d91 f802 f1dd c93f 6183 39fc 9760 903f
00000220: 6f5d 2f5e c2bf 4d3d 10c5 abf2 aaae b8bf
00000230: a181 dbb5 f349 b63f 8082 3caf c01a b1bf
00000240: 9e47 6171 2c66 a33d 0e63 c895 8b7e c63c
00000250: e808 19f4 6466 b03f 0aed 1aa6 be2d db3c
00000260: ac53 50d4 5651 d93f 41f4 4245 c27d d33f
00000270: 773b 186f c93e c63f 8d56 6fa6 edb2 a9bf
00000280: c53f 8940 31fa f53c 3af7 1818 71e6 b5bf
00000290: bf9d 480b 4f4a c23f 3c99 e394 354c 74bf
000002a0: e77d 0039 118b cfbf d11a a257 7316 b5bf
000002b0: bfd0 c226 543d c7bf c283 2008 a4b4 bdbf
000002c0: 1d23 b9ab cc56 e83c e9a4 6840 0009 743d
000002d0: c326 8307 68d6 a53f d3c2 66d8 598d 813f
000002e0: 9c1c 4f2d d7d7 c13f 1cd6 acf7 35c3 bebf
000002f0: 7c14 b708 9319 3a3d 1ce9 aa13 5b79 acbf
00000300: 25c5 37c1 1679 dcbe a960 cd58 f04c f8be
00000310: 40e4 f429 0117 69bf 5b62 6ab0 e7e1 b03e
00000320: 929d 16b2 4ece 94bc 4db5 5ad5 9d50 81bf
00000330: b21a 53e3 6712 57bf b625 cee3 9ea6 6ebf
00000340: 0106 47bb 2df5 013d 4e13 5c72 ff04 1d3c
00000350: d3da b314 8673 303f d581 c32c 59ea 15bc
00000360: 58f8 0653 47ac 6ebf 4f7d cc19 6cfb 62bf
00000370: d526 1fe3 28c9 81bf b0cb e5fd d891 68bf
00000380: 9e61 c953 435f 363c 582f 37b3 bd40 47bf
00000390: 0a5e 5e86 6378 833f bb1d 530a 36a6 94bf
000003a0: 157b bb06 9515 47bf 3598 14a9 f5ad 67bf
000003b0: 459c 776f 6794 49bf 2db2 ef2d 76c1 3dbf
000003c0: e524 7208 6c6e 403c b6f3 41ae 20a1 a4bc
000003d0: b30e 5108 cf79 42bf 1150 72ab 6a11 72bf
000003e0: ce3e 7c08 46b8 80bf fb65 361e ddf8 363f
000003f0: a0cd bc0b 7e9b 6f3c 6fbe 89ce e501 68bf
00000400: 2a11 584f 85c3 43bd 1e85 9601 ccd1 41bd
00000410: b505 be15 59b3 ca3d 046b b21c 0391 45bd
00000420: 7202 5a82 3a76 42bc b57e ce95 e6d7 b93d
00000430: 85ba bb88 3c07 b23d 2460 d459 964e c73d
00000440: 3509 b4a7 43a0 44bc bf15 6293 e6b2 6d3b
00000450: 927c f959 1b53 933d 292b f5ff 0960 6bbb
00000460: 16ac cd8c ace9 cd3d 742a c467 b1c7 c43d
00000470: cbce 6456 3835 ba3d 19ac d38a 3ff8 b63d
00000480: be7a 96a2 d585 c3bb c9c3 376b 8883 a4bd
00000490: 50d3 8aea 3dc9 9f3d 0e4c 994d b880 773d
000004a0: 87d4 57f6 144a af3d 2153 1136 22af 863d
000004b0: cc7e 547f 5d68 b93d 26d3 13df 007a 9ebd
000004c0: 240d a446 ca69 85bb 7c34 2743 4c52 023c
000004d0: 44fb 503b b569 a3bd 040a 59cb dfdd ca3d
000004e0: 809b 4e63 a117 823d 5053 2a8f 2bc0 803d
000004f0: 1940 7b63 2e94 f4bb 3563 c447 703e b73d
00000500: f233 bca1 ba23 debd 38ab 822b f079 edbd
00000510: cb54 a5c9 1c93 673e 6ce0 d7c8 000e d1bd
00000520: 8737 245e 3906 1c3c ced6 020c b424 4dbe
00000530: 0a3a 4a3d b89e 3a3e 17dd 9a4d 1aac 623e
00000540: efae cd84 b6d5 873c 4643 53d1 8c6d b73b
00000550: 2ea9 c212 d811 4b3e c52e 2dad 97ca b1bb
00000560: 83bf 9456 bd1d 6a3e 1445 3591 c5b6 633e
00000570: 6de4 7dc0 694b 3f3e 6f4d 4ab5 d1e5 233e
00000580: 9925 d9aa 78ad 133c 8801 7515 6e0d 23be
00000590: d8fb 5f0e 40a0 453e 5346 c43b 7076 4bbe
000005a0: 17f6 69d5 aab0 383e cc5a d38e ccec 563e
000005b0: 9392 cf5c 4181 0b3e 0f4b fd0b 4d16 043e
000005c0: fceb fa17 ec0c d43b 818e cf26 2739 32bc
000005d0: 8818 0ab4 e8a5 073e 3e9f d507 ba8c 693e
000005e0: f82f dd2b 42f7 4a3e d00c c458 4e16 283e
000005f0: 6d9c 4c5d 4d62 233c cc9b e491 a2af 623e
00000600: 0eb3 3572 60d2 61bd ff0c 7e80 472c 66bd
00000610: 1f20 e469 b90b e53d 18ac 06ae 7f66 60bd
00000620: 1078 779f a788 f0bb ef29 d6b9 0ddb cf3d
00000630: c183 308f 8261 ca3d 39c4 454e a4b9 e23d
00000640: 8169 687a 7c7b 323c 614c 15ce d9a5 81bb
00000650: 2101 bb59 28ec 9b3d 3c49 ad1b b5b4 a9bb
00000660: 94cc 3ac0 c727 e73d 3ad0 6cc8 7fbd e03d
00000670: 35e3 6207 4f50 d23d 20a5 f9ae be16 d03d
00000680: 2bd5 9386 0fdc dabb 4086 5202 ebba c7bd
00000690: 1b5d 3b42 b8f2 cb3d 4a0b 3c9e 6998 c7bd
000006a0: e424 418e aa7e c63d 72b3 7e46 ad16 afbd
000006b0: 9e81 7929 cb7e cb3d a09d 4901 b8d5 babd
000006c0: 0df4 b842 4930 a6bb a2d7 698c 2682 f43b
000006d0: 638e 04f6 461e c1bd de8c 92a3 e308 e43d
000006e0: 1118 25b6 ee88 c3bd bd07 392a 01c1 a23d
000006f0: a219 67e3 2174 b33b 0321 9803 b1a1 ce3d
00000700: 38b8 dfb0 4d7c 253e 1e3c 8294 557d 363e
00000710: 81b9 2619 e1be 973e f995 6db1 965e 153e
00000720: 491e 2bf2 b3af 6b3c 11f2 f4ca 896e 86be
00000730: b940 0320 b590 8dbe 4ac8 5c5d a257 a43e
00000740: 5b54 1242 440c 8a3c 21f8 bd43 6186 afbb
00000750: 210c 3381 728a 8dbe a0d7 0162 cb1f 913b
00000760: a9f6 2e91 3e0e 9a3e 23d0 63c3 83ce 903e
00000770: ac51 41fd eeca 9fbe 822f 6bd7 cccd 87be
00000780: 2270 cd17 f90b ac3b 154b c4a5 4ebd 7c3e
00000790: cb1e 5ce3 7015 a9be 64e4 b82a f2de 9dbe
000007a0: 9fb1 55d4 85ee 803e 787c 869f 0b68 a03e
000007b0: d126 89bd 03da 93be 3c58 59d5 c868 723e
000007c0: c531 614e d28d eabb 455e 473e a3e2 133c
000007d0: ea00 f308 6a92 763e 2e26 3d72 a556 923e
000007e0: bd90 9da7 98bd a1be 5091 5cd4 17dc 71be
000007f0: 2e2b b4b6 fd30 523c 0a04 89b5 e937 a53e
1.0267523366707348e-08 1.326942275031878e-08 -5.335338424596749e-07 9.168820051038888e-09 7.202319903928826e-19 -3.669246485389353e-07 -3.5718083196767074e-07 -7.040422061404305e-07
2.1868617715013328e-17 2.610668086526624e-20 -2.8824332843509096e-07 8.987825858227808e-21 -5.599611722136867e-07 -4.858860089230198e-07 -2.035771089870088e-07 -4.0088717318560017e-07
-8.5797876522492e-21 -1.0048666563895641e-09 1.042565650110789e-06 -1.2600556781250767e-06 -4.0503877188003327e-07 -4.158946673927996e-07 -3.165682598202991e-07 3.472969349066245e-08
1.9249099512377726e-19 5.715769926187201e-19 4.04994623962509e-08 -5.313787615883963e-07 -1.8962700881444416e-07 -1.3958300945801096e-07 3.0256090741852487e-19 -6.071899477778726e-07
-1.0150343778150645e-10 -2.4590817704137067e-10 6.254862175860849e-08 -3.3990069595660454e-11 -2.298131743213218e-18 -1.464611894416775e-08 1.4630818996747437e-08 3.212664214710391e-08
-2.6971909737725685e-17 -4.4877066388035755e-21 2.306085771103873e-08 -5.025267436664429e-21 6.884068516596197e-08 5.2656363884589844e-08 2.0513052564061623e-08 8.830074090693415e-09
-3.0382857446292215e-20 -7.699355812745001e-09 -2.359994241582091e-08 -3.9977992839787705e-08 -4.1811268450256686e-09 6.739261638078781e-09 9.713610799753775e-09 -2.0581419807962315e-09
-2.3772950093322233e-20 -5.059352785254037e-18 -2.7432332895052317e-09 6.60575083760566e-08 1.8053839435761743e-08 3.5779563727318153e-09 -4.525050368505986e-19 2.290020769878546e-08
-0.004297244557160291 -0.07831951961100696 0.20208561558787244 0.01599347569424781 2.113797817240677e-13 -0.09641521858772628 0.0870659178722293 -0.06681446340781783
8.821696448964448e-12 6.243427275017804e-16 0.0640624137822986 1.5087203886522455e-15 0.3955895493866659 0.304550712240431 0.17379110264343087 -0.05019323975254251
4.8799440105089796e-15 -0.08554751241987626 0.14289272356948676 -0.004955491355053628 -0.24643149646088533 -0.08237381829722358 -0.18155910389544336 -0.11603760908521024
2.7021785396451182e-15 1.1388669968858743e-12 0.04265141574576383 0.008570386807009644 0.1393994303927898 -0.12016618057972334 9.272547107548229e-14 -0.05561337103923078
-6.788493027696801e-06 -2.3174803163911757e-05 -0.0030627272350583212 1.006271931258465e-06 -7.218492574664624e-17 -0.008454545091206933 -0.0014081968814011856 -0.0037415602986967346
7.974833708118832e-15 3.932878709058646e-19 0.0002510263772842861 -2.970093680594971e-19 -0.003744258218119117 -0.0023171531050959824 -0.00868446295853024 -0.0029992330666401487
1.2127951140616394e-18 -0.000709622027380767 0.009506967104058201 -0.020165295009773248 -0.0007044770877334428 -0.0028905675941528716 -0.0007806305938488153 -0.0004540360950489344
1.781489013668296e-18 -1.4314525202545223e-16 -0.0005638371372999801 -0.004411141089025975 -0.008163973936034987 0.00035052679432964724 1.370752125393413e-17 -0.002930592385659562
-1.4042991053185686e-13 -1.2661529877973309e-13 4.856806859273477e-11 -1.532388703881681e-13 -2.001635649690438e-18 2.3504400997494302e-11 1.639661370726063e-11 4.23951526911338e-11
-2.236278906710387e-18 1.9653037646707866e-22 4.39391353670685e-12 -1.8115356387438332e-22 5.4411046502092744e-11 3.7798692102325533e-11 2.383593791060602e-11 2.0890838257797172e-11
-8.268223626386388e-21 -9.328596359406784e-12 7.2273226160047e-12 1.335980200703796e-12 1.4228763738616828e-11 2.5788853885743116e-12 2.3108147303760956e-11 -6.929571053763449e-12
-5.668038157772258e-22 1.2415115167071675e-19 -8.827974682548907e-12 4.887023547859801e-11 2.0568570942260876e-12 1.9043300950725722e-12 -6.972379770524888e-20 2.1140204591601845e-11
-1.0964710427263649e-10 -2.144684618746282e-10 4.391122239664481e-08 -6.204463523751348e-11 3.798002610957515e-19 -1.3570940260751179e-08 6.197951447766527e-09 3.477982497612065e-08
4.1346815321030344e-17 4.961057139934036e-21 1.2605312870184015e-08 -3.767470602675588e-21 4.864515796632576e-08 3.672009731926332e-08 7.286337762199096e-09 2.3164007745979656e-09
2.666815131359721e-19 -2.217998378413845e-09 1.0070380484365387e-08 -1.278829297365053e-08 5.7486134382432786e-09 2.1350566582789787e-08 8.004980511976649e-10 5.846119352320478e-10
1.6983415053686196e-20 -9.878845601835728e-19 6.882497697442647e-10 4.759005010451357e-08 1.2556954028353584e-08 2.8041113373360217e-09 5.254041827211502e-19 3.480552578294408e-08
-5.065255706762849e-13 -6.301935977935059e-13 1.5312833375049278e-10 -4.661269980196218e-13 -5.601871953887284e-20 5.794514107216126e-11 4.798657469534742e-11 1.3624349490282708e-10
1.0019311842821073e-18 -4.671348241067211e-22 6.348839337969421e-12 -2.7217168112364826e-21 1.6847764859853105e-10 1.2180121166220475e-10 6.66248738874583e-11 5.853088477762895e-11
-2.275097623254052e-20 -4.316488858212904e-11 5.0837341523066683e-11 -4.291971273117368e-11 4.0917784596181676e-11 -1.4137450067361357e-11 5.001363662133466e-11 -2.4406143842436123e-11
-2.349311298589382e-21 6.948516436467885e-20 -3.113795224460375e-11 1.457717989600182e-10 -3.553376236319099e-11 8.528297269305098e-12 4.119468949490951e-21 5.571856903752319e-11
2.5012484366614456e-09 5.236265039742086e-09 3.5383734444784315e-07 1.2438678470147098e-09 1.2007035776926847e-17 -1.67129859710266e-07 -2.2027838043068574e-07 6.062484156686863e-07
4.51859323149896e-17 -3.337830911116003e-21 -2.200961835893817e-07 9.06547447555253e-22 3.8825932440951337e-07 2.504393167423077e-07 -4.7374828438431435e-07 -1.7735292675289112e-07
2.969567240170277e-21 1.0706291092938317e-07 -7.475541170262632e-07 -4.451108377187962e-07 1.2615121584446844e-07 4.88949637267909e-07 -2.958121832248293e-07 6.858004061283176e-08
-4.4984209275277026e-20 2.6949611426363544e-19 8.408699357903175e-08 2.732643784487577e-07 -5.287113957583674e-07 -6.653271097647291e-08 3.944624870586986e-18 6.323578914461654e-07

kernel.layers.2.bias f8 [64]
00000000: 2068 9312 5db4 903e 21e1 77fd 566c 76be
00000010: 5bb3 44b6 8cea 92bf 456a 31f5 1b88 89bf
00000020: 830f 1271 0d42 e4bd f7cc 5f88 6338 7abe
00000030: 4c98 9533 76a4 fabd 5795 675e c450 b4be
00000040: 0fba 48d1 536c b3bf c0df 6e46 7232 7dbe
00000050: 0b5f fa41 9a50 70be 1c58 ca77 d670 61bf
00000060: 7385 528c a0e6 39be 8235 f105 185c a5be
00000070: 99a8 2c02 0255 a83f 2db3 6175 430f c63f
00000080: a7a0 a043 9bec c03f e862 e78a 715e 90bf
00000090: ea3b e9c3 cbc4 07be bda3 733b 6d79 d5be
000000a0: 144b 0bf9 8be9 c4bf d073 32b4 01b1 903f
000000b0: 11c3 4cb5 fc04 60be afc4 51e1 8a92 7a3f
000000c0: 627b 4520 b05a c13f 0157 7cc1 14b6 c3bf
000000d0: 42dc cf5f 104b c03f c8a7 6094 88ca 70be
000000e0: c7e6 d838 1ce1 95be 378a 473c 6588 b83f
000000f0: 2b9b d594 d894 c2bf 8bb2 554a a0cb c1bf
00000100: 69fc 28e1 b291 0abe 0be5 9fde d085 513e
00000110: 55f1 492c 8fa7 81be 26d6 b351 9882 40be
00000120: 3580 08d7 cd38 babf d2c2 9c99 98b7 acbf
00000130: 4d19 fe42 b2f4 b53f 9e65 2165 5de5 30be
00000140: ef9e 3c56 3e21 c23f ef09 c6da 2261 613f
00000150: a759 ecb8 e2b5 17be 904c 29a3 20cd 24be
00000160: 82b4 5a65 6c6c 01be 5246 b2ed 5877 ecbd
00000170: 5c5a 3add a0cb 71be 22b2 1de6 2c18 22be
00000180: eefc 69f9 c6a8 7fbe e36e c880 337e a4bf
00000190: 6169 6bb6 9e49 a7bf 7045 4667 466d 9bbf
000001a0: 3a1f d614 f359 bbbf a870 6b3f 2d5d 9fbf
000001b0: ece4 1755 4f64 70be 4fa4 3fcc 4aec a1bf
000001c0: c186 4b9d e8c2 31be e79c 2bff 4e56 10be
000001d0: 4a1b c999 6326 21be 0dce 176c 352d a5bf
000001e0: 134a dcb1 564c c73f b002 564a 7be0 08be
000001f0: 776f 02e2 7707 083f 01d3 363c 743b 15be
2.4891712031643427e-07 -8.353293822611162e-08 -0.018472860932138385 -0.012466638965794927 -1.4739647743254123e-10 -9.767811279242561e-08 -3.876983626363877e-10 -1.2108979433542632e-06
-0.07587169513201551 -1.0876751020585421e-07 -6.077756653022631e-08 -0.002129000551870609 -6.030520254306903e-09 -6.365699042416088e-07 0.04752355839294004 0.1723408053543606
0.13222065736886643 -0.015985273459452026 -6.917612106594446e-10 -5.119877577210974e-06 -0.16337728176457544 0.01630022680602733 -2.9838608617255455e-08 0.006487410069085416
0.1355800778937591 -0.15399417350334235 0.12729077032392594 -6.255189530292252e-08 -3.26027525729763e-07 0.0958312294165261 -0.14516742007546077 -0.1390266764605211
-7.732636218145778e-10 1.6319303165734304e-08 -1.3153648671996917e-07 -7.688131512042684e-09 -0.10242926120599878 -0.056088227035052576 0.08576501975594404 -3.9338963910070635e-09
0.1416395112112165 0.002121513438568138 -1.3801322061692093e-09 -2.421587619048402e-09 -5.070914336947841e-10 -2.0711886966634573e-10 -6.629311793469956e-08 -2.1064694857575404e-09
-1.1794003138865597e-07 -0.04002533862168691 -0.045483550804152235 -0.0267840385946036 -0.1068412710065986 -0.030628878589468528 -6.106434582283367e-08 -0.035005891258898296
-4.135389326740193e-09 -9.509468739203708e-10 -1.9965177968204507e-09 -0.041360539860672764 0.18201717075915322 -7.240125345364295e-10 4.583201030180968e-05 -1.2358791636404755e-09

kernel.layers.4.weight f8 [1, 64]
00000000: 1d85 df75 7324 8fbe 51be 968c 8d81 63be
00000010: 908f be42 32ea bcbf 8db3 ff4c bbb9 853f
00000020: c59e 9f9a fada c0bd d164 88f6 1993 60be
00000030: 394f cfb2 ad4b d9bd 3d2b 71d6 90c0 b5be
00000040: cd9e 629a 4e86 acbf b50b 7916 3bc6 4cbe
00000050: ffde 5f3a 39d1 5fbe a707 edf2 6c18 623f
00000060: 9ff8 5216 264b 10be e017 cb07 c5fb 63be
00000070: f108 6cd5 0118 b2bf 2c53 060f 19d8 b73f
00000080: 94cc bed7 72f7 b6bf 90a7 a071 5157 743f
00000090: 2c78 8cb1 f93a e7bd cd77 a058 f327 c9be
000000a0: b4bd b8ed 133d 90bf 9234 2697 c5a8 bdbf
000000b0: 5da8 a26b 76d5 503e 0cae daa6 46bf a1bf
000000c0: d874 09fb 2a30 b43f 0e78 dd15 6158 c0bf
000000d0: 642b b01b a7df c33f 1238 750e 8f21 62be
000000e0: 2048 0859 c588 60be 4e4d d0be 683c 953f
000000f0: 21da 03e3 6e01 a7bf a32b ba9a 5289 a3bf
00000100: dca2 f7cb 0043 11be d1f1 1567 c595 703e
00000110: 241e 0558 1410 5fbe 818c 9939 da02 32be
00000120: d383 9e76 cb3b b03f 2776 f971 8a7b b7bf
00000130: f58b df91 16a0 b53f f353 893f d782 2bbe
00000140: 86ac 1166 585f bf3f 93d0 762d 6636 b5bf
00000150: baaa 7b43 b74e f8bd 9d63 7c1a 4138 02be
00000160: 3ec6 df97 11df e1bd 12fd 091c e81f d0bd
00000170: e538 9260 f441 963e 69fa 22a3 b9ba f6bd
00000180: c46e 848e f3ce 40be 9179 ea13 09b9 a6bf
00000190: e9d9 e7bf d18c ac3f b43a 293d 057e bcbf
000001a0: 28d0 eb0c 02ef b43f 9e78 b8ea 39ee 703f
000001b0: 0808 5116 3af1 67be 94e8 805c 3817 b3bf
000001c0: d6e2 f516 1e51 06be ee94 a19f 17e9 ebbd
000001d0: ec1b a0c6 6c1d fcbd 3fbd 2216 beb0 b53f
000001e0: 6f91 fda8 1ea9 973f 565b 35bd 65eb f4bd
000001f0: 7a40 0f2d b21d ba3f ce85 c05f 3da2 fbbd
-2.3202886273360197e-07 -3.6332879437144416e-08 -0.11294855241300028 0.010608161246602932 -3.065976927890987e-11 -3.087262607035383e-08 -9.202492648329127e-11 -1.2965327529530626e-06
-0.05571218142114063 -1.3399095790479345e-08 -2.9632150642916266e-08 0.0022089126499915293 -9.484094285059716e-10 -3.722212313853979e-08 -0.07067882023332907 0.0931411420518315
-0.08971326606006108 0.004966085567540093 -1.6902320582597366e-10 -2.998835673131083e-06 -0.01585799349248669 -0.11585650386969551 1.5677733535578526e-08 -0.034662444942423404
0.07885998371917269 -0.12769712035782316 0.15526284076653518 -3.377178519702171e-08 -3.07974615845586e-08 0.02073825516351962 -0.04493280907802367 -0.038157063853837124
-1.0047649794374696e-09 6.178410118756107e-08 -2.8929496577178646e-08 -4.193545866112982e-09 0.06341239591576135 -0.09172883303241318 0.08447400151594293 -3.2027132025355482e-09
0.12254860393447772 -0.08286131486858243 -3.5372044484688495e-10 -5.302643228779612e-10 -1.3003127388813997e-10 -5.866108207671712e-11 3.316646091732706e-07 -3.307562306825661e-10
-7.827022988552289e-09 -0.04438045852770068 0.05576186626051422 -0.11129791968526598 0.08177197280366555 0.004133440244485835 -4.459599515410959e-08 -0.07457306154620574
-6.495062664099932e-10 -2.0307573662218158e-10 -4.0912623863866194e-10 0.08472812691137664 0.023106078209268185 -3.0441909861687263e-10 0.10201562500083297 -4.0212397279391363e-10

kernel.layers.4.bias f8 [1]
00000000: ec54 699d 86e8 95bf
-0.0213948281837774

fnw.layers.0.weight f8 [32, 1]
00000000: 20f9 73c8 3785 d83f f2a0 f6fa 3016 debf
00000010: e8aa ba21 1ccf be3f fd5a 48aa 5b01 c63f
00000020: 8558 9726 c325 edbf 3853 b9b3 1a8f a5bf
00000030: 798a 93ff 0d62 ed3f a77f 8a7c 1bfb 813f
00000040: 61a1 c9e8 1f23 e53f d7fb b22b 1c3a c6bf
00000050: 1690 06ee 7877 d23f 8c9a d6c6 05e7 e03f
00000060: d2b9 4521 32ef e2bf 69ce db2f c8b9 e3bf
00000070: 16e7 a793 93df e03f 52c1 69ac 7ed1 d13f
00000080: c618 5407 97e5 ebbf 8819 7a3e 4067 de3f
00000090: 1b15 44a8 0d9c 723f 4cf6 bc76 ed54 b23f
000000a0: b3cb bf67 c34d f0bf 35ee 1d1b 1ada d73f
000000b0: fd80 b388 a0eb da3f cdcc 2f8c 33af cbbf
000000c0: bc18 c66a 08fa e6bf 98ca 6751 b242 e93f
000000d0: 3585 aafd 4f8b e93f d251 0151 606b b33f
000000e0: 6d82 4ce7 2a28 5f3f a9c7 8ea3 6bdc ca3f
000000f0: 01f1 854a a7eb e03f a2bb ce3a d56d bb3f
0.38313097548952335 -0.4701044512571705 0.12034774611917565 0.1719164449175067 -0.9108596566900508 -0.04210742420096952 0.9182195655560711 0.008779730547132504
0.6605376764901331 -0.17364837774036232 0.2885420155018904 0.528200996738478 -0.5916987085200225 -0.6164284643877639 0.5272920497802456 0.27841154896943465
-0.8717761176237893 0.47505193806900836 0.004543355320725052 0.07160839222793774 -1.0189851811125947 0.37268688820015267 0.42063153600430764 -0.21628422112517
-0.718021591703994 0.7893916692685989 0.7982559160629196 0.07585718133606825 0.0019016665439225658 0.20985169874398693 0.5287662940532131 0.1071446674893495

fnw.layers.0.bias f8 [32]
00000000: 5180 b07b 7770 d9bf 190f 4c76 7588 d93f
00000010: be78 2703 b81b d23f e591 b04f 955e d13f
00000020: df22 9988 6137 d4bf 337e d1ae 1b8f a5bf
00000030: e1fa 47b2 d918 c7bf af98 e277 1bfb 81bf
00000040: 9cd2 b057 21c0 e5bf 20b4 10f9 0f9c ebbf
00000050: e431 1f28 7fcb d63f 3e8e 9bba 5004 e1bf
00000060: edd5 bdf1 c944 d2bf 0e32 7aff c3dc c33f
00000070: a241 e66c bf48 b63f f3da aa14 3e35 e63f
00000080: 50c0 c687 9b28 9d3f 0975 2d1a 90fa bb3f
00000090: 4ab1 6360 ac35 84bf 222a f381 ed54 b2bf
000000a0: f223 8ca0 9222 d33f f64c 263d 1fff e63f
000000b0: 8f6a 6ed9 99b1 e8bf e024 f11f 97cc dbbf
000000c0: 309c 1c4f 506c efbf b026 0251 35d9 d9bf
000000d0: b78b 880c c612 e93f 2831 c09e 8396 e5bf
000000e0: 6f41 3f02 09a7 e5bf 05af 9932 3095 e23f
000000f0: fec4 5be5 b1ce e1bf bf0e 0c0a 1a7c e23f
-0.3974894245056975 0.3989537863965196 0.28294182117486943 0.2713979032726271 -0.3158801874128993 -0.04210745343220559 -0.1804458733094725 -0.00877973041162891
-0.6797033989629031 -0.86280058522755 0.3561704532446852 -0.5317767758064702 -0.28544853789875796 0.15517473196486303 0.08704754265477857 0.6939993289623473
0.028475217973835065 0.10929203642941245 -0.009867998782703186 -0.0716083948383717 0.2989851539464886 0.7186428255394322 -0.7716798063950864 -0.43436220282872107
-0.981971888079789 -0.40388234053589667 0.7835417027275672 -0.6746233082390392 -0.6766400379074592 0.5807114589965471 -0.5564813117654521 0.5776491352302954

fnw.layers.2.weight f8 [64, 32]
00000000: 0679 c0de c875 a3bf 0a9b 51b6 a813 c03f
00000010: a3b0 b1a7 d138 ce3f cdf4 c419 0181 b1bf
00000020: 04b8 b1c3 cb43 d03f b8b9 2a96 bf39 713f
00000030: ab70 71ab 7054 c6bf 9edb ac5d fa2a a73f
00000040: fb5b d33e a41f c2bf f635 55a9 c018 c4bf
00000050: f966 98c1 9fcf b33f 706a e87c b08a c5bf
00000060: 7633 6f53 6ca4 d03f bc1b 16c1 0d2a c63f
00000070: 1534 5c7f 9841 a0bf 7ef5 8e5f f459 adbf
00000080: 5509 a4a2 2cca 8b3f 36b9 9bec 515e a53f
00000090: 9173 4321 918b 633f 6b50 9b85 10aa b03f
000000a0: be24 e023 bdc5 b23f 54cf 15ba 2c21 c13f
000000b0: e05f 2efa 0170 c8bf bbd7 efa8 d3df c5bf
000000c0: b03b 3808 e112 c9bf 5c7f 05b4 9897 babf
000000d0: a086 0a1a ae17 b13f e456 6560 7058 babf
000000e0: 2502 6b4d 9f66 b03f d00c eeea c647 b03f
000000f0: 33a6 c49d 3f5e c9bf 8fa1 e0e9 3f25 c13f
00000100: 15de b5af c3d7 30bf 91d7 4704 ef7b abbf
00000110: 3e36 aad2 35ea bc3f a28d a471 ebd1 91bf
00000120: b4e0 0faa 2bfe c63f bbbd 4be0 2302 f83e
00000130: 896f 6966 011e aabf 65ec bc26 de48 cfbe
00000140: c280 94d6 4d60 41bf 3521 48de 63ca 28bf
00000150: a0aa 72cd b974 933f 40b5 eb0a 497d 39bf
00000160: f08c 86d2 cd20 a6bf 2291 c05b 7d40 8cbf
00000170: 0081 f74f e06d b2bf aee3 c5ed b833 b43f
00000180: 50c5 ef7a ae35 a43f dc02 6549 c904 a03f
00000190: ea9f 4712 a534 bbbe fd61 40be d452 02bf
000001a0: fa4b 5cef b31c a2bf c749 a6b5 6e9f b73f
000001b0: b55a 73da 60cc 3bbf 13bb 95a3 1396 fe3e
000001c0: 6b42 6502 fbca fd3e 1bd2 7b4b cc74 9fbf
000001d0: 760a 4627 b450 b1bf c560 e58f 69f4 29bf
000001e0: 0712 4cca b3e9 25bf 589c d0de 202b c3bf
000001f0: e69b ad7b f92f 3abf fd7a 60ee 25e3 bf3f
00000200: d905 052b f98c 8fbf 2c6c 561b 8048 9bbf
00000210: 15a9 7abc e038 7f3f fd17 b643 44e4 b2bf
00000220: 62eb 4125 8360 cd3f e737 158e 8822 893f
00000230: 817d 93c1 93cf 4dbf c8e3 5ccd a61d a33f
00000240: d874 210e cc42 763f 5f8a 1ca2 3aef b73f
00000250: 25e7 edd8 79fb cfbf afa5 9ceb f17a 573f
00000260: 7581 9ce4 cd61 d93f e77e e757 f9b2 be3f
00000270: 2352 8eda f2e3 d6bf fc20 14de 2f60 ccbf
00000280: afe9 6ca6 0191 cc3f 48e9 5ec6 b948 a7bf
00000290: 7f07 681d 3f73 8ebf a31d 5295 2015 c0bf
000002a0: 4d99 a1e3 f1d3 ca3f 82ed 7830 564b cbbf
000002b0: 7ab5 f2dc 883b a9bf 4544 71b4 1424 c43f
000002c0: a71a 89e1 59b9 d33f e0f2 6bd4 3efd c9bf
000002d0: 7346 83e4 187b ecbf 983e 7752 9c75 bd3f
000002e0: 8aee abf7 f75d ae3f 25cf 320b 0b70 cbbf
000002f0: 42e9 a8f6 273c 833f 9323 5f48 5e35 babf
00000300: 593f d3bd fe97 563e 6c36 ca83 af9c 3f3f
00000310: 5439 b2f4 6493 40bf df71 7e25 6804 45bf
00000320: 2e44 c101 7c22 00bf 9a5c 73fd eba5 61be
00000330: dcf6 ff91 8d13 823f 88d2 11b6 99bb 103e
00000340: e985 b30b c4a2 523e c50a c2b9 dde9 9bbe
00000350: f3a0 7c1c cebe 74bf 5903 a6d1 88d1 5c3e
00000360: b9b4 efcf ec3c d53e 665b 4399 4567 48bf
00000370: 5bb3 e4a0 31f7 533f f358 0d9b 5f84 623f
00000380: 0cd6 cd23 76b3 5bbf 05ae b7e2 ecf6 74bf
00000390: 2ce8 eefd 0beb 15be 339f a737 81ec 3f3e
000003a0: b82a 0fdd 1c2f 56bf 1fc2 1019 9033 98bf
000003b0: 29b1 737d ec41 80be f9bf 241b 3d01 91be
000003c0: 78e7 e58e feac a7be 13d5 a208 31f5 58bf
000003d0: e477 5979 80a5 623f 4291 777f 2524 8ebe
000003e0: 870a ebc3 8b47 91be 247e 643a a4a5 8e3f
000003f0: ef98 a6a5 8106 523e ab2e 3f97 0b70 873f
00000400: e004 a228 f0f0 adbf 0589 b539 3095 a93f
00000410: 3036 38c9 4f58 b0bf 75d6 58b6 8b44 afbf
00000420: a713 b4b0 9f47 e33f 7008 4eff 2a2c 793f
00000430: 95a4 fa3d b4fb cbbf 5166 2d97 240b a5bf
00000440: d6b7 dcb8 0ee7 7ebf 64c0 9ae5 7d0e c03f
00000450: 0fe3 c068 33d2 d0bf 82a0 38ed 38ba b1bf
00000460: d581 1832 4b2f e03f 4c63 e95a 9214 ca3f
00000470: 3eea 561f 2c98 4abf 6505 7140 9f99 cebf
00000480: 5bcb 9a3c f144 cb3f 2ee6 a573 c596 c13f
00000490: d715 84d7 22bc 7cbf fdb4 ab56 10f8 b3bf
000004a0: 5651 50cf 3773 c43f 418a 1b8f 31e8 b1bf
000004b0: 1f7b 205f 7076 87bf 2d2d ac76 d033 c53f
000004c0: 2b5e 3292 365f dc3f ea5a d73b f0f0 9ebf
000004d0: c207 a3a4 88fd f2bf e1c6 4b4a fb7c b23f
000004e0: 1064 c8c8 4d9f b03f de9a dc54 84e8 bbbf
000004f0: 3c00 57fc c0d8 abbf 57f3 6d2b 70f3 c5bf
00000500: 3f3e a326 bcb9 a1bf 3fc6 65d2 7af9 c83f
00000510: 2f3d 3aa0 4591 c7bf a4a6 4a5b b799 d1bf
00000520: 5115 b225 1e87 de3f 8516 59d4 5a81 803f
00000530: e7ed c60c 78e4 ccbf 5bc1 70fc 242c aa3f
00000540: c9f2 93a3 49fc b0bf 84bb 25ec 76a8 b93f
00000550: 1e7c 1b9a fa75 c5bf 284d b980 b4ca adbf
00000560: 5891 d5ef f58b e13f 3634 fe58 a051 bc3f
00000570: 1766 2565 072d c7bf 6c21 5f94 92d6 d4bf
00000580: 61b4 a517 3360 bc3f 422c e76c 76b0 9ebf
00000590: 3549 d3ad 4aa5 64bf 5993 4452 6b75 c2bf
000005a0: 69a0 420e 16ce c63f e434 1f32 5d48 d9bf
000005b0: 72ca ce7c 4431 8dbf af7b 4f58 3801 c53f
000005c0: 6892 9a85 50fd dd3f 659a 7bc9 6804 d1bf
000005d0: a6ba 267e 7a2a f1bf c1c0 ffba 24af ac3f
000005e0: eb13 0b1f 16d2 b73f 32c5 f4df 7378 d0bf
000005f0: 4f49 cf11 bf7b abbf 5903 4017 ed59 71bf
00000600: 6e3e d984 f101 5abf d3bd e4ff d1ff c3bf
00000610: 6e2a 01d9 44ca ac3f 4cbd fa7f fc31 b9bf
00000620: fa99 6575 0bb1 c7bf 349b 197e f107 203f
00000630: 43ba 7534 3ba8 c43f 9738 5f7e b84f f4be
00000640: 1fb3 a1f7 84fb 62bf 95bf 13ce bec9 f83e
00000650: ab69 65c4 4d45 7e3f c556 afac 4fdf 60bf
00000660: cc66 63aa 0c40 a0bf 7ef1 568f cfe0 c0bf
00000670: 9484 1352 4183 98bf 50b1 5592 25eb 88bf
00000680: e0f6 8687 2fcf c1bf 974a 006b 6037 883f
00000690: c4c4 97fa 56cc e1be f90b 8a0c d9b2 2cbf
000006a0: 3ad3 e073 5324 a93f ec67 9e9f a537 c4bf
000006b0: 7022 f637 8a73 5abf 80a9 7b1e 99d1 403f
000006c0: 4656 adeb 1e37 383f 71ff f388 4445 c23f
000006d0: 4ccf 4a08 8dee b8bf 443a 3203 bb20 42bf
000006e0: 367c 7cb6 f489 33bf 9f2b 35cb 5c9b 933f
000006f0: 5d12 3770 d914 61bf 2651 a740 b2c4 a2bf
00000700: 64a5 3064 6d32 9cbf bfd8 f50b 6824 cf3f
00000710: a7de 00b4 df7e a4bf 90d9 a296 83c8 4bbf
00000720: 4775 3847 d738 c73f a0f5 2fd0 fab9 95bf
00000730: 3415 bad3 8437 bbbf db2f 741e 3fcd b1bf
00000740: 71ec 7cb5 673c d0bf d531 9ee3 d086 c9bf
00000750: 2c8e 8ad9 f8f8 863f d00a 2841 22b5 cbbf
00000760: a2c4 2135 fea2 a6bf 468f ebce 83de a53f
00000770: 091b 5f37 63d6 ba3f accf b3f1 3911 7c3f
00000780: 102f 8549 689e a93f 5c0e 9aa5 677f 953f
00000790: 91c0 bc19 b579 873f e338 5c37 9b44 b0bf
000007a0: fe9e eec0 19e8 a23f 5eac 90a1 ec96 ce3f
000007b0: aac1 5a69 2910 923f 8938 fb92 0e02 ccbf
000007c0: 345c 1b9e 0175 b1bf 8205 5a8d 047f abbf
000007d0: 5a45 60be 90f6 a5bf e98a 25ce 4db3 c9bf
000007e0: 03c8 ac92 30e9 cabf 4115 d17b 7875 ca3f
000007f0: e7d3 9d43 63d5 c3bf 7c32 715c 4359 b73f
-0.03800800055636171 0.12559994604381358 0.2361089772051673 -0.06837469939360404 0.25413793669474694 0.004205463776698108 -0.17445190783735617 0.04524977105614102
-0.14159062450082147 -0.15700538891034882 0.07738684154938004 -0.1682949647809724 0.2600355925358636 0.17315837791485744 -0.031750455424209324 -0.05732692400440963
0.01356921073284371 0.041735229618881695 0.002385886628060559 0.06509497892267439 0.07332975507610492 0.1338249119395366 -0.19091820445896612 -0.1708931517493378
-0.19588864232397674 -0.10387567896895916 0.06676757941979838 -0.1029119716016243 0.0640658916481774 0.0635952304419789 -0.19818873599551665 0.1339492694835482
-0.0002570011854099175 -0.05367991378072568 0.11294876473604007 -0.01740234261627694 0.17963167003450098 2.2896156241123652e-05 -0.05101017356056931 -3.729419679657881e-06
-0.000530279166159907 -0.00018913716407121533 0.018999961056275994 -0.00038893731372876064 -0.04321902460949356 -0.013794879305415512 -0.07198907806696653 0.07891422085766805
0.039472057825956086 0.03128651638917798 -1.6215827339741787e-06 -3.494941464072044e-05 -0.03537523552781603 0.09227649626544752 -0.00042416920264313633 2.9169308822070308e-05
2.8412716482963828e-05 -0.030718986613424187 -0.06763769110515647 -0.00019801891898896785 -0.00016718215660928312 -0.1497536743129071 -0.0003995880212443445 0.12455975599048581
-0.015405604005198125 -0.02664375464301487 0.007622602344478109 -0.07379557278736111 0.2295078212663056 0.01227289851763298 -0.0009097548928841821 0.03733559853430496
0.005434796419732289 0.09349409539985619 -0.24986193744899157 0.0014331209662919832 0.3965944988758772 0.1199184264764842 -0.35766288131097407 -0.22168539375002883
0.22317524553529952 -0.04547672792928609 -0.014868252835188887 -0.12564475337079015 0.20959304442221552 -0.21323659292998448 -0.049282338114930505 0.15735110102335362
0.3081879332061512 -0.20304093715812765 -0.8900265181675436 0.11507584584546249 0.05931067369780603 -0.21435678526688054 0.009392082419357298 -0.10237683550725611
2.104205153592361e-08 0.0004823616507473097 -0.0005058520267924673 -0.0006413944747581355 -3.077450693978637e-05 -3.2872207783655376e-08 0.008826356905042791 9.739779749024607e-10
1.7355944886902178e-08 -4.159441517952239e-07 -0.005064778444456619 2.683931397398579e-08 5.063531033561494e-06 -0.0007447328412365339 0.0012186035779208823 0.002260386209324777
-0.0016907361707273498 -0.005118298849520202 -1.2758043438824632e-09 7.432849775318064e-09 -0.0013540059919587132 -0.023634196786760705 -1.2112792433601616e-07 -2.533918418588448e-07
-7.05592609936302e-07 -0.0015233019681038559 0.002276183057616331 -2.24569418823899e-07 -2.574842631714075e-07 0.014964373619078826 1.678747661164443e-08 0.01144417815512296
-0.05847883697516365 0.04996634201485687 -0.06384752905452085 -0.06106983757892418 0.6024931384314315 0.006145637472288454 -0.21861889864274944 -0.041100638822808684
-0.007544572361252796 0.12544225417287003 -0.26282963971930057 -0.06924777785809691 0.5057731607849357 0.20375279845282035 -0.0008115973893646001 -0.2390631737380701
0.21304145297252827 0.13741367480160832 -0.0070153580675244775 -0.07800390354141835 0.15976617453328384 -0.06994924300992357 -0.01145637312225528 0.16564374727782064
0.4433113506033545 -0.030215982105654605 -1.1868978911520434 0.07221956790797492 0.06493078376696837 -0.10901667663402345 -0.054388075640872974 -0.17149164314823892
-0.034620170322906756 0.19511351846044708 -0.1841208488808461 -0.2750070945281584 0.47699693375792146 0.008059224706026722 -0.22572231887703184 0.05111804563091723
-0.06634960406877179 0.10022681489293289 -0.16766293072484556 -0.058187142098768796 0.5483350452673603 0.11062051937752035 -0.18106167258046987 -0.3255964707318728
0.11084288909269581 -0.02997002639476088 -0.0025202234815903343 -0.14420835034357074 0.17816425033857122 -0.39504175085751414 -0.014254126604872772 0.16409973442111211
0.46858609244580984 -0.26589412380272953 -1.0728707244667617 0.05602373869612754 0.09304941423313522 -0.25735184546199996 -0.053678484844243195 -0.004236150871293664
-0.0015873774131200074 -0.15624451632309774 0.05623068951588982 -0.09841898083208384 -0.18509047729749267 0.00012230704219292623 0.16138401090161567 -1.937046899751961e-05
-0.0023171994226259952 2.3639743521763538e-05 0.007390311983125046 -0.0020596080916942283 -0.031738658713675955 -0.1318606805706501 -0.023938198694740523 -0.012167256859094394
-0.1391353046182564 0.011824372544684976 -8.486844154528119e-06 -0.00021895312808703474 0.04910527028588381 -0.1579482106579343 -0.001614460925198593 0.0005132672931414256
0.00036949639222902777 0.14273888289607897 -0.09738999798247255 -0.0005532181879902083 -0.00029813980516907605 0.019147348311246423 -0.002085137066133931 -0.03665692366817756
-0.027536114921678304 0.24329853614807992 -0.040030470583983395 -0.0008478777429193219 0.18142214753690153 -0.02121726890253728 -0.106315900508055 -0.06953806394102406
-0.2536868355125029 -0.19942675699384318 0.011217064036208667 -0.2164652650972898 -0.044212287889316984 0.04271327877884672 0.10483379461139121 0.006852365822158573
0.05003667733634931 0.020993823511629692 0.01146260723871276 -0.0635468492657512 0.03692703704956378 0.23898084534571046 0.017639777236298983 -0.2188127725298197
-0.0681916247370829 -0.053703443770255724 -0.042896769751801414 -0.20078442159418522 -0.21024138604985873 0.20670991941202924 -0.15494957734668377 0.09120579726113393

fnw.layers.2.bias f8 [64]
00000000: 333c ff50 3916 bb3f 9873 20f0 cfde c6bf
00000010: 658d 5526 1af0 cbbf ad07 957c 6b29 35bf
00000020: 7a78 5f5c 2e50 cfbf dc8f 0755 fff0 7f3f
00000030: c131 8f93 e99a 8cbf e07e 4fd0 a977 cd3f
00000040: 8361 ef37 3b30 80bf 6ed9 04ea 7576 81bf
00000050: 17b5 c889 0b5b 763f 8fe4 f59a 4829 8fbf
00000060: 3f70 859d c42c 6abf 561b 9e01 b97d cdbf
00000070: d614 9a67 f119 9e3f 820d a66c e852 b33f
00000080: dead 938a 61cb bfbf fb60 98fa c705 ea3e
00000090: 0c60 8234 6d02 74bf 92f7 a85f 5e42 8bbf
000000a0: 21da 1480 9449 9a3f a326 1f2f ba43 a13f
000000b0: ead4 9690 ea55 613f 92c3 c481 0142 25bf
000000c0: 2941 b410 676e 8b3f 4d73 f9f8 6337 9b3f
000000d0: 5f98 2e3b 827f 52bf 6d37 1eea 423b bc3f
000000e0: 7d79 0f32 8dc0 d5bf fda8 36db 6bf5 c4bf
000000f0: 4b30 4ed2 bd22 79bf 13d7 1e9d cd14 43bf
00000100: 2c17 2816 1a57 d3bf d26a 0585 fa6d 6dbf
00000110: 2509 28b7 72a5 5a3f f5c1 996d 9c53 a2bf
00000120: 3c4a 8d37 ff42 a23f 0a88 933e 25f2 843f
00000130: 59f1 636a 9a65 77bf 6765 8312 bfae 9fbf
00000140: a915 0c92 ae47 a0bf 2711 a0b4 6077 bdbf
00000150: d775 b82a 2cec c0bf cd7f 285c 33a4 b3bf
00000160: ab48 31ae 0b48 97bf cbb3 5ffe f03c 893f
00000170: e77c 5e68 a76c c33f 8b72 5e71 cea5 a93f
00000180: d651 7255 f161 9a3f c4bc a0bf f100 b0bf
00000190: 1f40 54b7 b2d5 80bf f987 e9d4 7034 c3bf
000001a0: cfa6 dda1 ddf5 71bf d62d fa7c ee7e a83f
000001b0: b761 d911 76cb c8bf 5734 4bee 5cf3 a3bf
000001c0: 3f4b 99a6 68da d1bf e55b 4aed 5365 adbf
000001d0: c37f 04a0 9d79 703f e120 61eb d82a a73f
000001e0: 3228 b44b 4cb2 c93f 918d e296 deb2 c9bf
000001f0: e128 f621 b6d9 a2bf 905f cafd 4b99 b6bf
0.10580785968271371 -0.17867469048442497 -0.218264836042276 -0.00032290338693396586 -0.2446344328918178 0.007798192397306249 -0.013967346969274598 0.2302143351689585
-0.007904493946555352 -0.008526726917449347 0.005457921096007532 -0.015215460995692957 -0.0031951751845280814 -0.23039925173744774 0.02939583964191147 0.07548382427744652
-0.12419709809517296 1.2408534376937433e-05 -0.004885126669385908 -0.013310181898414961 0.025671310727569122 0.03371984315124379 0.0021161633819369767 -0.00016218441386109096
0.013394169995564713 0.026578485556785925 -0.0011290332592835057 0.11027925697109504 -0.3398774136420782 -0.16373966411385502 -0.00613664769197093 -0.0005823139165303824
-0.3021912781117517 -0.003592480941887779 0.0016263599651443275 -0.03579415166757719 0.035667396098365306 0.010227480861832578 -0.005712130723847097 -0.030940042023620686
-0.03179688961794664 -0.11510280999943188 -0.13220741353954565 -0.07672425270038659 -0.022735769755236983 0.012323267710565041 0.15175335498950135 0.0500931275739492
0.025764246788257804 -0.06251440933623359 -0.008220096797714458 -0.15003786464791327 -0.004384866477133278 0.04784341121293394 -0.19370914336719888 -0.03896608742579904
-0.278955614751954 -0.05741369506466024 0.004022231791424194 0.04524877427371777 0.2007537240645561 -0.20077116362982086 -0.036817256589601895 -0.08827662416513093

fnw.layers.4.weight f8 [1, 64]
00000000: f353 7da1 d2a9 b6bf db66 1d51 a0a5 823f
00000010: 3649 836e 76bc e3bf 2ebb b3d9 12a7 e5be
00000020: 5a87 fc06 2caa efbf f4d3 dc9c 78db efbf
00000030: 5447 0c03 b633 a63f 61c2 eda4 1b44 bcbf
00000040: a7f6 54de 18b6 d0be 80e1 c331 c56b 03bf
00000050: c7ea f12d 4512 ebbe 84e2 d77b a2d8 1fbf
00000060: d710 e822 089f f93e f58c 40b0 3097 b93f
00000070: d160 d62a 83c2 513f 0c25 885a 4aba ffbe
00000080: 1515 48cd 2454 8c3f 378a 9353 4a98 efbe
00000090: 022b 0caa 40cf 29bf 09e7 3b83 2b10 d03e
000000a0: ef33 9324 b10c 17bf 42bd 3912 0f0a a53f
000000b0: 7f1c dced 75d6 f23e 1ff2 bb0b 6a7a 383f
000000c0: 0698 fd70 cb36 4f3f c28f 8ea7 09c4 213f
000000d0: 88e1 600e a0be cabe d1fd 2838 a9f5 93bf
000000e0: b67c e62b e2a1 eebf 5b3d 3bb0 9066 b53f
000000f0: f308 848c 9390 fabe 5625 80fe 4900 d23e
00000100: b43f 3c43 a0c9 efbf 2469 99bf d060 07bf
00000110: e492 8d59 6e6e d53e d2b1 828b 1da3 7a3f
00000120: 4e1b 9611 7a74 6abf cf6b e091 5d05 e3bf
00000130: c1d2 2885 65eb ddbe c8e0 9787 b861 2bbf
00000140: 1993 9131 2662 2ebf e512 ee7b 4481 923f
00000150: c777 ee80 5ff5 b3bf 0e00 f2fa 8920 6f3f
00000160: 04ef 7667 5117 093f 3ea2 6a97 a2c7 ae3e
00000170: 5227 9342 023e b6bf 8833 f28e 634f 483f
00000180: efde 5b7d 2c1a 1e3f 1dfc e2da 47d1 633f
00000190: 0b89 f17c 5d28 0b3f 95a9 e51b 93d1 eebf
000001a0: f976 861d 0b80 f0be d802 224e f2c1 503f
000001b0: 6367 d43f a34b f0bf 03c0 904c 6d46 5fbf
000001c0: 888d 8673 af97 efbf c8f4 98b9 28a4 223f
000001d0: 75f6 1e2b b2ad a53f cd96 513f a296 9a3f
000001e0: df7d b732 04fc b0bf 1eb3 0a8c 22e6 efbf
000001f0: 9b71 e5f3 4f3f 05bf ee5a 62d3 b517 863f
-0.08852878992668405 0.009104969478062433 -0.6167556913808656 -1.0324779216889365e-05 -0.9895229469732201 -0.9955409110758624 0.04336327349859795 -0.11041424538212531
-3.984288445222555e-06 -3.704257525955195e-05 -1.2908634231081029e-05 -0.0001214837238520204 2.4434297467138717e-05 0.09996322920828844 0.001083973019694585 -3.0257889791972462e-05
0.013832366480537798 -1.5065614763225532e-05 -0.0001969114719247642 3.829756724854776e-06 -8.792716211587758e-05 0.0410923681018809 1.7965065914029868e-05 0.00037350739488298425
0.0009525769582807715 0.0001355420861531825 -3.1882083133783207e-06 -0.019491809895269278 -0.9572611672810101 0.0835962705852941 -2.5334121148475876e-05 4.291803612951664e-06
-0.9933625519934055 -4.459034967104123e-05 5.109637094634289e-06 0.006503215227138219 -0.003229368606017336 -0.5944049691346381 -7.133368927149289e-06 -0.0002089059596952546
-0.0002318069098549362 0.018071241439900815 -0.07796284578077382 0.003799695484815408 4.785744834687018e-05 9.173102587150661e-07 -0.08688367963182245 0.0007418857693593942
0.00011483093780017735 0.002419128743980105 5.179915717047804e-05 -0.963082842337189 -1.5735787970086953e-05 0.0010228029500753324 -1.018466233572746 -0.0019088809369911537
-0.9872662788733786 0.00014222142344691977 0.042340820087230314 0.025965247263590997 -0.066345465070746 -0.9968426451865502 -4.052603479706985e-05 0.010787411225732648

fnw.layers.4.bias f8 [1]
00000000: 601e a4e9 d6e7 b6bf
-0.08947509006622445

fnb.layers.0.weight f8 [32, 1]
00000000: b3e8 06db 5178 d6bf 5329 eeec 42fe d3bf
00000010: c875 3299 28a8 95ba e265 c793 f9b8 ecbf
00000020: a3bd eb78 6497 e43f c05b 61fb 6da6 b9bf
00000030: b8d9 318a a30e e43f a26d 2745 bc00 e53f
00000040: 0a13 d6ce b019 e6bb 4ec0 32f7 da88 c73f
00000050: 2c5e e01b 3f1a 33bb aef0 7dd1 c699 e63f
00000060: 53c6 8765 ca8e f5ba 2807 3a89 921c 63b9
00000070: d15a 4065 c1a3 773f c084 3039 7117 ccbf
00000080: 8315 a9fb 0711 e53f 98bd b646 ec3c 8f3f
00000090: e9a2 a635 5e27 de3f 6342 d9f3 b22b eebf
000000a0: df04 0a9b 41b4 cd3f be01 37d9 736c b03f
000000b0: 80f8 bce5 1040 b23f 6239 5118 9e3b bbbb
000000c0: bda9 dc58 2870 c83f 33e1 e261 f356 e83f
000000d0: 2ab8 26f5 d9f7 d1ba d5dc d915 1e8b e6bf
000000e0: 4d91 ca70 3304 d03f 97e0 e873 62b4 93bb
000000f0: 9c5d dea7 461e dbbf 6bcf 81a3 875e b73f
-0.3510937346396858 -0.3123938859722745 -1.7494279848419445e-26 -0.8975799452120408 0.6434805261359781 -0.10019576441969402 0.6267869662395276 0.6563397741951358
-3.743945618019066e-20 0.1838639933607759 -1.580123871567686e-23 0.7062715617789956 -1.1145108883699053e-24 -2.944609907060375e-32 0.005771403743003404 -0.21946540157754235
0.6583290019267881 0.015252920063032957 0.4711528324065016 -0.942834354655201 0.23206348486204484 0.06415485432717724 0.07129006966440166 -5.7667868825687135e-21
0.19092277850115905 0.7606141006317898 -2.3223314796089145e-25 -0.7044821192529535 0.2502564050175991 -1.0431542819453794e-21 -0.42372290032786863 0.0912861608683763

fnb.layers.0.bias f8 [32]
00000000: 8332 ce72 343e dc3f 55b5 36a6 004f 61bf
00000010: 7605 f94a aef8 adba 7f7a 1cd5 3c0d d0bf
00000020: 1d50 ec6e 0a91 e03f 81f9 455d 7fc1 d03f
00000030: 027f 87c3 0b82 c73f 1485 dc88 7a8f e23f
00000040: 34c7 21d4 b474 03bc 4008 13d2 47bf 873f
00000050: e9d5 5973 bf54 3cbb 56ff a6ca d95e da3f
00000060: 0b58 387a 5590 13bb f1dc 100c 847c 86b9
00000070: cbb0 9ecc ffce b2bf 7ba3 7535 fa94 dd3f
00000080: 17cd 5a3d bdad 85bf 7251 967e 1da2 84bf
00000090: 85a4 ca30 0c4c b1bf f1a3 497e 244a d6bf
000000a0: 282d 3e80 0b59 cfbf 492b d6b9 bf59 b2bf
000000b0: 627d 2a95 f418 b2bf 28ff 8915 ab23 c6bb
000000c0: 5fd5 562c f973 b2bf bcce fff1 50b5 d53f
000000d0: 2e5c ed09 3837 efba ca90 92c3 b525 d53f
000000e0: b791 bf64 7358 c9bf 753a cad6 cd40 c6bb
000000f0: 814c de13 bb24 b83f fc97 22e6 7dfb b1bf
0.44129668437452824 -0.002112866657361915 -4.842142356962917e-26 -0.25080796062130867 0.5177051702944514 0.26181015118336154 0.1836561875088521 0.5800144837450341
-1.3183819965964353e-19 0.011595307444057679 -2.3434892236144553e-23 0.41203923025385814 -4.045699902453888e-24 -1.3858307715130741e-31 -0.07347105737307229 0.46221785755783856
-0.010585287508865933 -0.010074835229524768 -0.06756664458466062 -0.34827530224589426 -0.24490493547305303 -0.07168195998216932 -0.07069328920123533 -9.376370667997652e-21
-0.07208211262225948 0.3391916621469411 -8.069069025841023e-25 0.3304266366851719 -0.1980118028578894 -9.424571741714617e-21 0.09431046710078485 -0.07024371021779524
